…
I1023 17:30:02.996803 10817 net.cpp:339] The NetState phase (0) differed from the phase (1) specified by a rule in layer nuclei
I1023 17:30:02.996827 10817 net.cpp:339] The NetState phase (0) differed from the phase (1) specified by a rule in layer accuracy
I1023 17:30:02.996925 10817 net.cpp:50] Initializing net from parameters: 
name: "NULCEI_quick"
state {
  phase: TRAIN
}
layer {
  name: "nuclei"
  type: "ImageData"
  top: "data"
  top: "label"
  include {
    phase: TRAIN
  }
  image_data_param {
    source: "/home/sanuj/temp_63_LLM_YR4_33/train.txt"
    batch_size: 200
  }
}
layer {
  name: "conv1"
  type: "Convolution"
  bottom: "data"
  top: "conv1"
  param {
    lr_mult: 0.1
  }
  param {
    lr_mult: 0.2
  }
  convolution_param {
    num_output: 48
    pad: 0
    kernel_size: 6
    stride: 1
    weight_filler {
      type: "gaussian"
      std: 0.0001
    }
    bias_filler {
      type: "constant"
    }
  }
}
layer {
  name: "pool1"
  type: "Pooling"
  bottom: "conv1"
  top: "pool1"
  pooling_param {
    pool: MAX
    kernel_size: 2
    stride: 2
  }
}
layer {
  name: "relu1"
  type: "ReLU"
  bottom: "pool1"
  top: "pool1"
}
layer {
  name: "conv2"
  type: "Convolution"
  bottom: "pool1"
  top: "conv2"
  param {
    lr_mult: 0.1
  }
  param {
    lr_mult: 0.2
  }
  convolution_param {
    num_output: 48
    pad: 0
    kernel_size: 4
    stride: 1
    weight_filler {
      type: "gaussian"
      std: 0.01
    }
    bias_filler {
      type: "constant"
    }
  }
}
layer {
  name: "relu2"
  type: "ReLU"
  bottom: "conv2"
  top: "conv2"
}
layer {
  name: "pool2"
  type: "Pooling"
  bottom: "conv2"
  top: "pool2"
  pooling_param {
    pool: MAX
    kernel_size: 2
    stride: 2
  }
}
layer {
  name: "ip_1"
  type: "InnerProduct"
  bottom: "pool2"
  top: "ip1"
  param {
    lr_mult: 1
  }
  param {
    lr_mult: 2
  }
  inner_product_param {
    num_output: 48
    weight_filler {
      type: "gaussian"
      std: 0.1
    }
    bias_filler {
      type: "constant"
    }
  }
}
layer {
  name: "relu1"
  type: "ReLU"
  bottom: "ip1"
  top: "ip1"
}
layer {
  name: "ip_2"
  type: "InnerProduct"
  bottom: "ip1"
  top: "ip2"
  param {
    lr_mult: 1
  }
  param {
    lr_mult: 2
  }
  inner_product_param {
    num_output: 2
    weight_filler {
      type: "gaussian"
      std: 0.1
    }
    bias_filler {
      type: "constant"
    }
  }
}
layer {
  name: "loss"
  type: "SoftmaxWithLoss"
  bottom: "ip2"
  bottom: "label"
  top: "loss"
}
I1023 17:30:02.997002 10817 layer_factory.hpp:76] Creating layer nuclei
I1023 17:30:02.997041 10817 net.cpp:110] Creating Layer nuclei
I1023 17:30:02.997051 10817 net.cpp:433] nuclei -> data
I1023 17:30:02.997076 10817 net.cpp:433] nuclei -> label
I1023 17:30:03.008581 10817 image_data_layer.cpp:37] Opening file /home/sanuj/temp_63_LLM_YR4_33/train.txt
I1023 17:30:03.189127 10817 image_data_layer.cpp:52] A total of 202002 images.
I1023 17:30:03.280982 10817 image_data_layer.cpp:79] output data size: 200,3,33,33
I1023 17:30:03.301631 10817 net.cpp:155] Setting up nuclei
I1023 17:30:03.301669 10817 net.cpp:163] Top shape: 200 3 33 33 (653400)
I1023 17:30:03.301677 10817 net.cpp:163] Top shape: 200 (200)
I1023 17:30:03.301687 10817 layer_factory.hpp:76] Creating layer conv1
I1023 17:30:03.301712 10817 net.cpp:110] Creating Layer conv1
I1023 17:30:03.301717 10817 net.cpp:477] conv1 <- data
I1023 17:30:03.301731 10817 net.cpp:433] conv1 -> conv1
I1023 17:30:03.303805 10817 net.cpp:155] Setting up conv1
I1023 17:30:03.303824 10817 net.cpp:163] Top shape: 200 48 28 28 (7526400)
I1023 17:30:03.303886 10817 layer_factory.hpp:76] Creating layer pool1
I1023 17:30:03.303908 10817 net.cpp:110] Creating Layer pool1
I1023 17:30:03.303920 10817 net.cpp:477] pool1 <- conv1
I1023 17:30:03.303930 10817 net.cpp:433] pool1 -> pool1
I1023 17:30:03.304308 10817 net.cpp:155] Setting up pool1
I1023 17:30:03.304323 10817 net.cpp:163] Top shape: 200 48 14 14 (1881600)
I1023 17:30:03.304328 10817 layer_factory.hpp:76] Creating layer relu1
I1023 17:30:03.304335 10817 net.cpp:110] Creating Layer relu1
I1023 17:30:03.304342 10817 net.cpp:477] relu1 <- pool1
I1023 17:30:03.304353 10817 net.cpp:419] relu1 -> pool1 (in-place)
I1023 17:30:03.304364 10817 net.cpp:155] Setting up relu1
I1023 17:30:03.304373 10817 net.cpp:163] Top shape: 200 48 14 14 (1881600)
I1023 17:30:03.304379 10817 layer_factory.hpp:76] Creating layer conv2
I1023 17:30:03.304391 10817 net.cpp:110] Creating Layer conv2
I1023 17:30:03.304396 10817 net.cpp:477] conv2 <- pool1
I1023 17:30:03.304406 10817 net.cpp:433] conv2 -> conv2
I1023 17:30:03.308276 10817 net.cpp:155] Setting up conv2
I1023 17:30:03.308310 10817 net.cpp:163] Top shape: 200 48 11 11 (1161600)
I1023 17:30:03.308326 10817 layer_factory.hpp:76] Creating layer relu2
I1023 17:30:03.308341 10817 net.cpp:110] Creating Layer relu2
I1023 17:30:03.308348 10817 net.cpp:477] relu2 <- conv2
I1023 17:30:03.308357 10817 net.cpp:419] relu2 -> conv2 (in-place)
I1023 17:30:03.308370 10817 net.cpp:155] Setting up relu2
I1023 17:30:03.308378 10817 net.cpp:163] Top shape: 200 48 11 11 (1161600)
I1023 17:30:03.308383 10817 layer_factory.hpp:76] Creating layer pool2
I1023 17:30:03.308392 10817 net.cpp:110] Creating Layer pool2
I1023 17:30:03.308398 10817 net.cpp:477] pool2 <- conv2
I1023 17:30:03.308418 10817 net.cpp:433] pool2 -> pool2
I1023 17:30:03.308465 10817 net.cpp:155] Setting up pool2
I1023 17:30:03.308475 10817 net.cpp:163] Top shape: 200 48 6 6 (345600)
I1023 17:30:03.308480 10817 layer_factory.hpp:76] Creating layer ip_1
I1023 17:30:03.308491 10817 net.cpp:110] Creating Layer ip_1
I1023 17:30:03.308496 10817 net.cpp:477] ip_1 <- pool2
I1023 17:30:03.308508 10817 net.cpp:433] ip_1 -> ip1
I1023 17:30:03.311954 10817 net.cpp:155] Setting up ip_1
I1023 17:30:03.311975 10817 net.cpp:163] Top shape: 200 48 (9600)
I1023 17:30:03.311990 10817 layer_factory.hpp:76] Creating layer relu1
I1023 17:30:03.312010 10817 net.cpp:110] Creating Layer relu1
I1023 17:30:03.312018 10817 net.cpp:477] relu1 <- ip1
I1023 17:30:03.312026 10817 net.cpp:419] relu1 -> ip1 (in-place)
I1023 17:30:03.312038 10817 net.cpp:155] Setting up relu1
I1023 17:30:03.312047 10817 net.cpp:163] Top shape: 200 48 (9600)
I1023 17:30:03.312052 10817 layer_factory.hpp:76] Creating layer ip_2
I1023 17:30:03.312063 10817 net.cpp:110] Creating Layer ip_2
I1023 17:30:03.312068 10817 net.cpp:477] ip_2 <- ip1
I1023 17:30:03.312077 10817 net.cpp:433] ip_2 -> ip2
I1023 17:30:03.312175 10817 net.cpp:155] Setting up ip_2
I1023 17:30:03.312185 10817 net.cpp:163] Top shape: 200 2 (400)
I1023 17:30:03.312189 10817 layer_factory.hpp:76] Creating layer loss
I1023 17:30:03.312198 10817 net.cpp:110] Creating Layer loss
I1023 17:30:03.312203 10817 net.cpp:477] loss <- ip2
I1023 17:30:03.312211 10817 net.cpp:477] loss <- label
I1023 17:30:03.312222 10817 net.cpp:433] loss -> loss
I1023 17:30:03.312235 10817 layer_factory.hpp:76] Creating layer loss
I1023 17:30:03.312327 10817 net.cpp:155] Setting up loss
…
I1023 17:30:03.312758 10817 solver.cpp:187] Creating test net (#0) specified by net file: examples/nuclei/train_cifar/use_cifar_train_test.prototxt
I1023 17:30:03.312789 10817 net.cpp:339] The NetState phase (1) differed from the phase (0) specified by a rule in layer nuclei
I1023 17:30:03.312891 10817 net.cpp:50] Initializing net from parameters: 
name: "NULCEI_quick"
state {
  phase: TEST
}
layer {
  name: "nuclei"
  type: "ImageData"
  top: "data"
  top: "label"
  include {
    phase: TEST
  }
  image_data_param {
    source: "/home/sanuj/temp_63_LLM_YR4_33/test.txt"
    batch_size: 500
  }
}
layer {
  name: "conv1"
  type: "Convolution"
  bottom: "data"
  top: "conv1"
  param {
    lr_mult: 0.1
  }
  param {
    lr_mult: 0.2
  }
  convolution_param {
    num_output: 48
    pad: 0
    kernel_size: 6
    stride: 1
    weight_filler {
      type: "gaussian"
      std: 0.0001
    }
    bias_filler {
      type: "constant"
    }
  }
}
layer {
  name: "pool1"
  type: "Pooling"
  bottom: "conv1"
  top: "pool1"
  pooling_param {
    pool: MAX
    kernel_size: 2
    stride: 2
  }
}
layer {
  name: "relu1"
  type: "ReLU"
  bottom: "pool1"
  top: "pool1"
}
layer {
  name: "conv2"
  type: "Convolution"
  bottom: "pool1"
  top: "conv2"
  param {
    lr_mult: 0.1
  }
  param {
    lr_mult: 0.2
  }
  convolution_param {
    num_output: 48
    pad: 0
    kernel_size: 4
    stride: 1
    weight_filler {
      type: "gaussian"
      std: 0.01
    }
    bias_filler {
      type: "constant"
    }
  }
}
layer {
  name: "relu2"
  type: "ReLU"
  bottom: "conv2"
  top: "conv2"
}
layer {
  name: "pool2"
  type: "Pooling"
  bottom: "conv2"
  top: "pool2"
  pooling_param {
    pool: MAX
    kernel_size: 2
    stride: 2
  }
}
layer {
  name: "ip_1"
  type: "InnerProduct"
  bottom: "pool2"
  top: "ip1"
  param {
    lr_mult: 1
  }
  param {
    lr_mult: 2
  }
  inner_product_param {
    num_output: 48
    weight_filler {
      type: "gaussian"
      std: 0.1
    }
    bias_filler {
      type: "constant"
    }
  }
}
layer {
  name: "relu1"
  type: "ReLU"
  bottom: "ip1"
  top: "ip1"
}
layer {
  name: "ip_2"
  type: "InnerProduct"
  bottom: "ip1"
  top: "ip2"
  param {
    lr_mult: 1
  }
  param {
    lr_mult: 2
  }
  inner_product_param {
    num_output: 2
    weight_filler {
      type: "gaussian"
      std: 0.1
    }
    bias_filler {
      type: "constant"
    }
  }
}
layer {
  name: "accuracy"
  type: "Accuracy"
  bottom: "ip2"
  bottom: "label"
  top: "accuracy"
  include {
    phase: TEST
  }
}
layer {
  name: "loss"
  type: "SoftmaxWithLoss"
  bottom: "ip2"
  bottom: "label"
  top: "loss"
}
I1023 17:30:03.312974 10817 layer_factory.hpp:76] Creating layer nuclei
I1023 17:30:03.312988 10817 net.cpp:110] Creating Layer nuclei
I1023 17:30:03.312993 10817 net.cpp:433] nuclei -> data
I1023 17:30:03.312999 10817 net.cpp:433] nuclei -> label
I1023 17:30:03.313014 10817 image_data_layer.cpp:37] Opening file /home/sanuj/temp_63_LLM_YR4_33/test.txt
I1023 17:30:03.421892 10817 image_data_layer.cpp:52] A total of 101006 images.
I1023 17:30:03.422188 10817 image_data_layer.cpp:79] output data size: 500,3,33,33
I1023 17:30:03.447567 10817 net.cpp:155] Setting up nuclei
I1023 17:30:03.447614 10817 net.cpp:163] Top shape: 500 3 33 33 (1633500)
I1023 17:30:03.447624 10817 net.cpp:163] Top shape: 500 (500)
I1023 17:30:03.447634 10817 layer_factory.hpp:76] Creating layer label_nuclei_1_split
I1023 17:30:03.447654 10817 net.cpp:110] Creating Layer label_nuclei_1_split
I1023 17:30:03.447660 10817 net.cpp:477] label_nuclei_1_split <- label
I1023 17:30:03.447672 10817 net.cpp:433] label_nuclei_1_split -> label_nuclei_1_split_0
I1023 17:30:03.447703 10817 net.cpp:433] label_nuclei_1_split -> label_nuclei_1_split_1
I1023 17:30:03.447763 10817 net.cpp:155] Setting up label_nuclei_1_split
I1023 17:30:03.447773 10817 net.cpp:163] Top shape: 500 (500)
I1023 17:30:03.447780 10817 net.cpp:163] Top shape: 500 (500)
I1023 17:30:03.447787 10817 layer_factory.hpp:76] Creating layer conv1
I1023 17:30:03.447803 10817 net.cpp:110] Creating Layer conv1
I1023 17:30:03.447809 10817 net.cpp:477] conv1 <- data
I1023 17:30:03.447818 10817 net.cpp:433] conv1 -> conv1
I1023 17:30:03.448259 10817 net.cpp:155] Setting up conv1
I1023 17:30:03.448292 10817 net.cpp:163] Top shape: 500 48 28 28 (18816000)
I1023 17:30:03.448338 10817 layer_factory.hpp:76] Creating layer pool1
I1023 17:30:03.448367 10817 net.cpp:110] Creating Layer pool1
I1023 17:30:03.448385 10817 net.cpp:477] pool1 <- conv1
I1023 17:30:03.448413 10817 net.cpp:433] pool1 -> pool1
I1023 17:30:03.448477 10817 net.cpp:155] Setting up pool1
I1023 17:30:03.448500 10817 net.cpp:163] Top shape: 500 48 14 14 (4704000)
I1023 17:30:03.448518 10817 layer_factory.hpp:76] Creating layer relu1
I1023 17:30:03.448541 10817 net.cpp:110] Creating Layer relu1
I1023 17:30:03.448559 10817 net.cpp:477] relu1 <- pool1
I1023 17:30:03.448582 10817 net.cpp:419] relu1 -> pool1 (in-place)
I1023 17:30:03.448606 10817 net.cpp:155] Setting up relu1
I1023 17:30:03.448628 10817 net.cpp:163] Top shape: 500 48 14 14 (4704000)
I1023 17:30:03.448642 10817 layer_factory.hpp:76] Creating layer conv2
I1023 17:30:03.448663 10817 net.cpp:110] Creating Layer conv2
I1023 17:30:03.448680 10817 net.cpp:477] conv2 <- pool1
I1023 17:30:03.448709 10817 net.cpp:433] conv2 -> conv2
I1023 17:30:03.456408 10817 net.cpp:155] Setting up conv2
I1023 17:30:03.456429 10817 net.cpp:163] Top shape: 500 48 11 11 (2904000)
I1023 17:30:03.456442 10817 layer_factory.hpp:76] Creating layer relu2
I1023 17:30:03.456456 10817 net.cpp:110] Creating Layer relu2
I1023 17:30:03.456462 10817 net.cpp:477] relu2 <- conv2
I1023 17:30:03.456472 10817 net.cpp:419] relu2 -> conv2 (in-place)
I1023 17:30:03.456485 10817 net.cpp:155] Setting up relu2
I1023 17:30:03.456492 10817 net.cpp:163] Top shape: 500 48 11 11 (2904000)
I1023 17:30:03.456498 10817 layer_factory.hpp:76] Creating layer pool2
I1023 17:30:03.456507 10817 net.cpp:110] Creating Layer pool2
I1023 17:30:03.456513 10817 net.cpp:477] pool2 <- conv2
I1023 17:30:03.456521 10817 net.cpp:433] pool2 -> pool2
I1023 17:30:03.456565 10817 net.cpp:155] Setting up pool2
I1023 17:30:03.456573 10817 net.cpp:163] Top shape: 500 48 6 6 (864000)
I1023 17:30:03.456580 10817 layer_factory.hpp:76] Creating layer ip_1
I1023 17:30:03.456593 10817 net.cpp:110] Creating Layer ip_1
I1023 17:30:03.456599 10817 net.cpp:477] ip_1 <- pool2
I1023 17:30:03.456609 10817 net.cpp:433] ip_1 -> ip1
I1023 17:30:03.458694 10817 net.cpp:155] Setting up ip_1
I1023 17:30:03.458704 10817 net.cpp:163] Top shape: 500 48 (24000)
I1023 17:30:03.458712 10817 layer_factory.hpp:76] Creating layer relu1
I1023 17:30:03.458720 10817 net.cpp:110] Creating Layer relu1
I1023 17:30:03.458726 10817 net.cpp:477] relu1 <- ip1
I1023 17:30:03.458739 10817 net.cpp:419] relu1 -> ip1 (in-place)
I1023 17:30:03.458748 10817 net.cpp:155] Setting up relu1
I1023 17:30:03.458757 10817 net.cpp:163] Top shape: 500 48 (24000)
I1023 17:30:03.458763 10817 layer_factory.hpp:76] Creating layer ip_2
I1023 17:30:03.458773 10817 net.cpp:110] Creating Layer ip_2
I1023 17:30:03.458783 10817 net.cpp:477] ip_2 <- ip1
I1023 17:30:03.458791 10817 net.cpp:433] ip_2 -> ip2
I1023 17:30:03.458894 10817 net.cpp:155] Setting up ip_2
I1023 17:30:03.458905 10817 net.cpp:163] Top shape: 500 2 (1000)
I1023 17:30:03.458916 10817 layer_factory.hpp:76] Creating layer ip2_ip_2_0_split
I1023 17:30:03.458925 10817 net.cpp:110] Creating Layer ip2_ip_2_0_split
I1023 17:30:03.458931 10817 net.cpp:477] ip2_ip_2_0_split <- ip2
I1023 17:30:03.458941 10817 net.cpp:433] ip2_ip_2_0_split -> ip2_ip_2_0_split_0
I1023 17:30:03.458951 10817 net.cpp:433] ip2_ip_2_0_split -> ip2_ip_2_0_split_1
I1023 17:30:03.459008 10817 net.cpp:155] Setting up ip2_ip_2_0_split
I1023 17:30:03.459017 10817 net.cpp:163] Top shape: 500 2 (1000)
I1023 17:30:03.459025 10817 net.cpp:163] Top shape: 500 2 (1000)
I1023 17:30:03.459043 10817 layer_factory.hpp:76] Creating layer accuracy
I1023 17:30:03.459055 10817 net.cpp:110] Creating Layer accuracy
I1023 17:30:03.459067 10817 net.cpp:477] accuracy <- ip2_ip_2_0_split_0
I1023 17:30:03.459075 10817 net.cpp:477] accuracy <- label_nuclei_1_split_0
I1023 17:30:03.459084 10817 net.cpp:433] accuracy -> accuracy
I1023 17:30:03.459100 10817 net.cpp:155] Setting up accuracy
…
