…
I1018 19:42:21.510938 17840 net.cpp:339] The NetState phase (0) differed from the phase (1) specified by a rule in layer cifar
I1018 19:42:21.510963 17840 net.cpp:339] The NetState phase (0) differed from the phase (1) specified by a rule in layer accuracy
I1018 19:42:21.511049 17840 net.cpp:50] Initializing net from parameters: 
name: "CIFAR10_full"
state {
  phase: TRAIN
}
layer {
  name: "cifar"
  type: "Data"
  top: "data"
  top: "label"
  include {
    phase: TRAIN
  }
  transform_param {
    mean_file: "examples/cifar10/mean.binaryproto"
  }
  data_param {
    source: "examples/cifar10/cifar10_train_lmdb"
    batch_size: 100
    backend: LMDB
  }
}
layer {
  name: "conv1"
  type: "Convolution"
  bottom: "data"
  top: "conv1"
  param {
    lr_mult: 1
  }
  param {
    lr_mult: 2
  }
  convolution_param {
    num_output: 48
    pad: 2
    kernel_size: 6
    stride: 1
    weight_filler {
      type: "gaussian"
      std: 0.0001
    }
    bias_filler {
      type: "constant"
    }
  }
}
layer {
  name: "pool1"
  type: "Pooling"
  bottom: "conv1"
  top: "pool1"
  pooling_param {
    pool: MAX
    kernel_size: 2
    stride: 2
    pad: 1
  }
}
layer {
  name: "relu1"
  type: "ReLU"
  bottom: "pool1"
  top: "pool1"
}
layer {
  name: "conv2"
  type: "Convolution"
  bottom: "pool1"
  top: "conv2"
  param {
    lr_mult: 1
  }
  param {
    lr_mult: 2
  }
  convolution_param {
    num_output: 48
    pad: 0
    kernel_size: 4
    stride: 1
    weight_filler {
      type: "gaussian"
      std: 0.01
    }
    bias_filler {
      type: "constant"
    }
  }
}
layer {
  name: "relu2"
  type: "ReLU"
  bottom: "conv2"
  top: "conv2"
}
layer {
  name: "pool2"
  type: "Pooling"
  bottom: "conv2"
  top: "pool2"
  pooling_param {
    pool: MAX
    kernel_size: 2
    stride: 2
  }
}
layer {
  name: "ip1"
  type: "InnerProduct"
  bottom: "pool2"
  top: "ip1"
  param {
    lr_mult: 1
  }
  param {
    lr_mult: 2
  }
  inner_product_param {
    num_output: 48
    weight_filler {
      type: "gaussian"
      std: 0.1
    }
    bias_filler {
      type: "constant"
    }
  }
}
layer {
  name: "relu1"
  type: "ReLU"
  bottom: "ip1"
  top: "ip1"
}
layer {
  name: "ip2"
  type: "InnerProduct"
  bottom: "ip1"
  top: "ip2"
  param {
    lr_mult: 1
  }
  param {
    lr_mult: 2
  }
  inner_product_param {
    num_output: 10
    weight_filler {
      type: "gaussian"
      std: 0.1
    }
    bias_filler {
      type: "constant"
    }
  }
}
layer {
  name: "loss"
  type: "SoftmaxWithLoss"
  bottom: "ip2"
  bottom: "label"
  top: "loss"
}
I1018 19:42:21.511116 17840 layer_factory.hpp:76] Creating layer cifar
I1018 19:42:21.511780 17840 net.cpp:110] Creating Layer cifar
I1018 19:42:21.511791 17840 net.cpp:433] cifar -> data
I1018 19:42:21.511831 17840 net.cpp:433] cifar -> label
I1018 19:42:21.511850 17840 data_transformer.cpp:25] Loading mean file from: examples/cifar10/mean.binaryproto
I1018 19:42:21.512714 17843 db_lmdb.cpp:23] Opened lmdb examples/cifar10/cifar10_train_lmdb
I1018 19:42:21.520123 17840 data_layer.cpp:45] output data size: 100,3,32,32
I1018 19:42:21.527521 17840 net.cpp:155] Setting up cifar
I1018 19:42:21.527556 17840 net.cpp:163] Top shape: 100 3 32 32 (307200)
I1018 19:42:21.527564 17840 net.cpp:163] Top shape: 100 (100)
I1018 19:42:21.527571 17840 layer_factory.hpp:76] Creating layer conv1
I1018 19:42:21.527595 17840 net.cpp:110] Creating Layer conv1
I1018 19:42:21.527600 17840 net.cpp:477] conv1 <- data
I1018 19:42:21.527611 17840 net.cpp:433] conv1 -> conv1
I1018 19:42:21.528800 17840 net.cpp:155] Setting up conv1
I1018 19:42:21.528836 17840 net.cpp:163] Top shape: 100 48 31 31 (4612800)
I1018 19:42:21.528851 17840 layer_factory.hpp:76] Creating layer pool1
I1018 19:42:21.528861 17840 net.cpp:110] Creating Layer pool1
I1018 19:42:21.528864 17840 net.cpp:477] pool1 <- conv1
I1018 19:42:21.528872 17840 net.cpp:433] pool1 -> pool1
I1018 19:42:21.529042 17840 net.cpp:155] Setting up pool1
I1018 19:42:21.529052 17840 net.cpp:163] Top shape: 100 48 16 16 (1228800)
I1018 19:42:21.529065 17840 layer_factory.hpp:76] Creating layer relu1
I1018 19:42:21.529073 17840 net.cpp:110] Creating Layer relu1
I1018 19:42:21.529084 17840 net.cpp:477] relu1 <- pool1
I1018 19:42:21.529094 17840 net.cpp:419] relu1 -> pool1 (in-place)
I1018 19:42:21.529105 17840 net.cpp:155] Setting up relu1
I1018 19:42:21.529116 17840 net.cpp:163] Top shape: 100 48 16 16 (1228800)
I1018 19:42:21.529122 17840 layer_factory.hpp:76] Creating layer conv2
I1018 19:42:21.529135 17840 net.cpp:110] Creating Layer conv2
I1018 19:42:21.529144 17840 net.cpp:477] conv2 <- pool1
I1018 19:42:21.529151 17840 net.cpp:433] conv2 -> conv2
I1018 19:42:21.531582 17840 net.cpp:155] Setting up conv2
I1018 19:42:21.531601 17840 net.cpp:163] Top shape: 100 48 13 13 (811200)
I1018 19:42:21.531613 17840 layer_factory.hpp:76] Creating layer relu2
I1018 19:42:21.531625 17840 net.cpp:110] Creating Layer relu2
I1018 19:42:21.531631 17840 net.cpp:477] relu2 <- conv2
I1018 19:42:21.531643 17840 net.cpp:419] relu2 -> conv2 (in-place)
I1018 19:42:21.531653 17840 net.cpp:155] Setting up relu2
I1018 19:42:21.531661 17840 net.cpp:163] Top shape: 100 48 13 13 (811200)
I1018 19:42:21.531667 17840 layer_factory.hpp:76] Creating layer pool2
I1018 19:42:21.531677 17840 net.cpp:110] Creating Layer pool2
I1018 19:42:21.531682 17840 net.cpp:477] pool2 <- conv2
I1018 19:42:21.531698 17840 net.cpp:433] pool2 -> pool2
I1018 19:42:21.531746 17840 net.cpp:155] Setting up pool2
I1018 19:42:21.531754 17840 net.cpp:163] Top shape: 100 48 7 7 (235200)
I1018 19:42:21.531759 17840 layer_factory.hpp:76] Creating layer ip1
I1018 19:42:21.531772 17840 net.cpp:110] Creating Layer ip1
I1018 19:42:21.531779 17840 net.cpp:477] ip1 <- pool2
I1018 19:42:21.531787 17840 net.cpp:433] ip1 -> ip1
I1018 19:42:21.535104 17840 net.cpp:155] Setting up ip1
I1018 19:42:21.535120 17840 net.cpp:163] Top shape: 100 48 (4800)
I1018 19:42:21.535131 17840 layer_factory.hpp:76] Creating layer relu1
I1018 19:42:21.535142 17840 net.cpp:110] Creating Layer relu1
I1018 19:42:21.535151 17840 net.cpp:477] relu1 <- ip1
I1018 19:42:21.535159 17840 net.cpp:419] relu1 -> ip1 (in-place)
I1018 19:42:21.535171 17840 net.cpp:155] Setting up relu1
I1018 19:42:21.535181 17840 net.cpp:163] Top shape: 100 48 (4800)
I1018 19:42:21.535187 17840 layer_factory.hpp:76] Creating layer ip2
I1018 19:42:21.535195 17840 net.cpp:110] Creating Layer ip2
I1018 19:42:21.535202 17840 net.cpp:477] ip2 <- ip1
I1018 19:42:21.535212 17840 net.cpp:433] ip2 -> ip2
I1018 19:42:21.535325 17840 net.cpp:155] Setting up ip2
I1018 19:42:21.535333 17840 net.cpp:163] Top shape: 100 10 (1000)
I1018 19:42:21.535339 17840 layer_factory.hpp:76] Creating layer loss
I1018 19:42:21.535348 17840 net.cpp:110] Creating Layer loss
I1018 19:42:21.535353 17840 net.cpp:477] loss <- ip2
I1018 19:42:21.535361 17840 net.cpp:477] loss <- label
I1018 19:42:21.535370 17840 net.cpp:433] loss -> loss
I1018 19:42:21.535385 17840 layer_factory.hpp:76] Creating layer loss
I1018 19:42:21.535481 17840 net.cpp:155] Setting up loss
…
I1018 19:42:21.535873 17840 solver.cpp:187] Creating test net (#0) specified by net file: examples/nuclei/train_cifar/cifar_nuclei_train_test.prototxt
I1018 19:42:21.535897 17840 net.cpp:339] The NetState phase (1) differed from the phase (0) specified by a rule in layer cifar
I1018 19:42:21.535981 17840 net.cpp:50] Initializing net from parameters: 
name: "CIFAR10_full"
state {
  phase: TEST
}
layer {
  name: "cifar"
  type: "Data"
  top: "data"
  top: "label"
  include {
    phase: TEST
  }
  transform_param {
    mean_file: "examples/cifar10/mean.binaryproto"
  }
  data_param {
    source: "examples/cifar10/cifar10_test_lmdb"
    batch_size: 100
    backend: LMDB
  }
}
layer {
  name: "conv1"
  type: "Convolution"
  bottom: "data"
  top: "conv1"
  param {
    lr_mult: 1
  }
  param {
    lr_mult: 2
  }
  convolution_param {
    num_output: 48
    pad: 2
    kernel_size: 6
    stride: 1
    weight_filler {
      type: "gaussian"
      std: 0.0001
    }
    bias_filler {
      type: "constant"
    }
  }
}
layer {
  name: "pool1"
  type: "Pooling"
  bottom: "conv1"
  top: "pool1"
  pooling_param {
    pool: MAX
    kernel_size: 2
    stride: 2
    pad: 1
  }
}
layer {
  name: "relu1"
  type: "ReLU"
  bottom: "pool1"
  top: "pool1"
}
layer {
  name: "conv2"
  type: "Convolution"
  bottom: "pool1"
  top: "conv2"
  param {
    lr_mult: 1
  }
  param {
    lr_mult: 2
  }
  convolution_param {
    num_output: 48
    pad: 0
    kernel_size: 4
    stride: 1
    weight_filler {
      type: "gaussian"
      std: 0.01
    }
    bias_filler {
      type: "constant"
    }
  }
}
layer {
  name: "relu2"
  type: "ReLU"
  bottom: "conv2"
  top: "conv2"
}
layer {
  name: "pool2"
  type: "Pooling"
  bottom: "conv2"
  top: "pool2"
  pooling_param {
    pool: MAX
    kernel_size: 2
    stride: 2
  }
}
layer {
  name: "ip1"
  type: "InnerProduct"
  bottom: "pool2"
  top: "ip1"
  param {
    lr_mult: 1
  }
  param {
    lr_mult: 2
  }
  inner_product_param {
    num_output: 48
    weight_filler {
      type: "gaussian"
      std: 0.1
    }
    bias_filler {
      type: "constant"
    }
  }
}
layer {
  name: "relu1"
  type: "ReLU"
  bottom: "ip1"
  top: "ip1"
}
layer {
  name: "ip2"
  type: "InnerProduct"
  bottom: "ip1"
  top: "ip2"
  param {
    lr_mult: 1
  }
  param {
    lr_mult: 2
  }
  inner_product_param {
    num_output: 10
    weight_filler {
      type: "gaussian"
      std: 0.1
    }
    bias_filler {
      type: "constant"
    }
  }
}
layer {
  name: "accuracy"
  type: "Accuracy"
  bottom: "ip2"
  bottom: "label"
  top: "accuracy"
  include {
    phase: TEST
  }
}
layer {
  name: "loss"
  type: "SoftmaxWithLoss"
  bottom: "ip2"
  bottom: "label"
  top: "loss"
}
I1018 19:42:21.536044 17840 layer_factory.hpp:76] Creating layer cifar
I1018 19:42:21.536144 17840 net.cpp:110] Creating Layer cifar
I1018 19:42:21.536155 17840 net.cpp:433] cifar -> data
I1018 19:42:21.536169 17840 net.cpp:433] cifar -> label
I1018 19:42:21.536180 17840 data_transformer.cpp:25] Loading mean file from: examples/cifar10/mean.binaryproto
I1018 19:42:21.537559 17845 db_lmdb.cpp:23] Opened lmdb examples/cifar10/cifar10_test_lmdb
I1018 19:42:21.541641 17840 data_layer.cpp:45] output data size: 100,3,32,32
I1018 19:42:21.548414 17840 net.cpp:155] Setting up cifar
I1018 19:42:21.548447 17840 net.cpp:163] Top shape: 100 3 32 32 (307200)
I1018 19:42:21.548456 17840 net.cpp:163] Top shape: 100 (100)
I1018 19:42:21.548465 17840 layer_factory.hpp:76] Creating layer label_cifar_1_split
I1018 19:42:21.548478 17840 net.cpp:110] Creating Layer label_cifar_1_split
I1018 19:42:21.548502 17840 net.cpp:477] label_cifar_1_split <- label
I1018 19:42:21.548516 17840 net.cpp:433] label_cifar_1_split -> label_cifar_1_split_0
I1018 19:42:21.548530 17840 net.cpp:433] label_cifar_1_split -> label_cifar_1_split_1
I1018 19:42:21.548578 17840 net.cpp:155] Setting up label_cifar_1_split
I1018 19:42:21.548589 17840 net.cpp:163] Top shape: 100 (100)
I1018 19:42:21.548598 17840 net.cpp:163] Top shape: 100 (100)
I1018 19:42:21.548604 17840 layer_factory.hpp:76] Creating layer conv1
I1018 19:42:21.548619 17840 net.cpp:110] Creating Layer conv1
I1018 19:42:21.548629 17840 net.cpp:477] conv1 <- data
I1018 19:42:21.548637 17840 net.cpp:433] conv1 -> conv1
I1018 19:42:21.548955 17840 net.cpp:155] Setting up conv1
I1018 19:42:21.548965 17840 net.cpp:163] Top shape: 100 48 31 31 (4612800)
I1018 19:42:21.548981 17840 layer_factory.hpp:76] Creating layer pool1
I1018 19:42:21.548995 17840 net.cpp:110] Creating Layer pool1
I1018 19:42:21.549001 17840 net.cpp:477] pool1 <- conv1
I1018 19:42:21.549011 17840 net.cpp:433] pool1 -> pool1
I1018 19:42:21.549049 17840 net.cpp:155] Setting up pool1
I1018 19:42:21.549057 17840 net.cpp:163] Top shape: 100 48 16 16 (1228800)
I1018 19:42:21.549064 17840 layer_factory.hpp:76] Creating layer relu1
I1018 19:42:21.549075 17840 net.cpp:110] Creating Layer relu1
I1018 19:42:21.549082 17840 net.cpp:477] relu1 <- pool1
I1018 19:42:21.549089 17840 net.cpp:419] relu1 -> pool1 (in-place)
I1018 19:42:21.549098 17840 net.cpp:155] Setting up relu1
I1018 19:42:21.549108 17840 net.cpp:163] Top shape: 100 48 16 16 (1228800)
I1018 19:42:21.549113 17840 layer_factory.hpp:76] Creating layer conv2
I1018 19:42:21.549125 17840 net.cpp:110] Creating Layer conv2
I1018 19:42:21.549132 17840 net.cpp:477] conv2 <- pool1
I1018 19:42:21.549144 17840 net.cpp:433] conv2 -> conv2
I1018 19:42:21.550523 17840 net.cpp:155] Setting up conv2
I1018 19:42:21.550541 17840 net.cpp:163] Top shape: 100 48 13 13 (811200)
I1018 19:42:21.550555 17840 layer_factory.hpp:76] Creating layer relu2
I1018 19:42:21.550565 17840 net.cpp:110] Creating Layer relu2
I1018 19:42:21.550601 17840 net.cpp:477] relu2 <- conv2
I1018 19:42:21.550611 17840 net.cpp:419] relu2 -> conv2 (in-place)
I1018 19:42:21.550626 17840 net.cpp:155] Setting up relu2
I1018 19:42:21.550647 17840 net.cpp:163] Top shape: 100 48 13 13 (811200)
I1018 19:42:21.550653 17840 layer_factory.hpp:76] Creating layer pool2
I1018 19:42:21.550683 17840 net.cpp:110] Creating Layer pool2
I1018 19:42:21.550691 17840 net.cpp:477] pool2 <- conv2
I1018 19:42:21.550704 17840 net.cpp:433] pool2 -> pool2
I1018 19:42:21.550750 17840 net.cpp:155] Setting up pool2
I1018 19:42:21.550760 17840 net.cpp:163] Top shape: 100 48 7 7 (235200)
I1018 19:42:21.550767 17840 layer_factory.hpp:76] Creating layer ip1
I1018 19:42:21.550808 17840 net.cpp:110] Creating Layer ip1
I1018 19:42:21.550817 17840 net.cpp:477] ip1 <- pool2
I1018 19:42:21.550827 17840 net.cpp:433] ip1 -> ip1
I1018 19:42:21.553859 17840 net.cpp:155] Setting up ip1
I1018 19:42:21.553896 17840 net.cpp:163] Top shape: 100 48 (4800)
I1018 19:42:21.553915 17840 layer_factory.hpp:76] Creating layer relu1
I1018 19:42:21.553938 17840 net.cpp:110] Creating Layer relu1
I1018 19:42:21.553946 17840 net.cpp:477] relu1 <- ip1
I1018 19:42:21.553961 17840 net.cpp:419] relu1 -> ip1 (in-place)
I1018 19:42:21.553985 17840 net.cpp:155] Setting up relu1
I1018 19:42:21.553997 17840 net.cpp:163] Top shape: 100 48 (4800)
I1018 19:42:21.554004 17840 layer_factory.hpp:76] Creating layer ip2
I1018 19:42:21.554018 17840 net.cpp:110] Creating Layer ip2
I1018 19:42:21.554038 17840 net.cpp:477] ip2 <- ip1
I1018 19:42:21.554054 17840 net.cpp:433] ip2 -> ip2
I1018 19:42:21.554198 17840 net.cpp:155] Setting up ip2
I1018 19:42:21.554219 17840 net.cpp:163] Top shape: 100 10 (1000)
I1018 19:42:21.554232 17840 layer_factory.hpp:76] Creating layer ip2_ip2_0_split
I1018 19:42:21.554241 17840 net.cpp:110] Creating Layer ip2_ip2_0_split
I1018 19:42:21.554261 17840 net.cpp:477] ip2_ip2_0_split <- ip2
I1018 19:42:21.554289 17840 net.cpp:433] ip2_ip2_0_split -> ip2_ip2_0_split_0
I1018 19:42:21.554313 17840 net.cpp:433] ip2_ip2_0_split -> ip2_ip2_0_split_1
I1018 19:42:21.554373 17840 net.cpp:155] Setting up ip2_ip2_0_split
I1018 19:42:21.554394 17840 net.cpp:163] Top shape: 100 10 (1000)
I1018 19:42:21.554404 17840 net.cpp:163] Top shape: 100 10 (1000)
I1018 19:42:21.554412 17840 layer_factory.hpp:76] Creating layer accuracy
I1018 19:42:21.554421 17840 net.cpp:110] Creating Layer accuracy
I1018 19:42:21.554431 17840 net.cpp:477] accuracy <- ip2_ip2_0_split_0
I1018 19:42:21.554438 17840 net.cpp:477] accuracy <- label_cifar_1_split_0
I1018 19:42:21.554450 17840 net.cpp:433] accuracy -> accuracy
I1018 19:42:21.554476 17840 net.cpp:155] Setting up accuracy
…
