…
I1019 23:06:26.644039 25047 net.cpp:339] The NetState phase (0) differed from the phase (1) specified by a rule in layer nuclei
I1019 23:06:26.644067 25047 net.cpp:339] The NetState phase (0) differed from the phase (1) specified by a rule in layer accuracy
I1019 23:06:26.644152 25047 net.cpp:50] Initializing net from parameters: 
name: "NULCEI_quick"
state {
  phase: TRAIN
}
layer {
  name: "nuclei"
  type: "ImageData"
  top: "data"
  top: "label"
  include {
    phase: TRAIN
  }
  image_data_param {
    source: "/home/sanuj/temp_63_LLM_YR4/train.txt"
    batch_size: 100
  }
}
layer {
  name: "conv1"
  type: "Convolution"
  bottom: "data"
  top: "conv1"
  param {
    lr_mult: 0
  }
  param {
    lr_mult: 0
  }
  convolution_param {
    num_output: 48
    pad: 0
    kernel_size: 6
    stride: 1
    weight_filler {
      type: "gaussian"
      std: 0.0001
    }
    bias_filler {
      type: "constant"
    }
  }
}
layer {
  name: "pool1"
  type: "Pooling"
  bottom: "conv1"
  top: "pool1"
  pooling_param {
    pool: MAX
    kernel_size: 2
    stride: 2
  }
}
layer {
  name: "relu1"
  type: "ReLU"
  bottom: "pool1"
  top: "pool1"
}
layer {
  name: "conv2"
  type: "Convolution"
  bottom: "pool1"
  top: "conv2"
  param {
    lr_mult: 0
  }
  param {
    lr_mult: 0
  }
  convolution_param {
    num_output: 48
    pad: 0
    kernel_size: 4
    stride: 1
    weight_filler {
      type: "gaussian"
      std: 0.01
    }
    bias_filler {
      type: "constant"
    }
  }
}
layer {
  name: "relu2"
  type: "ReLU"
  bottom: "conv2"
  top: "conv2"
}
layer {
  name: "pool2"
  type: "Pooling"
  bottom: "conv2"
  top: "pool2"
  pooling_param {
    pool: MAX
    kernel_size: 2
    stride: 2
  }
}
layer {
  name: "ip_1"
  type: "InnerProduct"
  bottom: "pool2"
  top: "ip1"
  param {
    lr_mult: 1
  }
  param {
    lr_mult: 2
  }
  inner_product_param {
    num_output: 48
    weight_filler {
      type: "gaussian"
      std: 0.1
    }
    bias_filler {
      type: "constant"
    }
  }
}
layer {
  name: "relu1"
  type: "ReLU"
  bottom: "ip1"
  top: "ip1"
}
layer {
  name: "ip_2"
  type: "InnerProduct"
  bottom: "ip1"
  top: "ip2"
  param {
    lr_mult: 1
  }
  param {
    lr_mult: 2
  }
  inner_product_param {
    num_output: 48
    weight_filler {
      type: "gaussian"
      std: 0.1
    }
    bias_filler {
      type: "constant"
    }
  }
}
layer {
  name: "relu2"
  type: "ReLU"
  bottom: "ip2"
  top: "ip2"
}
layer {
  name: "ip_3"
  type: "InnerProduct"
  bottom: "ip2"
  top: "ip3"
  param {
    lr_mult: 1
  }
  param {
    lr_mult: 2
  }
  inner_product_param {
    num_output: 2
    weight_filler {
      type: "gaussian"
      std: 0.1
    }
    bias_filler {
      type: "constant"
    }
  }
}
layer {
  name: "loss"
  type: "SoftmaxWithLoss"
  bottom: "ip3"
  bottom: "label"
  top: "loss"
}
I1019 23:06:26.644225 25047 layer_factory.hpp:76] Creating layer nuclei
I1019 23:06:26.644254 25047 net.cpp:110] Creating Layer nuclei
I1019 23:06:26.644260 25047 net.cpp:433] nuclei -> data
I1019 23:06:26.644279 25047 net.cpp:433] nuclei -> label
I1019 23:06:26.644291 25047 image_data_layer.cpp:37] Opening file /home/sanuj/temp_63_LLM_YR4/train.txt
I1019 23:06:26.683506 25047 image_data_layer.cpp:52] A total of 100000 images.
I1019 23:06:26.692617 25047 image_data_layer.cpp:79] output data size: 100,3,55,55
I1019 23:06:26.709422 25047 net.cpp:155] Setting up nuclei
I1019 23:06:26.709457 25047 net.cpp:163] Top shape: 100 3 55 55 (907500)
I1019 23:06:26.709467 25047 net.cpp:163] Top shape: 100 (100)
I1019 23:06:26.709478 25047 layer_factory.hpp:76] Creating layer conv1
I1019 23:06:26.709542 25047 net.cpp:110] Creating Layer conv1
I1019 23:06:26.709566 25047 net.cpp:477] conv1 <- data
I1019 23:06:26.709586 25047 net.cpp:433] conv1 -> conv1
I1019 23:06:26.710950 25047 net.cpp:155] Setting up conv1
I1019 23:06:26.710970 25047 net.cpp:163] Top shape: 100 48 50 50 (12000000)
I1019 23:06:26.710994 25047 layer_factory.hpp:76] Creating layer pool1
I1019 23:06:26.711014 25047 net.cpp:110] Creating Layer pool1
I1019 23:06:26.711022 25047 net.cpp:477] pool1 <- conv1
I1019 23:06:26.711031 25047 net.cpp:433] pool1 -> pool1
I1019 23:06:26.711081 25047 net.cpp:155] Setting up pool1
I1019 23:06:26.711089 25047 net.cpp:163] Top shape: 100 48 25 25 (3000000)
I1019 23:06:26.711096 25047 layer_factory.hpp:76] Creating layer relu1
I1019 23:06:26.711103 25047 net.cpp:110] Creating Layer relu1
I1019 23:06:26.711112 25047 net.cpp:477] relu1 <- pool1
I1019 23:06:26.711122 25047 net.cpp:419] relu1 -> pool1 (in-place)
I1019 23:06:26.711133 25047 net.cpp:155] Setting up relu1
I1019 23:06:26.711143 25047 net.cpp:163] Top shape: 100 48 25 25 (3000000)
I1019 23:06:26.711150 25047 layer_factory.hpp:76] Creating layer conv2
I1019 23:06:26.711168 25047 net.cpp:110] Creating Layer conv2
I1019 23:06:26.711174 25047 net.cpp:477] conv2 <- pool1
I1019 23:06:26.711184 25047 net.cpp:433] conv2 -> conv2
I1019 23:06:26.715342 25047 net.cpp:155] Setting up conv2
I1019 23:06:26.715360 25047 net.cpp:163] Top shape: 100 48 22 22 (2323200)
I1019 23:06:26.715378 25047 layer_factory.hpp:76] Creating layer relu2
I1019 23:06:26.715402 25047 net.cpp:110] Creating Layer relu2
I1019 23:06:26.715415 25047 net.cpp:477] relu2 <- conv2
I1019 23:06:26.715433 25047 net.cpp:419] relu2 -> conv2 (in-place)
I1019 23:06:26.715447 25047 net.cpp:155] Setting up relu2
I1019 23:06:26.715456 25047 net.cpp:163] Top shape: 100 48 22 22 (2323200)
I1019 23:06:26.715463 25047 layer_factory.hpp:76] Creating layer pool2
I1019 23:06:26.715473 25047 net.cpp:110] Creating Layer pool2
I1019 23:06:26.715481 25047 net.cpp:477] pool2 <- conv2
I1019 23:06:26.715490 25047 net.cpp:433] pool2 -> pool2
I1019 23:06:26.715538 25047 net.cpp:155] Setting up pool2
I1019 23:06:26.715548 25047 net.cpp:163] Top shape: 100 48 11 11 (580800)
I1019 23:06:26.715554 25047 layer_factory.hpp:76] Creating layer ip_1
I1019 23:06:26.715567 25047 net.cpp:110] Creating Layer ip_1
I1019 23:06:26.715575 25047 net.cpp:477] ip_1 <- pool2
I1019 23:06:26.715584 25047 net.cpp:433] ip_1 -> ip1
I1019 23:06:26.722786 25047 net.cpp:155] Setting up ip_1
I1019 23:06:26.722810 25047 net.cpp:163] Top shape: 100 48 (4800)
I1019 23:06:26.722831 25047 layer_factory.hpp:76] Creating layer relu1
I1019 23:06:26.722874 25047 net.cpp:110] Creating Layer relu1
I1019 23:06:26.722884 25047 net.cpp:477] relu1 <- ip1
I1019 23:06:26.722898 25047 net.cpp:419] relu1 -> ip1 (in-place)
I1019 23:06:26.722909 25047 net.cpp:155] Setting up relu1
I1019 23:06:26.722920 25047 net.cpp:163] Top shape: 100 48 (4800)
I1019 23:06:26.722929 25047 layer_factory.hpp:76] Creating layer ip_2
I1019 23:06:26.722939 25047 net.cpp:110] Creating Layer ip_2
I1019 23:06:26.722945 25047 net.cpp:477] ip_2 <- ip1
I1019 23:06:26.722956 25047 net.cpp:433] ip_2 -> ip2
I1019 23:06:26.723114 25047 net.cpp:155] Setting up ip_2
I1019 23:06:26.723122 25047 net.cpp:163] Top shape: 100 48 (4800)
I1019 23:06:26.723134 25047 layer_factory.hpp:76] Creating layer relu2
I1019 23:06:26.723145 25047 net.cpp:110] Creating Layer relu2
I1019 23:06:26.723151 25047 net.cpp:477] relu2 <- ip2
I1019 23:06:26.723160 25047 net.cpp:419] relu2 -> ip2 (in-place)
I1019 23:06:26.723170 25047 net.cpp:155] Setting up relu2
I1019 23:06:26.723178 25047 net.cpp:163] Top shape: 100 48 (4800)
I1019 23:06:26.723184 25047 layer_factory.hpp:76] Creating layer ip_3
I1019 23:06:26.723196 25047 net.cpp:110] Creating Layer ip_3
I1019 23:06:26.723201 25047 net.cpp:477] ip_3 <- ip2
I1019 23:06:26.723211 25047 net.cpp:433] ip_3 -> ip3
I1019 23:06:26.723297 25047 net.cpp:155] Setting up ip_3
I1019 23:06:26.723306 25047 net.cpp:163] Top shape: 100 2 (200)
I1019 23:06:26.723341 25047 layer_factory.hpp:76] Creating layer loss
I1019 23:06:26.723353 25047 net.cpp:110] Creating Layer loss
I1019 23:06:26.723361 25047 net.cpp:477] loss <- ip3
I1019 23:06:26.723367 25047 net.cpp:477] loss <- label
I1019 23:06:26.723382 25047 net.cpp:433] loss -> loss
I1019 23:06:26.723399 25047 layer_factory.hpp:76] Creating layer loss
I1019 23:06:26.723486 25047 net.cpp:155] Setting up loss
…
I1019 23:06:26.723965 25047 solver.cpp:187] Creating test net (#0) specified by net file: examples/nuclei/train_cifar/use_cifar_train_test.prototxt
I1019 23:06:26.723999 25047 net.cpp:339] The NetState phase (1) differed from the phase (0) specified by a rule in layer nuclei
I1019 23:06:26.724102 25047 net.cpp:50] Initializing net from parameters: 
name: "NULCEI_quick"
state {
  phase: TEST
}
layer {
  name: "nuclei"
  type: "ImageData"
  top: "data"
  top: "label"
  include {
    phase: TEST
  }
  image_data_param {
    source: "/home/sanuj/temp_63_LLM_YR4/63_LLM_YR4_6/meta.txt"
    batch_size: 100
  }
}
layer {
  name: "conv1"
  type: "Convolution"
  bottom: "data"
  top: "conv1"
  param {
    lr_mult: 0
  }
  param {
    lr_mult: 0
  }
  convolution_param {
    num_output: 48
    pad: 0
    kernel_size: 6
    stride: 1
    weight_filler {
      type: "gaussian"
      std: 0.0001
    }
    bias_filler {
      type: "constant"
    }
  }
}
layer {
  name: "pool1"
  type: "Pooling"
  bottom: "conv1"
  top: "pool1"
  pooling_param {
    pool: MAX
    kernel_size: 2
    stride: 2
  }
}
layer {
  name: "relu1"
  type: "ReLU"
  bottom: "pool1"
  top: "pool1"
}
layer {
  name: "conv2"
  type: "Convolution"
  bottom: "pool1"
  top: "conv2"
  param {
    lr_mult: 0
  }
  param {
    lr_mult: 0
  }
  convolution_param {
    num_output: 48
    pad: 0
    kernel_size: 4
    stride: 1
    weight_filler {
      type: "gaussian"
      std: 0.01
    }
    bias_filler {
      type: "constant"
    }
  }
}
layer {
  name: "relu2"
  type: "ReLU"
  bottom: "conv2"
  top: "conv2"
}
layer {
  name: "pool2"
  type: "Pooling"
  bottom: "conv2"
  top: "pool2"
  pooling_param {
    pool: MAX
    kernel_size: 2
    stride: 2
  }
}
layer {
  name: "ip_1"
  type: "InnerProduct"
  bottom: "pool2"
  top: "ip1"
  param {
    lr_mult: 1
  }
  param {
    lr_mult: 2
  }
  inner_product_param {
    num_output: 48
    weight_filler {
      type: "gaussian"
      std: 0.1
    }
    bias_filler {
      type: "constant"
    }
  }
}
layer {
  name: "relu1"
  type: "ReLU"
  bottom: "ip1"
  top: "ip1"
}
layer {
  name: "ip_2"
  type: "InnerProduct"
  bottom: "ip1"
  top: "ip2"
  param {
    lr_mult: 1
  }
  param {
    lr_mult: 2
  }
  inner_product_param {
    num_output: 48
    weight_filler {
      type: "gaussian"
      std: 0.1
    }
    bias_filler {
      type: "constant"
    }
  }
}
layer {
  name: "relu2"
  type: "ReLU"
  bottom: "ip2"
  top: "ip2"
}
layer {
  name: "ip_3"
  type: "InnerProduct"
  bottom: "ip2"
  top: "ip3"
  param {
    lr_mult: 1
  }
  param {
    lr_mult: 2
  }
  inner_product_param {
    num_output: 2
    weight_filler {
      type: "gaussian"
      std: 0.1
    }
    bias_filler {
      type: "constant"
    }
  }
}
layer {
  name: "accuracy"
  type: "Accuracy"
  bottom: "ip3"
  bottom: "label"
  top: "accuracy"
  include {
    phase: TEST
  }
}
layer {
  name: "loss"
  type: "SoftmaxWithLoss"
  bottom: "ip3"
  bottom: "label"
  top: "loss"
}
I1019 23:06:26.724212 25047 layer_factory.hpp:76] Creating layer nuclei
I1019 23:06:26.724231 25047 net.cpp:110] Creating Layer nuclei
I1019 23:06:26.724242 25047 net.cpp:433] nuclei -> data
I1019 23:06:26.724254 25047 net.cpp:433] nuclei -> label
I1019 23:06:26.724266 25047 image_data_layer.cpp:37] Opening file /home/sanuj/temp_63_LLM_YR4/63_LLM_YR4_6/meta.txt
I1019 23:06:26.745709 25047 image_data_layer.cpp:52] A total of 50001 images.
I1019 23:06:26.746009 25047 image_data_layer.cpp:79] output data size: 100,3,55,55
I1019 23:06:26.761741 25047 net.cpp:155] Setting up nuclei
I1019 23:06:26.761862 25047 net.cpp:163] Top shape: 100 3 55 55 (907500)
I1019 23:06:26.761899 25047 net.cpp:163] Top shape: 100 (100)
I1019 23:06:26.761925 25047 layer_factory.hpp:76] Creating layer label_nuclei_1_split
I1019 23:06:26.761966 25047 net.cpp:110] Creating Layer label_nuclei_1_split
I1019 23:06:26.761991 25047 net.cpp:477] label_nuclei_1_split <- label
I1019 23:06:26.762019 25047 net.cpp:433] label_nuclei_1_split -> label_nuclei_1_split_0
I1019 23:06:26.762051 25047 net.cpp:433] label_nuclei_1_split -> label_nuclei_1_split_1
I1019 23:06:26.762131 25047 net.cpp:155] Setting up label_nuclei_1_split
I1019 23:06:26.762161 25047 net.cpp:163] Top shape: 100 (100)
I1019 23:06:26.762187 25047 net.cpp:163] Top shape: 100 (100)
I1019 23:06:26.762210 25047 layer_factory.hpp:76] Creating layer conv1
I1019 23:06:26.762241 25047 net.cpp:110] Creating Layer conv1
I1019 23:06:26.762264 25047 net.cpp:477] conv1 <- data
I1019 23:06:26.762292 25047 net.cpp:433] conv1 -> conv1
I1019 23:06:26.762759 25047 net.cpp:155] Setting up conv1
I1019 23:06:26.762790 25047 net.cpp:163] Top shape: 100 48 50 50 (12000000)
I1019 23:06:26.762819 25047 layer_factory.hpp:76] Creating layer pool1
I1019 23:06:26.762843 25047 net.cpp:110] Creating Layer pool1
I1019 23:06:26.762862 25047 net.cpp:477] pool1 <- conv1
I1019 23:06:26.762884 25047 net.cpp:433] pool1 -> pool1
I1019 23:06:26.762948 25047 net.cpp:155] Setting up pool1
I1019 23:06:26.762969 25047 net.cpp:163] Top shape: 100 48 25 25 (3000000)
I1019 23:06:26.762989 25047 layer_factory.hpp:76] Creating layer relu1
I1019 23:06:26.763011 25047 net.cpp:110] Creating Layer relu1
I1019 23:06:26.763031 25047 net.cpp:477] relu1 <- pool1
I1019 23:06:26.763051 25047 net.cpp:419] relu1 -> pool1 (in-place)
I1019 23:06:26.763072 25047 net.cpp:155] Setting up relu1
I1019 23:06:26.763092 25047 net.cpp:163] Top shape: 100 48 25 25 (3000000)
I1019 23:06:26.763113 25047 layer_factory.hpp:76] Creating layer conv2
I1019 23:06:26.763141 25047 net.cpp:110] Creating Layer conv2
I1019 23:06:26.763164 25047 net.cpp:477] conv2 <- pool1
I1019 23:06:26.763193 25047 net.cpp:433] conv2 -> conv2
I1019 23:06:26.766357 25047 net.cpp:155] Setting up conv2
I1019 23:06:26.766391 25047 net.cpp:163] Top shape: 100 48 22 22 (2323200)
I1019 23:06:26.766407 25047 layer_factory.hpp:76] Creating layer relu2
I1019 23:06:26.766418 25047 net.cpp:110] Creating Layer relu2
I1019 23:06:26.766425 25047 net.cpp:477] relu2 <- conv2
I1019 23:06:26.766435 25047 net.cpp:419] relu2 -> conv2 (in-place)
I1019 23:06:26.766453 25047 net.cpp:155] Setting up relu2
I1019 23:06:26.766461 25047 net.cpp:163] Top shape: 100 48 22 22 (2323200)
I1019 23:06:26.766471 25047 layer_factory.hpp:76] Creating layer pool2
I1019 23:06:26.766481 25047 net.cpp:110] Creating Layer pool2
I1019 23:06:26.766487 25047 net.cpp:477] pool2 <- conv2
I1019 23:06:26.766512 25047 net.cpp:433] pool2 -> pool2
I1019 23:06:26.766561 25047 net.cpp:155] Setting up pool2
I1019 23:06:26.766571 25047 net.cpp:163] Top shape: 100 48 11 11 (580800)
I1019 23:06:26.766577 25047 layer_factory.hpp:76] Creating layer ip_1
I1019 23:06:26.766593 25047 net.cpp:110] Creating Layer ip_1
I1019 23:06:26.766600 25047 net.cpp:477] ip_1 <- pool2
I1019 23:06:26.766609 25047 net.cpp:433] ip_1 -> ip1
I1019 23:06:26.777379 25047 net.cpp:155] Setting up ip_1
I1019 23:06:26.777418 25047 net.cpp:163] Top shape: 100 48 (4800)
I1019 23:06:26.777441 25047 layer_factory.hpp:76] Creating layer relu1
I1019 23:06:26.777459 25047 net.cpp:110] Creating Layer relu1
I1019 23:06:26.777467 25047 net.cpp:477] relu1 <- ip1
I1019 23:06:26.777495 25047 net.cpp:419] relu1 -> ip1 (in-place)
I1019 23:06:26.777508 25047 net.cpp:155] Setting up relu1
I1019 23:06:26.777514 25047 net.cpp:163] Top shape: 100 48 (4800)
I1019 23:06:26.777520 25047 layer_factory.hpp:76] Creating layer ip_2
I1019 23:06:26.777529 25047 net.cpp:110] Creating Layer ip_2
I1019 23:06:26.777535 25047 net.cpp:477] ip_2 <- ip1
I1019 23:06:26.777545 25047 net.cpp:433] ip_2 -> ip2
I1019 23:06:26.777782 25047 net.cpp:155] Setting up ip_2
I1019 23:06:26.777806 25047 net.cpp:163] Top shape: 100 48 (4800)
I1019 23:06:26.777815 25047 layer_factory.hpp:76] Creating layer relu2
I1019 23:06:26.777823 25047 net.cpp:110] Creating Layer relu2
I1019 23:06:26.777830 25047 net.cpp:477] relu2 <- ip2
I1019 23:06:26.777838 25047 net.cpp:419] relu2 -> ip2 (in-place)
I1019 23:06:26.777849 25047 net.cpp:155] Setting up relu2
I1019 23:06:26.777858 25047 net.cpp:163] Top shape: 100 48 (4800)
I1019 23:06:26.777866 25047 layer_factory.hpp:76] Creating layer ip_3
I1019 23:06:26.777884 25047 net.cpp:110] Creating Layer ip_3
I1019 23:06:26.777894 25047 net.cpp:477] ip_3 <- ip2
I1019 23:06:26.777904 25047 net.cpp:433] ip_3 -> ip3
I1019 23:06:26.778035 25047 net.cpp:155] Setting up ip_3
I1019 23:06:26.778058 25047 net.cpp:163] Top shape: 100 2 (200)
I1019 23:06:26.778070 25047 layer_factory.hpp:76] Creating layer ip3_ip_3_0_split
I1019 23:06:26.778080 25047 net.cpp:110] Creating Layer ip3_ip_3_0_split
I1019 23:06:26.778087 25047 net.cpp:477] ip3_ip_3_0_split <- ip3
I1019 23:06:26.778096 25047 net.cpp:433] ip3_ip_3_0_split -> ip3_ip_3_0_split_0
I1019 23:06:26.778108 25047 net.cpp:433] ip3_ip_3_0_split -> ip3_ip_3_0_split_1
I1019 23:06:26.778153 25047 net.cpp:155] Setting up ip3_ip_3_0_split
I1019 23:06:26.778162 25047 net.cpp:163] Top shape: 100 2 (200)
I1019 23:06:26.778169 25047 net.cpp:163] Top shape: 100 2 (200)
I1019 23:06:26.778175 25047 layer_factory.hpp:76] Creating layer accuracy
I1019 23:06:26.778185 25047 net.cpp:110] Creating Layer accuracy
I1019 23:06:26.778190 25047 net.cpp:477] accuracy <- ip3_ip_3_0_split_0
I1019 23:06:26.778198 25047 net.cpp:477] accuracy <- label_nuclei_1_split_0
I1019 23:06:26.778205 25047 net.cpp:433] accuracy -> accuracy
I1019 23:06:26.778218 25047 net.cpp:155] Setting up accuracy
…
