…
I1019 15:46:00.006496 12294 net.cpp:339] The NetState phase (0) differed from the phase (1) specified by a rule in layer cifar
I1019 15:46:00.006525 12294 net.cpp:339] The NetState phase (0) differed from the phase (1) specified by a rule in layer accuracy
I1019 15:46:00.006608 12294 net.cpp:50] Initializing net from parameters: 
name: "CIFAR10_full"
state {
  phase: TRAIN
}
layer {
  name: "cifar"
  type: "Data"
  top: "data"
  top: "label"
  include {
    phase: TRAIN
  }
  transform_param {
    mean_file: "examples/cifar10/mean.binaryproto"
  }
  data_param {
    source: "examples/cifar10/cifar10_train_lmdb"
    batch_size: 100
    backend: LMDB
  }
}
layer {
  name: "conv1"
  type: "Convolution"
  bottom: "data"
  top: "conv1"
  param {
    lr_mult: 1
  }
  param {
    lr_mult: 2
  }
  convolution_param {
    num_output: 48
    pad: 2
    kernel_size: 6
    stride: 1
    weight_filler {
      type: "gaussian"
      std: 0.0001
    }
    bias_filler {
      type: "constant"
    }
  }
}
layer {
  name: "pool1"
  type: "Pooling"
  bottom: "conv1"
  top: "pool1"
  pooling_param {
    pool: MAX
    kernel_size: 2
    stride: 2
    pad: 1
  }
}
layer {
  name: "relu1"
  type: "ReLU"
  bottom: "pool1"
  top: "pool1"
}
layer {
  name: "conv2"
  type: "Convolution"
  bottom: "pool1"
  top: "conv2"
  param {
    lr_mult: 1
  }
  param {
    lr_mult: 2
  }
  convolution_param {
    num_output: 48
    pad: 0
    kernel_size: 4
    stride: 1
    weight_filler {
      type: "gaussian"
      std: 0.01
    }
    bias_filler {
      type: "constant"
    }
  }
}
layer {
  name: "relu2"
  type: "ReLU"
  bottom: "conv2"
  top: "conv2"
}
layer {
  name: "pool2"
  type: "Pooling"
  bottom: "conv2"
  top: "pool2"
  pooling_param {
    pool: MAX
    kernel_size: 2
    stride: 2
  }
}
layer {
  name: "ip1"
  type: "InnerProduct"
  bottom: "pool2"
  top: "ip1"
  param {
    lr_mult: 1
  }
  param {
    lr_mult: 2
  }
  inner_product_param {
    num_output: 48
    weight_filler {
      type: "gaussian"
      std: 0.1
    }
    bias_filler {
      type: "constant"
    }
  }
}
layer {
  name: "relu1"
  type: "ReLU"
  bottom: "ip1"
  top: "ip1"
}
layer {
  name: "ip2"
  type: "InnerProduct"
  bottom: "ip1"
  top: "ip2"
  param {
    lr_mult: 1
  }
  param {
    lr_mult: 2
  }
  inner_product_param {
    num_output: 10
    weight_filler {
      type: "gaussian"
      std: 0.1
    }
    bias_filler {
      type: "constant"
    }
  }
}
layer {
  name: "loss"
  type: "SoftmaxWithLoss"
  bottom: "ip2"
  bottom: "label"
  top: "loss"
}
I1019 15:46:00.006670 12294 layer_factory.hpp:76] Creating layer cifar
I1019 15:46:00.007145 12294 net.cpp:110] Creating Layer cifar
I1019 15:46:00.007159 12294 net.cpp:433] cifar -> data
I1019 15:46:00.007182 12294 net.cpp:433] cifar -> label
I1019 15:46:00.007194 12294 data_transformer.cpp:25] Loading mean file from: examples/cifar10/mean.binaryproto
I1019 15:46:00.007990 12297 db_lmdb.cpp:23] Opened lmdb examples/cifar10/cifar10_train_lmdb
I1019 15:46:00.014461 12294 data_layer.cpp:45] output data size: 100,3,32,32
I1019 15:46:00.021399 12294 net.cpp:155] Setting up cifar
I1019 15:46:00.021436 12294 net.cpp:163] Top shape: 100 3 32 32 (307200)
I1019 15:46:00.021445 12294 net.cpp:163] Top shape: 100 (100)
I1019 15:46:00.021452 12294 layer_factory.hpp:76] Creating layer conv1
I1019 15:46:00.021476 12294 net.cpp:110] Creating Layer conv1
I1019 15:46:00.021483 12294 net.cpp:477] conv1 <- data
I1019 15:46:00.021503 12294 net.cpp:433] conv1 -> conv1
I1019 15:46:00.022831 12294 net.cpp:155] Setting up conv1
I1019 15:46:00.022883 12294 net.cpp:163] Top shape: 100 48 31 31 (4612800)
I1019 15:46:00.022909 12294 layer_factory.hpp:76] Creating layer pool1
I1019 15:46:00.022927 12294 net.cpp:110] Creating Layer pool1
I1019 15:46:00.022933 12294 net.cpp:477] pool1 <- conv1
I1019 15:46:00.022940 12294 net.cpp:433] pool1 -> pool1
I1019 15:46:00.023077 12294 net.cpp:155] Setting up pool1
I1019 15:46:00.023085 12294 net.cpp:163] Top shape: 100 48 16 16 (1228800)
I1019 15:46:00.023090 12294 layer_factory.hpp:76] Creating layer relu1
I1019 15:46:00.023099 12294 net.cpp:110] Creating Layer relu1
I1019 15:46:00.023107 12294 net.cpp:477] relu1 <- pool1
I1019 15:46:00.023113 12294 net.cpp:419] relu1 -> pool1 (in-place)
I1019 15:46:00.023124 12294 net.cpp:155] Setting up relu1
I1019 15:46:00.023133 12294 net.cpp:163] Top shape: 100 48 16 16 (1228800)
I1019 15:46:00.023138 12294 layer_factory.hpp:76] Creating layer conv2
I1019 15:46:00.023152 12294 net.cpp:110] Creating Layer conv2
I1019 15:46:00.023161 12294 net.cpp:477] conv2 <- pool1
I1019 15:46:00.023170 12294 net.cpp:433] conv2 -> conv2
I1019 15:46:00.025559 12294 net.cpp:155] Setting up conv2
I1019 15:46:00.025583 12294 net.cpp:163] Top shape: 100 48 13 13 (811200)
I1019 15:46:00.025594 12294 layer_factory.hpp:76] Creating layer relu2
I1019 15:46:00.025609 12294 net.cpp:110] Creating Layer relu2
I1019 15:46:00.025615 12294 net.cpp:477] relu2 <- conv2
I1019 15:46:00.025638 12294 net.cpp:419] relu2 -> conv2 (in-place)
I1019 15:46:00.025651 12294 net.cpp:155] Setting up relu2
I1019 15:46:00.025660 12294 net.cpp:163] Top shape: 100 48 13 13 (811200)
I1019 15:46:00.025666 12294 layer_factory.hpp:76] Creating layer pool2
I1019 15:46:00.025677 12294 net.cpp:110] Creating Layer pool2
I1019 15:46:00.025683 12294 net.cpp:477] pool2 <- conv2
I1019 15:46:00.025693 12294 net.cpp:433] pool2 -> pool2
I1019 15:46:00.025737 12294 net.cpp:155] Setting up pool2
I1019 15:46:00.025745 12294 net.cpp:163] Top shape: 100 48 7 7 (235200)
I1019 15:46:00.025750 12294 layer_factory.hpp:76] Creating layer ip1
I1019 15:46:00.025763 12294 net.cpp:110] Creating Layer ip1
I1019 15:46:00.025768 12294 net.cpp:477] ip1 <- pool2
I1019 15:46:00.025777 12294 net.cpp:433] ip1 -> ip1
I1019 15:46:00.029485 12294 net.cpp:155] Setting up ip1
I1019 15:46:00.029501 12294 net.cpp:163] Top shape: 100 48 (4800)
I1019 15:46:00.029515 12294 layer_factory.hpp:76] Creating layer relu1
I1019 15:46:00.029528 12294 net.cpp:110] Creating Layer relu1
I1019 15:46:00.029536 12294 net.cpp:477] relu1 <- ip1
I1019 15:46:00.029543 12294 net.cpp:419] relu1 -> ip1 (in-place)
I1019 15:46:00.029553 12294 net.cpp:155] Setting up relu1
I1019 15:46:00.029561 12294 net.cpp:163] Top shape: 100 48 (4800)
I1019 15:46:00.029567 12294 layer_factory.hpp:76] Creating layer ip2
I1019 15:46:00.029577 12294 net.cpp:110] Creating Layer ip2
I1019 15:46:00.029582 12294 net.cpp:477] ip2 <- ip1
I1019 15:46:00.029592 12294 net.cpp:433] ip2 -> ip2
I1019 15:46:00.029711 12294 net.cpp:155] Setting up ip2
I1019 15:46:00.029721 12294 net.cpp:163] Top shape: 100 10 (1000)
I1019 15:46:00.029727 12294 layer_factory.hpp:76] Creating layer loss
I1019 15:46:00.029736 12294 net.cpp:110] Creating Layer loss
I1019 15:46:00.029742 12294 net.cpp:477] loss <- ip2
I1019 15:46:00.029752 12294 net.cpp:477] loss <- label
I1019 15:46:00.029762 12294 net.cpp:433] loss -> loss
I1019 15:46:00.029775 12294 layer_factory.hpp:76] Creating layer loss
I1019 15:46:00.029880 12294 net.cpp:155] Setting up loss
…
I1019 15:46:00.030278 12294 solver.cpp:187] Creating test net (#0) specified by net file: examples/nuclei/train_cifar/cifar_nuclei_train_test.prototxt
I1019 15:46:00.030303 12294 net.cpp:339] The NetState phase (1) differed from the phase (0) specified by a rule in layer cifar
I1019 15:46:00.030391 12294 net.cpp:50] Initializing net from parameters: 
name: "CIFAR10_full"
state {
  phase: TEST
}
layer {
  name: "cifar"
  type: "Data"
  top: "data"
  top: "label"
  include {
    phase: TEST
  }
  transform_param {
    mean_file: "examples/cifar10/mean.binaryproto"
  }
  data_param {
    source: "examples/cifar10/cifar10_test_lmdb"
    batch_size: 100
    backend: LMDB
  }
}
layer {
  name: "conv1"
  type: "Convolution"
  bottom: "data"
  top: "conv1"
  param {
    lr_mult: 1
  }
  param {
    lr_mult: 2
  }
  convolution_param {
    num_output: 48
    pad: 2
    kernel_size: 6
    stride: 1
    weight_filler {
      type: "gaussian"
      std: 0.0001
    }
    bias_filler {
      type: "constant"
    }
  }
}
layer {
  name: "pool1"
  type: "Pooling"
  bottom: "conv1"
  top: "pool1"
  pooling_param {
    pool: MAX
    kernel_size: 2
    stride: 2
    pad: 1
  }
}
layer {
  name: "relu1"
  type: "ReLU"
  bottom: "pool1"
  top: "pool1"
}
layer {
  name: "conv2"
  type: "Convolution"
  bottom: "pool1"
  top: "conv2"
  param {
    lr_mult: 1
  }
  param {
    lr_mult: 2
  }
  convolution_param {
    num_output: 48
    pad: 0
    kernel_size: 4
    stride: 1
    weight_filler {
      type: "gaussian"
      std: 0.01
    }
    bias_filler {
      type: "constant"
    }
  }
}
layer {
  name: "relu2"
  type: "ReLU"
  bottom: "conv2"
  top: "conv2"
}
layer {
  name: "pool2"
  type: "Pooling"
  bottom: "conv2"
  top: "pool2"
  pooling_param {
    pool: MAX
    kernel_size: 2
    stride: 2
  }
}
layer {
  name: "ip1"
  type: "InnerProduct"
  bottom: "pool2"
  top: "ip1"
  param {
    lr_mult: 1
  }
  param {
    lr_mult: 2
  }
  inner_product_param {
    num_output: 48
    weight_filler {
      type: "gaussian"
      std: 0.1
    }
    bias_filler {
      type: "constant"
    }
  }
}
layer {
  name: "relu1"
  type: "ReLU"
  bottom: "ip1"
  top: "ip1"
}
layer {
  name: "ip2"
  type: "InnerProduct"
  bottom: "ip1"
  top: "ip2"
  param {
    lr_mult: 1
  }
  param {
    lr_mult: 2
  }
  inner_product_param {
    num_output: 10
    weight_filler {
      type: "gaussian"
      std: 0.1
    }
    bias_filler {
      type: "constant"
    }
  }
}
layer {
  name: "accuracy"
  type: "Accuracy"
  bottom: "ip2"
  bottom: "label"
  top: "accuracy"
  include {
    phase: TEST
  }
}
layer {
  name: "loss"
  type: "SoftmaxWithLoss"
  bottom: "ip2"
  bottom: "label"
  top: "loss"
}
I1019 15:46:00.030459 12294 layer_factory.hpp:76] Creating layer cifar
I1019 15:46:00.030738 12294 net.cpp:110] Creating Layer cifar
I1019 15:46:00.030750 12294 net.cpp:433] cifar -> data
I1019 15:46:00.030771 12294 net.cpp:433] cifar -> label
I1019 15:46:00.030781 12294 data_transformer.cpp:25] Loading mean file from: examples/cifar10/mean.binaryproto
I1019 15:46:00.031673 12299 db_lmdb.cpp:23] Opened lmdb examples/cifar10/cifar10_test_lmdb
I1019 15:46:00.031812 12294 data_layer.cpp:45] output data size: 100,3,32,32
I1019 15:46:00.041297 12294 net.cpp:155] Setting up cifar
I1019 15:46:00.041332 12294 net.cpp:163] Top shape: 100 3 32 32 (307200)
I1019 15:46:00.041399 12294 net.cpp:163] Top shape: 100 (100)
I1019 15:46:00.041410 12294 layer_factory.hpp:76] Creating layer label_cifar_1_split
I1019 15:46:00.041481 12294 net.cpp:110] Creating Layer label_cifar_1_split
I1019 15:46:00.041501 12294 net.cpp:477] label_cifar_1_split <- label
I1019 15:46:00.041561 12294 net.cpp:433] label_cifar_1_split -> label_cifar_1_split_0
I1019 15:46:00.041596 12294 net.cpp:433] label_cifar_1_split -> label_cifar_1_split_1
I1019 15:46:00.041678 12294 net.cpp:155] Setting up label_cifar_1_split
I1019 15:46:00.041692 12294 net.cpp:163] Top shape: 100 (100)
I1019 15:46:00.041724 12294 net.cpp:163] Top shape: 100 (100)
I1019 15:46:00.041754 12294 layer_factory.hpp:76] Creating layer conv1
I1019 15:46:00.041846 12294 net.cpp:110] Creating Layer conv1
I1019 15:46:00.041869 12294 net.cpp:477] conv1 <- data
I1019 15:46:00.041887 12294 net.cpp:433] conv1 -> conv1
I1019 15:46:00.042237 12294 net.cpp:155] Setting up conv1
I1019 15:46:00.042248 12294 net.cpp:163] Top shape: 100 48 31 31 (4612800)
I1019 15:46:00.042264 12294 layer_factory.hpp:76] Creating layer pool1
I1019 15:46:00.042278 12294 net.cpp:110] Creating Layer pool1
I1019 15:46:00.042284 12294 net.cpp:477] pool1 <- conv1
I1019 15:46:00.042294 12294 net.cpp:433] pool1 -> pool1
I1019 15:46:00.042336 12294 net.cpp:155] Setting up pool1
I1019 15:46:00.042347 12294 net.cpp:163] Top shape: 100 48 16 16 (1228800)
I1019 15:46:00.042353 12294 layer_factory.hpp:76] Creating layer relu1
I1019 15:46:00.042363 12294 net.cpp:110] Creating Layer relu1
I1019 15:46:00.042369 12294 net.cpp:477] relu1 <- pool1
I1019 15:46:00.042379 12294 net.cpp:419] relu1 -> pool1 (in-place)
I1019 15:46:00.042389 12294 net.cpp:155] Setting up relu1
I1019 15:46:00.042398 12294 net.cpp:163] Top shape: 100 48 16 16 (1228800)
I1019 15:46:00.042404 12294 layer_factory.hpp:76] Creating layer conv2
I1019 15:46:00.042414 12294 net.cpp:110] Creating Layer conv2
I1019 15:46:00.042420 12294 net.cpp:477] conv2 <- pool1
I1019 15:46:00.042431 12294 net.cpp:433] conv2 -> conv2
I1019 15:46:00.044224 12294 net.cpp:155] Setting up conv2
I1019 15:46:00.044239 12294 net.cpp:163] Top shape: 100 48 13 13 (811200)
I1019 15:46:00.044316 12294 layer_factory.hpp:76] Creating layer relu2
I1019 15:46:00.044348 12294 net.cpp:110] Creating Layer relu2
I1019 15:46:00.044356 12294 net.cpp:477] relu2 <- conv2
I1019 15:46:00.044411 12294 net.cpp:419] relu2 -> conv2 (in-place)
I1019 15:46:00.044445 12294 net.cpp:155] Setting up relu2
I1019 15:46:00.044453 12294 net.cpp:163] Top shape: 100 48 13 13 (811200)
I1019 15:46:00.044484 12294 layer_factory.hpp:76] Creating layer pool2
I1019 15:46:00.044545 12294 net.cpp:110] Creating Layer pool2
I1019 15:46:00.044553 12294 net.cpp:477] pool2 <- conv2
I1019 15:46:00.044607 12294 net.cpp:433] pool2 -> pool2
I1019 15:46:00.044667 12294 net.cpp:155] Setting up pool2
I1019 15:46:00.044678 12294 net.cpp:163] Top shape: 100 48 7 7 (235200)
I1019 15:46:00.044710 12294 layer_factory.hpp:76] Creating layer ip1
I1019 15:46:00.044771 12294 net.cpp:110] Creating Layer ip1
I1019 15:46:00.044780 12294 net.cpp:477] ip1 <- pool2
I1019 15:46:00.044833 12294 net.cpp:433] ip1 -> ip1
I1019 15:46:00.047631 12294 net.cpp:155] Setting up ip1
I1019 15:46:00.047644 12294 net.cpp:163] Top shape: 100 48 (4800)
I1019 15:46:00.047714 12294 layer_factory.hpp:76] Creating layer relu1
I1019 15:46:00.047749 12294 net.cpp:110] Creating Layer relu1
I1019 15:46:00.047760 12294 net.cpp:477] relu1 <- ip1
I1019 15:46:00.047814 12294 net.cpp:419] relu1 -> ip1 (in-place)
I1019 15:46:00.047827 12294 net.cpp:155] Setting up relu1
I1019 15:46:00.047837 12294 net.cpp:163] Top shape: 100 48 (4800)
I1019 15:46:00.047847 12294 layer_factory.hpp:76] Creating layer ip2
I1019 15:46:00.047860 12294 net.cpp:110] Creating Layer ip2
I1019 15:46:00.047868 12294 net.cpp:477] ip2 <- ip1
I1019 15:46:00.047881 12294 net.cpp:433] ip2 -> ip2
I1019 15:46:00.048004 12294 net.cpp:155] Setting up ip2
I1019 15:46:00.048014 12294 net.cpp:163] Top shape: 100 10 (1000)
I1019 15:46:00.048025 12294 layer_factory.hpp:76] Creating layer ip2_ip2_0_split
I1019 15:46:00.048035 12294 net.cpp:110] Creating Layer ip2_ip2_0_split
I1019 15:46:00.048043 12294 net.cpp:477] ip2_ip2_0_split <- ip2
I1019 15:46:00.048051 12294 net.cpp:433] ip2_ip2_0_split -> ip2_ip2_0_split_0
I1019 15:46:00.048080 12294 net.cpp:433] ip2_ip2_0_split -> ip2_ip2_0_split_1
I1019 15:46:00.048117 12294 net.cpp:155] Setting up ip2_ip2_0_split
I1019 15:46:00.048126 12294 net.cpp:163] Top shape: 100 10 (1000)
I1019 15:46:00.048133 12294 net.cpp:163] Top shape: 100 10 (1000)
I1019 15:46:00.048141 12294 layer_factory.hpp:76] Creating layer accuracy
I1019 15:46:00.048151 12294 net.cpp:110] Creating Layer accuracy
I1019 15:46:00.048157 12294 net.cpp:477] accuracy <- ip2_ip2_0_split_0
I1019 15:46:00.048164 12294 net.cpp:477] accuracy <- label_cifar_1_split_0
I1019 15:46:00.048177 12294 net.cpp:433] accuracy -> accuracy
I1019 15:46:00.048192 12294 net.cpp:155] Setting up accuracy
…
