…
I1021 21:38:18.131052  5930 net.cpp:339] The NetState phase (0) differed from the phase (1) specified by a rule in layer nuclei
I1021 21:38:18.131070  5930 net.cpp:339] The NetState phase (0) differed from the phase (1) specified by a rule in layer accuracy
I1021 21:38:18.131167  5930 net.cpp:50] Initializing net from parameters: 
name: "NULCEI_quick"
state {
  phase: TRAIN
}
layer {
  name: "nuclei"
  type: "ImageData"
  top: "data"
  top: "label"
  include {
    phase: TRAIN
  }
  image_data_param {
    source: "/home/sanuj/temp_63_LLM_YR4_33/train.txt"
    batch_size: 200
  }
}
layer {
  name: "conv1"
  type: "Convolution"
  bottom: "data"
  top: "conv1"
  param {
    lr_mult: 0.1
  }
  param {
    lr_mult: 0.2
  }
  convolution_param {
    num_output: 48
    pad: 0
    kernel_size: 6
    stride: 1
    weight_filler {
      type: "gaussian"
      std: 0.0001
    }
    bias_filler {
      type: "constant"
    }
  }
}
layer {
  name: "pool1"
  type: "Pooling"
  bottom: "conv1"
  top: "pool1"
  pooling_param {
    pool: MAX
    kernel_size: 2
    stride: 2
  }
}
layer {
  name: "relu1"
  type: "ReLU"
  bottom: "pool1"
  top: "pool1"
}
layer {
  name: "conv2"
  type: "Convolution"
  bottom: "pool1"
  top: "conv2"
  param {
    lr_mult: 0.1
  }
  param {
    lr_mult: 0.2
  }
  convolution_param {
    num_output: 48
    pad: 0
    kernel_size: 4
    stride: 1
    weight_filler {
      type: "gaussian"
      std: 0.01
    }
    bias_filler {
      type: "constant"
    }
  }
}
layer {
  name: "relu2"
  type: "ReLU"
  bottom: "conv2"
  top: "conv2"
}
layer {
  name: "pool2"
  type: "Pooling"
  bottom: "conv2"
  top: "pool2"
  pooling_param {
    pool: MAX
    kernel_size: 2
    stride: 2
  }
}
layer {
  name: "ip_1"
  type: "InnerProduct"
  bottom: "pool2"
  top: "ip1"
  param {
    lr_mult: 1
  }
  param {
    lr_mult: 2
  }
  inner_product_param {
    num_output: 48
    weight_filler {
      type: "gaussian"
      std: 0.1
    }
    bias_filler {
      type: "constant"
    }
  }
}
layer {
  name: "relu1"
  type: "ReLU"
  bottom: "ip1"
  top: "ip1"
}
layer {
  name: "ip_2"
  type: "InnerProduct"
  bottom: "ip1"
  top: "ip2"
  param {
    lr_mult: 1
  }
  param {
    lr_mult: 2
  }
  inner_product_param {
    num_output: 2
    weight_filler {
      type: "gaussian"
      std: 0.1
    }
    bias_filler {
      type: "constant"
    }
  }
}
layer {
  name: "loss"
  type: "SoftmaxWithLoss"
  bottom: "ip2"
  bottom: "label"
  top: "loss"
}
I1021 21:38:18.131255  5930 layer_factory.hpp:76] Creating layer nuclei
I1021 21:38:18.131292  5930 net.cpp:110] Creating Layer nuclei
I1021 21:38:18.131304  5930 net.cpp:433] nuclei -> data
I1021 21:38:18.131330  5930 net.cpp:433] nuclei -> label
I1021 21:38:18.131353  5930 image_data_layer.cpp:37] Opening file /home/sanuj/temp_63_LLM_YR4_33/train.txt
I1021 21:38:18.213718  5930 image_data_layer.cpp:52] A total of 199996 images.
I1021 21:38:18.220916  5930 image_data_layer.cpp:79] output data size: 200,3,33,33
I1021 21:38:18.233544  5930 net.cpp:155] Setting up nuclei
I1021 21:38:18.233583  5930 net.cpp:163] Top shape: 200 3 33 33 (653400)
I1021 21:38:18.233592  5930 net.cpp:163] Top shape: 200 (200)
I1021 21:38:18.233604  5930 layer_factory.hpp:76] Creating layer conv1
I1021 21:38:18.233630  5930 net.cpp:110] Creating Layer conv1
I1021 21:38:18.233641  5930 net.cpp:477] conv1 <- data
I1021 21:38:18.233659  5930 net.cpp:433] conv1 -> conv1
I1021 21:38:18.234992  5930 net.cpp:155] Setting up conv1
I1021 21:38:18.235008  5930 net.cpp:163] Top shape: 200 48 28 28 (7526400)
I1021 21:38:18.235062  5930 layer_factory.hpp:76] Creating layer pool1
I1021 21:38:18.235082  5930 net.cpp:110] Creating Layer pool1
I1021 21:38:18.235091  5930 net.cpp:477] pool1 <- conv1
I1021 21:38:18.235103  5930 net.cpp:433] pool1 -> pool1
I1021 21:38:18.235152  5930 net.cpp:155] Setting up pool1
I1021 21:38:18.235162  5930 net.cpp:163] Top shape: 200 48 14 14 (1881600)
I1021 21:38:18.235168  5930 layer_factory.hpp:76] Creating layer relu1
I1021 21:38:18.235177  5930 net.cpp:110] Creating Layer relu1
I1021 21:38:18.235183  5930 net.cpp:477] relu1 <- pool1
I1021 21:38:18.235193  5930 net.cpp:419] relu1 -> pool1 (in-place)
I1021 21:38:18.235204  5930 net.cpp:155] Setting up relu1
I1021 21:38:18.235213  5930 net.cpp:163] Top shape: 200 48 14 14 (1881600)
I1021 21:38:18.235220  5930 layer_factory.hpp:76] Creating layer conv2
I1021 21:38:18.235235  5930 net.cpp:110] Creating Layer conv2
I1021 21:38:18.235244  5930 net.cpp:477] conv2 <- pool1
I1021 21:38:18.235254  5930 net.cpp:433] conv2 -> conv2
I1021 21:38:18.238314  5930 net.cpp:155] Setting up conv2
I1021 21:38:18.238329  5930 net.cpp:163] Top shape: 200 48 11 11 (1161600)
I1021 21:38:18.238345  5930 layer_factory.hpp:76] Creating layer relu2
I1021 21:38:18.238356  5930 net.cpp:110] Creating Layer relu2
I1021 21:38:18.238363  5930 net.cpp:477] relu2 <- conv2
I1021 21:38:18.238373  5930 net.cpp:419] relu2 -> conv2 (in-place)
I1021 21:38:18.238382  5930 net.cpp:155] Setting up relu2
I1021 21:38:18.238394  5930 net.cpp:163] Top shape: 200 48 11 11 (1161600)
I1021 21:38:18.238399  5930 layer_factory.hpp:76] Creating layer pool2
I1021 21:38:18.238409  5930 net.cpp:110] Creating Layer pool2
I1021 21:38:18.238417  5930 net.cpp:477] pool2 <- conv2
I1021 21:38:18.238435  5930 net.cpp:433] pool2 -> pool2
I1021 21:38:18.238476  5930 net.cpp:155] Setting up pool2
I1021 21:38:18.238486  5930 net.cpp:163] Top shape: 200 48 6 6 (345600)
I1021 21:38:18.238492  5930 layer_factory.hpp:76] Creating layer ip_1
I1021 21:38:18.238503  5930 net.cpp:110] Creating Layer ip_1
I1021 21:38:18.238510  5930 net.cpp:477] ip_1 <- pool2
I1021 21:38:18.238528  5930 net.cpp:433] ip_1 -> ip1
I1021 21:38:18.241030  5930 net.cpp:155] Setting up ip_1
I1021 21:38:18.241046  5930 net.cpp:163] Top shape: 200 48 (9600)
I1021 21:38:18.241061  5930 layer_factory.hpp:76] Creating layer relu1
I1021 21:38:18.241075  5930 net.cpp:110] Creating Layer relu1
I1021 21:38:18.241089  5930 net.cpp:477] relu1 <- ip1
I1021 21:38:18.241101  5930 net.cpp:419] relu1 -> ip1 (in-place)
I1021 21:38:18.241114  5930 net.cpp:155] Setting up relu1
I1021 21:38:18.241124  5930 net.cpp:163] Top shape: 200 48 (9600)
I1021 21:38:18.241132  5930 layer_factory.hpp:76] Creating layer ip_2
I1021 21:38:18.241142  5930 net.cpp:110] Creating Layer ip_2
I1021 21:38:18.241149  5930 net.cpp:477] ip_2 <- ip1
I1021 21:38:18.241160  5930 net.cpp:433] ip_2 -> ip2
I1021 21:38:18.241251  5930 net.cpp:155] Setting up ip_2
I1021 21:38:18.241261  5930 net.cpp:163] Top shape: 200 2 (400)
I1021 21:38:18.241281  5930 layer_factory.hpp:76] Creating layer loss
I1021 21:38:18.241291  5930 net.cpp:110] Creating Layer loss
I1021 21:38:18.241300  5930 net.cpp:477] loss <- ip2
I1021 21:38:18.241307  5930 net.cpp:477] loss <- label
I1021 21:38:18.241325  5930 net.cpp:433] loss -> loss
I1021 21:38:18.241350  5930 layer_factory.hpp:76] Creating layer loss
I1021 21:38:18.241487  5930 net.cpp:155] Setting up loss
…
I1021 21:38:18.241987  5930 solver.cpp:187] Creating test net (#0) specified by net file: examples/nuclei/train_cifar/use_cifar_train_test.prototxt
I1021 21:38:18.242012  5930 net.cpp:339] The NetState phase (1) differed from the phase (0) specified by a rule in layer nuclei
I1021 21:38:18.242111  5930 net.cpp:50] Initializing net from parameters: 
name: "NULCEI_quick"
state {
  phase: TEST
}
layer {
  name: "nuclei"
  type: "ImageData"
  top: "data"
  top: "label"
  include {
    phase: TEST
  }
  image_data_param {
    source: "/home/sanuj/temp_63_LLM_YR4_33/test.txt"
    batch_size: 500
  }
}
layer {
  name: "conv1"
  type: "Convolution"
  bottom: "data"
  top: "conv1"
  param {
    lr_mult: 0.1
  }
  param {
    lr_mult: 0.2
  }
  convolution_param {
    num_output: 48
    pad: 0
    kernel_size: 6
    stride: 1
    weight_filler {
      type: "gaussian"
      std: 0.0001
    }
    bias_filler {
      type: "constant"
    }
  }
}
layer {
  name: "pool1"
  type: "Pooling"
  bottom: "conv1"
  top: "pool1"
  pooling_param {
    pool: MAX
    kernel_size: 2
    stride: 2
  }
}
layer {
  name: "relu1"
  type: "ReLU"
  bottom: "pool1"
  top: "pool1"
}
layer {
  name: "conv2"
  type: "Convolution"
  bottom: "pool1"
  top: "conv2"
  param {
    lr_mult: 0.1
  }
  param {
    lr_mult: 0.2
  }
  convolution_param {
    num_output: 48
    pad: 0
    kernel_size: 4
    stride: 1
    weight_filler {
      type: "gaussian"
      std: 0.01
    }
    bias_filler {
      type: "constant"
    }
  }
}
layer {
  name: "relu2"
  type: "ReLU"
  bottom: "conv2"
  top: "conv2"
}
layer {
  name: "pool2"
  type: "Pooling"
  bottom: "conv2"
  top: "pool2"
  pooling_param {
    pool: MAX
    kernel_size: 2
    stride: 2
  }
}
layer {
  name: "ip_1"
  type: "InnerProduct"
  bottom: "pool2"
  top: "ip1"
  param {
    lr_mult: 1
  }
  param {
    lr_mult: 2
  }
  inner_product_param {
    num_output: 48
    weight_filler {
      type: "gaussian"
      std: 0.1
    }
    bias_filler {
      type: "constant"
    }
  }
}
layer {
  name: "relu1"
  type: "ReLU"
  bottom: "ip1"
  top: "ip1"
}
layer {
  name: "ip_2"
  type: "InnerProduct"
  bottom: "ip1"
  top: "ip2"
  param {
    lr_mult: 1
  }
  param {
    lr_mult: 2
  }
  inner_product_param {
    num_output: 2
    weight_filler {
      type: "gaussian"
      std: 0.1
    }
    bias_filler {
      type: "constant"
    }
  }
}
layer {
  name: "accuracy"
  type: "Accuracy"
  bottom: "ip2"
  bottom: "label"
  top: "accuracy"
  include {
    phase: TEST
  }
}
layer {
  name: "loss"
  type: "SoftmaxWithLoss"
  bottom: "ip2"
  bottom: "label"
  top: "loss"
}
I1021 21:38:18.242223  5930 layer_factory.hpp:76] Creating layer nuclei
I1021 21:38:18.242244  5930 net.cpp:110] Creating Layer nuclei
I1021 21:38:18.242251  5930 net.cpp:433] nuclei -> data
I1021 21:38:18.242262  5930 net.cpp:433] nuclei -> label
I1021 21:38:18.242274  5930 image_data_layer.cpp:37] Opening file /home/sanuj/temp_63_LLM_YR4_33/test.txt
I1021 21:38:18.284840  5930 image_data_layer.cpp:52] A total of 100000 images.
I1021 21:38:18.285070  5930 image_data_layer.cpp:79] output data size: 500,3,33,33
I1021 21:38:18.312594  5930 net.cpp:155] Setting up nuclei
I1021 21:38:18.312628  5930 net.cpp:163] Top shape: 500 3 33 33 (1633500)
I1021 21:38:18.312636  5930 net.cpp:163] Top shape: 500 (500)
I1021 21:38:18.312645  5930 layer_factory.hpp:76] Creating layer label_nuclei_1_split
I1021 21:38:18.312667  5930 net.cpp:110] Creating Layer label_nuclei_1_split
I1021 21:38:18.312674  5930 net.cpp:477] label_nuclei_1_split <- label
I1021 21:38:18.312686  5930 net.cpp:433] label_nuclei_1_split -> label_nuclei_1_split_0
I1021 21:38:18.312726  5930 net.cpp:433] label_nuclei_1_split -> label_nuclei_1_split_1
I1021 21:38:18.312785  5930 net.cpp:155] Setting up label_nuclei_1_split
I1021 21:38:18.312798  5930 net.cpp:163] Top shape: 500 (500)
I1021 21:38:18.312805  5930 net.cpp:163] Top shape: 500 (500)
I1021 21:38:18.312811  5930 layer_factory.hpp:76] Creating layer conv1
I1021 21:38:18.312824  5930 net.cpp:110] Creating Layer conv1
I1021 21:38:18.312831  5930 net.cpp:477] conv1 <- data
I1021 21:38:18.312842  5930 net.cpp:433] conv1 -> conv1
I1021 21:38:18.313304  5930 net.cpp:155] Setting up conv1
I1021 21:38:18.313323  5930 net.cpp:163] Top shape: 500 48 28 28 (18816000)
I1021 21:38:18.313340  5930 layer_factory.hpp:76] Creating layer pool1
I1021 21:38:18.313350  5930 net.cpp:110] Creating Layer pool1
I1021 21:38:18.313356  5930 net.cpp:477] pool1 <- conv1
I1021 21:38:18.313365  5930 net.cpp:433] pool1 -> pool1
I1021 21:38:18.313411  5930 net.cpp:155] Setting up pool1
I1021 21:38:18.313424  5930 net.cpp:163] Top shape: 500 48 14 14 (4704000)
I1021 21:38:18.313432  5930 layer_factory.hpp:76] Creating layer relu1
I1021 21:38:18.313442  5930 net.cpp:110] Creating Layer relu1
I1021 21:38:18.313448  5930 net.cpp:477] relu1 <- pool1
I1021 21:38:18.313455  5930 net.cpp:419] relu1 -> pool1 (in-place)
I1021 21:38:18.313464  5930 net.cpp:155] Setting up relu1
I1021 21:38:18.313472  5930 net.cpp:163] Top shape: 500 48 14 14 (4704000)
I1021 21:38:18.313479  5930 layer_factory.hpp:76] Creating layer conv2
I1021 21:38:18.313500  5930 net.cpp:110] Creating Layer conv2
I1021 21:38:18.313508  5930 net.cpp:477] conv2 <- pool1
I1021 21:38:18.313519  5930 net.cpp:433] conv2 -> conv2
I1021 21:38:18.318555  5930 net.cpp:155] Setting up conv2
I1021 21:38:18.318570  5930 net.cpp:163] Top shape: 500 48 11 11 (2904000)
I1021 21:38:18.318585  5930 layer_factory.hpp:76] Creating layer relu2
I1021 21:38:18.318595  5930 net.cpp:110] Creating Layer relu2
I1021 21:38:18.318603  5930 net.cpp:477] relu2 <- conv2
I1021 21:38:18.318610  5930 net.cpp:419] relu2 -> conv2 (in-place)
I1021 21:38:18.318620  5930 net.cpp:155] Setting up relu2
I1021 21:38:18.318634  5930 net.cpp:163] Top shape: 500 48 11 11 (2904000)
I1021 21:38:18.318641  5930 layer_factory.hpp:76] Creating layer pool2
I1021 21:38:18.318650  5930 net.cpp:110] Creating Layer pool2
I1021 21:38:18.318660  5930 net.cpp:477] pool2 <- conv2
I1021 21:38:18.318670  5930 net.cpp:433] pool2 -> pool2
I1021 21:38:18.318711  5930 net.cpp:155] Setting up pool2
I1021 21:38:18.318719  5930 net.cpp:163] Top shape: 500 48 6 6 (864000)
I1021 21:38:18.318727  5930 layer_factory.hpp:76] Creating layer ip_1
I1021 21:38:18.318738  5930 net.cpp:110] Creating Layer ip_1
I1021 21:38:18.318745  5930 net.cpp:477] ip_1 <- pool2
I1021 21:38:18.318755  5930 net.cpp:433] ip_1 -> ip1
I1021 21:38:18.321115  5930 net.cpp:155] Setting up ip_1
I1021 21:38:18.321156  5930 net.cpp:163] Top shape: 500 48 (24000)
I1021 21:38:18.321192  5930 layer_factory.hpp:76] Creating layer relu1
I1021 21:38:18.321218  5930 net.cpp:110] Creating Layer relu1
I1021 21:38:18.321244  5930 net.cpp:477] relu1 <- ip1
I1021 21:38:18.321271  5930 net.cpp:419] relu1 -> ip1 (in-place)
I1021 21:38:18.321300  5930 net.cpp:155] Setting up relu1
I1021 21:38:18.321341  5930 net.cpp:163] Top shape: 500 48 (24000)
I1021 21:38:18.321367  5930 layer_factory.hpp:76] Creating layer ip_2
I1021 21:38:18.321389  5930 net.cpp:110] Creating Layer ip_2
I1021 21:38:18.321396  5930 net.cpp:477] ip_2 <- ip1
I1021 21:38:18.321409  5930 net.cpp:433] ip_2 -> ip2
I1021 21:38:18.321509  5930 net.cpp:155] Setting up ip_2
I1021 21:38:18.321519  5930 net.cpp:163] Top shape: 500 2 (1000)
I1021 21:38:18.321529  5930 layer_factory.hpp:76] Creating layer ip2_ip_2_0_split
I1021 21:38:18.321543  5930 net.cpp:110] Creating Layer ip2_ip_2_0_split
I1021 21:38:18.321552  5930 net.cpp:477] ip2_ip_2_0_split <- ip2
I1021 21:38:18.321560  5930 net.cpp:433] ip2_ip_2_0_split -> ip2_ip_2_0_split_0
I1021 21:38:18.321570  5930 net.cpp:433] ip2_ip_2_0_split -> ip2_ip_2_0_split_1
I1021 21:38:18.321622  5930 net.cpp:155] Setting up ip2_ip_2_0_split
I1021 21:38:18.321631  5930 net.cpp:163] Top shape: 500 2 (1000)
I1021 21:38:18.321638  5930 net.cpp:163] Top shape: 500 2 (1000)
I1021 21:38:18.321645  5930 layer_factory.hpp:76] Creating layer accuracy
I1021 21:38:18.321662  5930 net.cpp:110] Creating Layer accuracy
I1021 21:38:18.321671  5930 net.cpp:477] accuracy <- ip2_ip_2_0_split_0
I1021 21:38:18.321677  5930 net.cpp:477] accuracy <- label_nuclei_1_split_0
I1021 21:38:18.321686  5930 net.cpp:433] accuracy -> accuracy
I1021 21:38:18.321697  5930 net.cpp:155] Setting up accuracy
…
