…
I1021 18:55:52.580481  2830 net.cpp:339] The NetState phase (0) differed from the phase (1) specified by a rule in layer nuclei
I1021 18:55:52.580526  2830 net.cpp:339] The NetState phase (0) differed from the phase (1) specified by a rule in layer accuracy
I1021 18:55:52.580642  2830 net.cpp:50] Initializing net from parameters: 
name: "NULCEI_quick"
state {
  phase: TRAIN
}
layer {
  name: "nuclei"
  type: "ImageData"
  top: "data"
  top: "label"
  include {
    phase: TRAIN
  }
  image_data_param {
    source: "/home/sanuj/temp_63_LLM_YR4_33/train.txt"
    batch_size: 200
  }
}
layer {
  name: "conv1"
  type: "Convolution"
  bottom: "data"
  top: "conv1"
  param {
    lr_mult: 0.1
  }
  param {
    lr_mult: 0.2
  }
  convolution_param {
    num_output: 48
    pad: 0
    kernel_size: 6
    stride: 1
    weight_filler {
      type: "gaussian"
      std: 0.0001
    }
    bias_filler {
      type: "constant"
    }
  }
}
layer {
  name: "pool1"
  type: "Pooling"
  bottom: "conv1"
  top: "pool1"
  pooling_param {
    pool: MAX
    kernel_size: 2
    stride: 2
  }
}
layer {
  name: "relu1"
  type: "ReLU"
  bottom: "pool1"
  top: "pool1"
}
layer {
  name: "conv2"
  type: "Convolution"
  bottom: "pool1"
  top: "conv2"
  param {
    lr_mult: 0.1
  }
  param {
    lr_mult: 0.2
  }
  convolution_param {
    num_output: 48
    pad: 0
    kernel_size: 4
    stride: 1
    weight_filler {
      type: "gaussian"
      std: 0.01
    }
    bias_filler {
      type: "constant"
    }
  }
}
layer {
  name: "relu2"
  type: "ReLU"
  bottom: "conv2"
  top: "conv2"
}
layer {
  name: "pool2"
  type: "Pooling"
  bottom: "conv2"
  top: "pool2"
  pooling_param {
    pool: MAX
    kernel_size: 2
    stride: 2
  }
}
layer {
  name: "ip_1"
  type: "InnerProduct"
  bottom: "pool2"
  top: "ip1"
  param {
    lr_mult: 1
  }
  param {
    lr_mult: 2
  }
  inner_product_param {
    num_output: 48
    weight_filler {
      type: "gaussian"
      std: 0.1
    }
    bias_filler {
      type: "constant"
    }
  }
}
layer {
  name: "relu1"
  type: "ReLU"
  bottom: "ip1"
  top: "ip1"
}
layer {
  name: "ip_2"
  type: "InnerProduct"
  bottom: "ip1"
  top: "ip2"
  param {
    lr_mult: 1
  }
  param {
    lr_mult: 2
  }
  inner_product_param {
    num_output: 48
    weight_filler {
      type: "gaussian"
      std: 0.1
    }
    bias_filler {
      type: "constant"
    }
  }
}
layer {
  name: "relu2"
  type: "ReLU"
  bottom: "ip2"
  top: "ip2"
}
layer {
  name: "ip_3"
  type: "InnerProduct"
  bottom: "ip2"
  top: "ip3"
  param {
    lr_mult: 1
  }
  param {
    lr_mult: 2
  }
  inner_product_param {
    num_output: 2
    weight_filler {
      type: "gaussian"
      std: 0.1
    }
    bias_filler {
      type: "constant"
    }
  }
}
layer {
  name: "loss"
  type: "SoftmaxWithLoss"
  bottom: "ip3"
  bottom: "label"
  top: "loss"
}
I1021 18:55:52.580721  2830 layer_factory.hpp:76] Creating layer nuclei
I1021 18:55:52.597172  2830 net.cpp:110] Creating Layer nuclei
I1021 18:55:52.597204  2830 net.cpp:433] nuclei -> data
I1021 18:55:52.597244  2830 net.cpp:433] nuclei -> label
I1021 18:55:52.597270  2830 image_data_layer.cpp:37] Opening file /home/sanuj/temp_63_LLM_YR4_33/train.txt
I1021 18:55:52.810511  2830 image_data_layer.cpp:52] A total of 199996 images.
I1021 18:55:52.995764  2830 image_data_layer.cpp:79] output data size: 200,3,33,33
I1021 18:55:53.004858  2830 net.cpp:155] Setting up nuclei
I1021 18:55:53.004895  2830 net.cpp:163] Top shape: 200 3 33 33 (653400)
I1021 18:55:53.004904  2830 net.cpp:163] Top shape: 200 (200)
I1021 18:55:53.004914  2830 layer_factory.hpp:76] Creating layer conv1
I1021 18:55:53.119379  2830 net.cpp:110] Creating Layer conv1
I1021 18:55:53.119416  2830 net.cpp:477] conv1 <- data
I1021 18:55:53.119439  2830 net.cpp:433] conv1 -> conv1
I1021 18:55:53.171044  2830 net.cpp:155] Setting up conv1
I1021 18:55:53.171075  2830 net.cpp:163] Top shape: 200 48 28 28 (7526400)
I1021 18:55:53.171107  2830 layer_factory.hpp:76] Creating layer pool1
I1021 18:55:53.171118  2830 net.cpp:110] Creating Layer pool1
I1021 18:55:53.171124  2830 net.cpp:477] pool1 <- conv1
I1021 18:55:53.171131  2830 net.cpp:433] pool1 -> pool1
I1021 18:55:53.171191  2830 net.cpp:155] Setting up pool1
I1021 18:55:53.171201  2830 net.cpp:163] Top shape: 200 48 14 14 (1881600)
I1021 18:55:53.171205  2830 layer_factory.hpp:76] Creating layer relu1
I1021 18:55:53.171211  2830 net.cpp:110] Creating Layer relu1
I1021 18:55:53.171213  2830 net.cpp:477] relu1 <- pool1
I1021 18:55:53.171219  2830 net.cpp:419] relu1 -> pool1 (in-place)
I1021 18:55:53.171226  2830 net.cpp:155] Setting up relu1
I1021 18:55:53.171232  2830 net.cpp:163] Top shape: 200 48 14 14 (1881600)
I1021 18:55:53.171237  2830 layer_factory.hpp:76] Creating layer conv2
I1021 18:55:53.171252  2830 net.cpp:110] Creating Layer conv2
I1021 18:55:53.171260  2830 net.cpp:477] conv2 <- pool1
I1021 18:55:53.171272  2830 net.cpp:433] conv2 -> conv2
I1021 18:55:53.172783  2830 net.cpp:155] Setting up conv2
I1021 18:55:53.172797  2830 net.cpp:163] Top shape: 200 48 11 11 (1161600)
I1021 18:55:53.172814  2830 layer_factory.hpp:76] Creating layer relu2
I1021 18:55:53.172834  2830 net.cpp:110] Creating Layer relu2
I1021 18:55:53.172845  2830 net.cpp:477] relu2 <- conv2
I1021 18:55:53.172875  2830 net.cpp:419] relu2 -> conv2 (in-place)
I1021 18:55:53.172884  2830 net.cpp:155] Setting up relu2
I1021 18:55:53.172889  2830 net.cpp:163] Top shape: 200 48 11 11 (1161600)
I1021 18:55:53.172893  2830 layer_factory.hpp:76] Creating layer pool2
I1021 18:55:53.172899  2830 net.cpp:110] Creating Layer pool2
I1021 18:55:53.172904  2830 net.cpp:477] pool2 <- conv2
I1021 18:55:53.172907  2830 net.cpp:433] pool2 -> pool2
I1021 18:55:53.172940  2830 net.cpp:155] Setting up pool2
I1021 18:55:53.172947  2830 net.cpp:163] Top shape: 200 48 6 6 (345600)
I1021 18:55:53.172950  2830 layer_factory.hpp:76] Creating layer ip_1
I1021 18:55:53.172957  2830 net.cpp:110] Creating Layer ip_1
I1021 18:55:53.172961  2830 net.cpp:477] ip_1 <- pool2
I1021 18:55:53.172966  2830 net.cpp:433] ip_1 -> ip1
I1021 18:55:53.175318  2830 net.cpp:155] Setting up ip_1
I1021 18:55:53.175340  2830 net.cpp:163] Top shape: 200 48 (9600)
I1021 18:55:53.175348  2830 layer_factory.hpp:76] Creating layer relu1
I1021 18:55:53.175355  2830 net.cpp:110] Creating Layer relu1
I1021 18:55:53.175359  2830 net.cpp:477] relu1 <- ip1
I1021 18:55:53.175364  2830 net.cpp:419] relu1 -> ip1 (in-place)
I1021 18:55:53.175370  2830 net.cpp:155] Setting up relu1
I1021 18:55:53.175374  2830 net.cpp:163] Top shape: 200 48 (9600)
I1021 18:55:53.175377  2830 layer_factory.hpp:76] Creating layer ip_2
I1021 18:55:53.175384  2830 net.cpp:110] Creating Layer ip_2
I1021 18:55:53.175386  2830 net.cpp:477] ip_2 <- ip1
I1021 18:55:53.175392  2830 net.cpp:433] ip_2 -> ip2
I1021 18:55:53.175912  2830 net.cpp:155] Setting up ip_2
I1021 18:55:53.175922  2830 net.cpp:163] Top shape: 200 48 (9600)
I1021 18:55:53.175938  2830 layer_factory.hpp:76] Creating layer relu2
I1021 18:55:53.175945  2830 net.cpp:110] Creating Layer relu2
I1021 18:55:53.175950  2830 net.cpp:477] relu2 <- ip2
I1021 18:55:53.175953  2830 net.cpp:419] relu2 -> ip2 (in-place)
I1021 18:55:53.175958  2830 net.cpp:155] Setting up relu2
I1021 18:55:53.175962  2830 net.cpp:163] Top shape: 200 48 (9600)
I1021 18:55:53.175966  2830 layer_factory.hpp:76] Creating layer ip_3
I1021 18:55:53.175971  2830 net.cpp:110] Creating Layer ip_3
I1021 18:55:53.175973  2830 net.cpp:477] ip_3 <- ip2
I1021 18:55:53.175979  2830 net.cpp:433] ip_3 -> ip3
I1021 18:55:53.176064  2830 net.cpp:155] Setting up ip_3
I1021 18:55:53.176071  2830 net.cpp:163] Top shape: 200 2 (400)
I1021 18:55:53.176105  2830 layer_factory.hpp:76] Creating layer loss
I1021 18:55:53.176110  2830 net.cpp:110] Creating Layer loss
I1021 18:55:53.176113  2830 net.cpp:477] loss <- ip3
I1021 18:55:53.176117  2830 net.cpp:477] loss <- label
I1021 18:55:53.176126  2830 net.cpp:433] loss -> loss
I1021 18:55:53.176132  2830 layer_factory.hpp:76] Creating layer loss
I1021 18:55:53.210316  2830 net.cpp:155] Setting up loss
…
I1021 18:55:53.210746  2830 solver.cpp:187] Creating test net (#0) specified by net file: examples/nuclei/train_cifar/use_cifar_train_test.prototxt
I1021 18:55:53.210775  2830 net.cpp:339] The NetState phase (1) differed from the phase (0) specified by a rule in layer nuclei
I1021 18:55:53.210878  2830 net.cpp:50] Initializing net from parameters: 
name: "NULCEI_quick"
state {
  phase: TEST
}
layer {
  name: "nuclei"
  type: "ImageData"
  top: "data"
  top: "label"
  include {
    phase: TEST
  }
  image_data_param {
    source: "/home/sanuj/temp_63_LLM_YR4_33/test.txt"
    batch_size: 500
  }
}
layer {
  name: "conv1"
  type: "Convolution"
  bottom: "data"
  top: "conv1"
  param {
    lr_mult: 0.1
  }
  param {
    lr_mult: 0.2
  }
  convolution_param {
    num_output: 48
    pad: 0
    kernel_size: 6
    stride: 1
    weight_filler {
      type: "gaussian"
      std: 0.0001
    }
    bias_filler {
      type: "constant"
    }
  }
}
layer {
  name: "pool1"
  type: "Pooling"
  bottom: "conv1"
  top: "pool1"
  pooling_param {
    pool: MAX
    kernel_size: 2
    stride: 2
  }
}
layer {
  name: "relu1"
  type: "ReLU"
  bottom: "pool1"
  top: "pool1"
}
layer {
  name: "conv2"
  type: "Convolution"
  bottom: "pool1"
  top: "conv2"
  param {
    lr_mult: 0.1
  }
  param {
    lr_mult: 0.2
  }
  convolution_param {
    num_output: 48
    pad: 0
    kernel_size: 4
    stride: 1
    weight_filler {
      type: "gaussian"
      std: 0.01
    }
    bias_filler {
      type: "constant"
    }
  }
}
layer {
  name: "relu2"
  type: "ReLU"
  bottom: "conv2"
  top: "conv2"
}
layer {
  name: "pool2"
  type: "Pooling"
  bottom: "conv2"
  top: "pool2"
  pooling_param {
    pool: MAX
    kernel_size: 2
    stride: 2
  }
}
layer {
  name: "ip_1"
  type: "InnerProduct"
  bottom: "pool2"
  top: "ip1"
  param {
    lr_mult: 1
  }
  param {
    lr_mult: 2
  }
  inner_product_param {
    num_output: 48
    weight_filler {
      type: "gaussian"
      std: 0.1
    }
    bias_filler {
      type: "constant"
    }
  }
}
layer {
  name: "relu1"
  type: "ReLU"
  bottom: "ip1"
  top: "ip1"
}
layer {
  name: "ip_2"
  type: "InnerProduct"
  bottom: "ip1"
  top: "ip2"
  param {
    lr_mult: 1
  }
  param {
    lr_mult: 2
  }
  inner_product_param {
    num_output: 48
    weight_filler {
      type: "gaussian"
      std: 0.1
    }
    bias_filler {
      type: "constant"
    }
  }
}
layer {
  name: "relu2"
  type: "ReLU"
  bottom: "ip2"
  top: "ip2"
}
layer {
  name: "ip_3"
  type: "InnerProduct"
  bottom: "ip2"
  top: "ip3"
  param {
    lr_mult: 1
  }
  param {
    lr_mult: 2
  }
  inner_product_param {
    num_output: 2
    weight_filler {
      type: "gaussian"
      std: 0.1
    }
    bias_filler {
      type: "constant"
    }
  }
}
layer {
  name: "accuracy"
  type: "Accuracy"
  bottom: "ip3"
  bottom: "label"
  top: "accuracy"
  include {
    phase: TEST
  }
}
layer {
  name: "loss"
  type: "SoftmaxWithLoss"
  bottom: "ip3"
  bottom: "label"
  top: "loss"
}
I1021 18:55:53.210970  2830 layer_factory.hpp:76] Creating layer nuclei
I1021 18:55:53.210985  2830 net.cpp:110] Creating Layer nuclei
I1021 18:55:53.210990  2830 net.cpp:433] nuclei -> data
I1021 18:55:53.210999  2830 net.cpp:433] nuclei -> label
I1021 18:55:53.211005  2830 image_data_layer.cpp:37] Opening file /home/sanuj/temp_63_LLM_YR4_33/test.txt
I1021 18:55:53.797924  2830 image_data_layer.cpp:52] A total of 100000 images.
I1021 18:55:53.855623  2830 image_data_layer.cpp:79] output data size: 500,3,33,33
I1021 18:55:53.884402  2830 net.cpp:155] Setting up nuclei
I1021 18:55:53.884436  2830 net.cpp:163] Top shape: 500 3 33 33 (1633500)
I1021 18:55:53.884446  2830 net.cpp:163] Top shape: 500 (500)
I1021 18:55:53.884455  2830 layer_factory.hpp:76] Creating layer label_nuclei_1_split
I1021 18:55:53.884475  2830 net.cpp:110] Creating Layer label_nuclei_1_split
I1021 18:55:53.884510  2830 net.cpp:477] label_nuclei_1_split <- label
I1021 18:55:53.884524  2830 net.cpp:433] label_nuclei_1_split -> label_nuclei_1_split_0
I1021 18:55:53.884548  2830 net.cpp:433] label_nuclei_1_split -> label_nuclei_1_split_1
I1021 18:55:53.884603  2830 net.cpp:155] Setting up label_nuclei_1_split
I1021 18:55:53.884613  2830 net.cpp:163] Top shape: 500 (500)
I1021 18:55:53.884619  2830 net.cpp:163] Top shape: 500 (500)
I1021 18:55:53.884636  2830 layer_factory.hpp:76] Creating layer conv1
I1021 18:55:53.884650  2830 net.cpp:110] Creating Layer conv1
I1021 18:55:53.884657  2830 net.cpp:477] conv1 <- data
I1021 18:55:53.884670  2830 net.cpp:433] conv1 -> conv1
I1021 18:55:53.884976  2830 net.cpp:155] Setting up conv1
I1021 18:55:53.884987  2830 net.cpp:163] Top shape: 500 48 28 28 (18816000)
I1021 18:55:53.885015  2830 layer_factory.hpp:76] Creating layer pool1
I1021 18:55:53.885025  2830 net.cpp:110] Creating Layer pool1
I1021 18:55:53.885042  2830 net.cpp:477] pool1 <- conv1
I1021 18:55:53.885051  2830 net.cpp:433] pool1 -> pool1
I1021 18:55:53.885094  2830 net.cpp:155] Setting up pool1
I1021 18:55:53.885107  2830 net.cpp:163] Top shape: 500 48 14 14 (4704000)
I1021 18:55:53.885114  2830 layer_factory.hpp:76] Creating layer relu1
I1021 18:55:53.885133  2830 net.cpp:110] Creating Layer relu1
I1021 18:55:53.885140  2830 net.cpp:477] relu1 <- pool1
I1021 18:55:53.885148  2830 net.cpp:419] relu1 -> pool1 (in-place)
I1021 18:55:53.885159  2830 net.cpp:155] Setting up relu1
I1021 18:55:53.885167  2830 net.cpp:163] Top shape: 500 48 14 14 (4704000)
I1021 18:55:53.885175  2830 layer_factory.hpp:76] Creating layer conv2
I1021 18:55:53.885195  2830 net.cpp:110] Creating Layer conv2
I1021 18:55:53.885201  2830 net.cpp:477] conv2 <- pool1
I1021 18:55:53.885211  2830 net.cpp:433] conv2 -> conv2
I1021 18:55:53.896162  2830 net.cpp:155] Setting up conv2
I1021 18:55:53.896178  2830 net.cpp:163] Top shape: 500 48 11 11 (2904000)
I1021 18:55:53.896193  2830 layer_factory.hpp:76] Creating layer relu2
I1021 18:55:53.896206  2830 net.cpp:110] Creating Layer relu2
I1021 18:55:53.896217  2830 net.cpp:477] relu2 <- conv2
I1021 18:55:53.896227  2830 net.cpp:419] relu2 -> conv2 (in-place)
I1021 18:55:53.896239  2830 net.cpp:155] Setting up relu2
I1021 18:55:53.896248  2830 net.cpp:163] Top shape: 500 48 11 11 (2904000)
I1021 18:55:53.896255  2830 layer_factory.hpp:76] Creating layer pool2
I1021 18:55:53.896277  2830 net.cpp:110] Creating Layer pool2
I1021 18:55:53.896284  2830 net.cpp:477] pool2 <- conv2
I1021 18:55:53.896289  2830 net.cpp:433] pool2 -> pool2
I1021 18:55:53.896333  2830 net.cpp:155] Setting up pool2
I1021 18:55:53.896342  2830 net.cpp:163] Top shape: 500 48 6 6 (864000)
I1021 18:55:53.896345  2830 layer_factory.hpp:76] Creating layer ip_1
I1021 18:55:53.896353  2830 net.cpp:110] Creating Layer ip_1
I1021 18:55:53.896355  2830 net.cpp:477] ip_1 <- pool2
I1021 18:55:53.896361  2830 net.cpp:433] ip_1 -> ip1
I1021 18:55:53.898524  2830 net.cpp:155] Setting up ip_1
I1021 18:55:53.898532  2830 net.cpp:163] Top shape: 500 48 (24000)
I1021 18:55:53.898540  2830 layer_factory.hpp:76] Creating layer relu1
I1021 18:55:53.898545  2830 net.cpp:110] Creating Layer relu1
I1021 18:55:53.898548  2830 net.cpp:477] relu1 <- ip1
I1021 18:55:53.898555  2830 net.cpp:419] relu1 -> ip1 (in-place)
I1021 18:55:53.898560  2830 net.cpp:155] Setting up relu1
I1021 18:55:53.898563  2830 net.cpp:163] Top shape: 500 48 (24000)
I1021 18:55:53.898566  2830 layer_factory.hpp:76] Creating layer ip_2
I1021 18:55:53.898571  2830 net.cpp:110] Creating Layer ip_2
I1021 18:55:53.898574  2830 net.cpp:477] ip_2 <- ip1
I1021 18:55:53.898579  2830 net.cpp:433] ip_2 -> ip2
I1021 18:55:53.898717  2830 net.cpp:155] Setting up ip_2
I1021 18:55:53.898723  2830 net.cpp:163] Top shape: 500 48 (24000)
I1021 18:55:53.898740  2830 layer_factory.hpp:76] Creating layer relu2
I1021 18:55:53.898747  2830 net.cpp:110] Creating Layer relu2
I1021 18:55:53.898751  2830 net.cpp:477] relu2 <- ip2
I1021 18:55:53.898754  2830 net.cpp:419] relu2 -> ip2 (in-place)
I1021 18:55:53.898758  2830 net.cpp:155] Setting up relu2
I1021 18:55:53.898762  2830 net.cpp:163] Top shape: 500 48 (24000)
I1021 18:55:53.898766  2830 layer_factory.hpp:76] Creating layer ip_3
I1021 18:55:53.898771  2830 net.cpp:110] Creating Layer ip_3
I1021 18:55:53.898773  2830 net.cpp:477] ip_3 <- ip2
I1021 18:55:53.898777  2830 net.cpp:433] ip_3 -> ip3
I1021 18:55:53.898866  2830 net.cpp:155] Setting up ip_3
I1021 18:55:53.898874  2830 net.cpp:163] Top shape: 500 2 (1000)
I1021 18:55:53.898890  2830 layer_factory.hpp:76] Creating layer ip3_ip_3_0_split
I1021 18:55:53.898895  2830 net.cpp:110] Creating Layer ip3_ip_3_0_split
I1021 18:55:53.898898  2830 net.cpp:477] ip3_ip_3_0_split <- ip3
I1021 18:55:53.898905  2830 net.cpp:433] ip3_ip_3_0_split -> ip3_ip_3_0_split_0
I1021 18:55:53.898910  2830 net.cpp:433] ip3_ip_3_0_split -> ip3_ip_3_0_split_1
I1021 18:55:53.898936  2830 net.cpp:155] Setting up ip3_ip_3_0_split
I1021 18:55:53.898949  2830 net.cpp:163] Top shape: 500 2 (1000)
I1021 18:55:53.898953  2830 net.cpp:163] Top shape: 500 2 (1000)
I1021 18:55:53.898957  2830 layer_factory.hpp:76] Creating layer accuracy
I1021 18:55:53.898973  2830 net.cpp:110] Creating Layer accuracy
I1021 18:55:53.898977  2830 net.cpp:477] accuracy <- ip3_ip_3_0_split_0
I1021 18:55:53.898980  2830 net.cpp:477] accuracy <- label_nuclei_1_split_0
I1021 18:55:53.898985  2830 net.cpp:433] accuracy -> accuracy
I1021 18:55:53.898993  2830 net.cpp:155] Setting up accuracy
…
