…
I1017 20:26:59.097157 13973 net.cpp:339] The NetState phase (0) differed from the phase (1) specified by a rule in layer cifar
I1017 20:26:59.097174 13973 net.cpp:339] The NetState phase (0) differed from the phase (1) specified by a rule in layer accuracy
I1017 20:26:59.097262 13973 net.cpp:50] Initializing net from parameters: 
name: "CIFAR10_full"
state {
  phase: TRAIN
}
layer {
  name: "cifar"
  type: "Data"
  top: "data"
  top: "label"
  include {
    phase: TRAIN
  }
  transform_param {
    mean_file: "examples/cifar10/mean.binaryproto"
  }
  data_param {
    source: "examples/cifar10/cifar10_train_lmdb"
    batch_size: 100
    backend: LMDB
  }
}
layer {
  name: "conv1"
  type: "Convolution"
  bottom: "data"
  top: "conv1"
  param {
    lr_mult: 1
  }
  param {
    lr_mult: 2
  }
  convolution_param {
    num_output: 48
    pad: 2
    kernel_size: 6
    stride: 1
    weight_filler {
      type: "gaussian"
      std: 0.0001
    }
    bias_filler {
      type: "constant"
    }
  }
}
layer {
  name: "pool1"
  type: "Pooling"
  bottom: "conv1"
  top: "pool1"
  pooling_param {
    pool: MAX
    kernel_size: 3
    stride: 2
    pad: 1
  }
}
layer {
  name: "relu1"
  type: "ReLU"
  bottom: "pool1"
  top: "pool1"
}
layer {
  name: "conv2"
  type: "Convolution"
  bottom: "pool1"
  top: "conv2"
  param {
    lr_mult: 1
  }
  param {
    lr_mult: 2
  }
  convolution_param {
    num_output: 48
    pad: 0
    kernel_size: 4
    stride: 1
    weight_filler {
      type: "gaussian"
      std: 0.01
    }
    bias_filler {
      type: "constant"
    }
  }
}
layer {
  name: "relu2"
  type: "ReLU"
  bottom: "conv2"
  top: "conv2"
}
layer {
  name: "pool2"
  type: "Pooling"
  bottom: "conv2"
  top: "pool2"
  pooling_param {
    pool: MAX
    kernel_size: 2
    stride: 2
  }
}
layer {
  name: "ip1"
  type: "InnerProduct"
  bottom: "pool2"
  top: "ip1"
  param {
    lr_mult: 1
  }
  param {
    lr_mult: 2
  }
  inner_product_param {
    num_output: 48
    weight_filler {
      type: "gaussian"
      std: 0.1
    }
    bias_filler {
      type: "constant"
    }
  }
}
layer {
  name: "ip2"
  type: "InnerProduct"
  bottom: "ip1"
  top: "ip2"
  param {
    lr_mult: 1
  }
  param {
    lr_mult: 2
  }
  inner_product_param {
    num_output: 10
    weight_filler {
      type: "gaussian"
      std: 0.1
    }
    bias_filler {
      type: "constant"
    }
  }
}
layer {
  name: "loss"
  type: "SoftmaxWithLoss"
  bottom: "ip2"
  bottom: "label"
  top: "loss"
}
I1017 20:26:59.097322 13973 layer_factory.hpp:76] Creating layer cifar
I1017 20:26:59.097921 13973 net.cpp:110] Creating Layer cifar
I1017 20:26:59.097940 13973 net.cpp:433] cifar -> data
I1017 20:26:59.097975 13973 net.cpp:433] cifar -> label
I1017 20:26:59.098028 13973 data_transformer.cpp:25] Loading mean file from: examples/cifar10/mean.binaryproto
I1017 20:26:59.098814 13977 db_lmdb.cpp:23] Opened lmdb examples/cifar10/cifar10_train_lmdb
I1017 20:26:59.105228 13973 data_layer.cpp:45] output data size: 100,3,32,32
I1017 20:26:59.112025 13973 net.cpp:155] Setting up cifar
I1017 20:26:59.112071 13973 net.cpp:163] Top shape: 100 3 32 32 (307200)
I1017 20:26:59.112083 13973 net.cpp:163] Top shape: 100 (100)
I1017 20:26:59.112095 13973 layer_factory.hpp:76] Creating layer conv1
I1017 20:26:59.112149 13973 net.cpp:110] Creating Layer conv1
I1017 20:26:59.112174 13973 net.cpp:477] conv1 <- data
I1017 20:26:59.112195 13973 net.cpp:433] conv1 -> conv1
I1017 20:26:59.113693 13973 net.cpp:155] Setting up conv1
I1017 20:26:59.113716 13973 net.cpp:163] Top shape: 100 48 31 31 (4612800)
I1017 20:26:59.113775 13973 layer_factory.hpp:76] Creating layer pool1
I1017 20:26:59.113795 13973 net.cpp:110] Creating Layer pool1
I1017 20:26:59.113821 13973 net.cpp:477] pool1 <- conv1
I1017 20:26:59.113834 13973 net.cpp:433] pool1 -> pool1
I1017 20:26:59.114534 13973 net.cpp:155] Setting up pool1
I1017 20:26:59.114548 13973 net.cpp:163] Top shape: 100 48 16 16 (1228800)
I1017 20:26:59.114557 13973 layer_factory.hpp:76] Creating layer relu1
I1017 20:26:59.114583 13973 net.cpp:110] Creating Layer relu1
I1017 20:26:59.114590 13973 net.cpp:477] relu1 <- pool1
I1017 20:26:59.114617 13973 net.cpp:419] relu1 -> pool1 (in-place)
I1017 20:26:59.114629 13973 net.cpp:155] Setting up relu1
I1017 20:26:59.114650 13973 net.cpp:163] Top shape: 100 48 16 16 (1228800)
I1017 20:26:59.114656 13973 layer_factory.hpp:76] Creating layer conv2
I1017 20:26:59.114682 13973 net.cpp:110] Creating Layer conv2
I1017 20:26:59.114689 13973 net.cpp:477] conv2 <- pool1
I1017 20:26:59.114713 13973 net.cpp:433] conv2 -> conv2
I1017 20:26:59.116467 13973 net.cpp:155] Setting up conv2
I1017 20:26:59.116519 13973 net.cpp:163] Top shape: 100 48 13 13 (811200)
I1017 20:26:59.116539 13973 layer_factory.hpp:76] Creating layer relu2
I1017 20:26:59.116556 13973 net.cpp:110] Creating Layer relu2
I1017 20:26:59.116565 13973 net.cpp:477] relu2 <- conv2
I1017 20:26:59.116578 13973 net.cpp:419] relu2 -> conv2 (in-place)
I1017 20:26:59.116591 13973 net.cpp:155] Setting up relu2
I1017 20:26:59.116602 13973 net.cpp:163] Top shape: 100 48 13 13 (811200)
I1017 20:26:59.116611 13973 layer_factory.hpp:76] Creating layer pool2
I1017 20:26:59.116634 13973 net.cpp:110] Creating Layer pool2
I1017 20:26:59.116641 13973 net.cpp:477] pool2 <- conv2
I1017 20:26:59.116652 13973 net.cpp:433] pool2 -> pool2
I1017 20:26:59.116698 13973 net.cpp:155] Setting up pool2
I1017 20:26:59.116709 13973 net.cpp:163] Top shape: 100 48 7 7 (235200)
I1017 20:26:59.116716 13973 layer_factory.hpp:76] Creating layer ip1
I1017 20:26:59.116730 13973 net.cpp:110] Creating Layer ip1
I1017 20:26:59.116739 13973 net.cpp:477] ip1 <- pool2
I1017 20:26:59.116751 13973 net.cpp:433] ip1 -> ip1
I1017 20:26:59.123029 13973 net.cpp:155] Setting up ip1
I1017 20:26:59.123050 13973 net.cpp:163] Top shape: 100 48 (4800)
I1017 20:26:59.123069 13973 layer_factory.hpp:76] Creating layer ip2
I1017 20:26:59.123107 13973 net.cpp:110] Creating Layer ip2
I1017 20:26:59.123137 13973 net.cpp:477] ip2 <- ip1
I1017 20:26:59.123178 13973 net.cpp:433] ip2 -> ip2
I1017 20:26:59.123335 13973 net.cpp:155] Setting up ip2
I1017 20:26:59.123347 13973 net.cpp:163] Top shape: 100 10 (1000)
I1017 20:26:59.123363 13973 layer_factory.hpp:76] Creating layer loss
I1017 20:26:59.123384 13973 net.cpp:110] Creating Layer loss
I1017 20:26:59.123395 13973 net.cpp:477] loss <- ip2
I1017 20:26:59.123409 13973 net.cpp:477] loss <- label
I1017 20:26:59.123430 13973 net.cpp:433] loss -> loss
I1017 20:26:59.123448 13973 layer_factory.hpp:76] Creating layer loss
I1017 20:26:59.123572 13973 net.cpp:155] Setting up loss
…
I1017 20:26:59.124238 13973 solver.cpp:187] Creating test net (#0) specified by net file: examples/nuclei/train_cifar/cifar_nuclei_train_test.prototxt
I1017 20:26:59.124290 13973 net.cpp:339] The NetState phase (1) differed from the phase (0) specified by a rule in layer cifar
I1017 20:26:59.124428 13973 net.cpp:50] Initializing net from parameters: 
name: "CIFAR10_full"
state {
  phase: TEST
}
layer {
  name: "cifar"
  type: "Data"
  top: "data"
  top: "label"
  include {
    phase: TEST
  }
  transform_param {
    mean_file: "examples/cifar10/mean.binaryproto"
  }
  data_param {
    source: "examples/cifar10/cifar10_test_lmdb"
    batch_size: 100
    backend: LMDB
  }
}
layer {
  name: "conv1"
  type: "Convolution"
  bottom: "data"
  top: "conv1"
  param {
    lr_mult: 1
  }
  param {
    lr_mult: 2
  }
  convolution_param {
    num_output: 48
    pad: 2
    kernel_size: 6
    stride: 1
    weight_filler {
      type: "gaussian"
      std: 0.0001
    }
    bias_filler {
      type: "constant"
    }
  }
}
layer {
  name: "pool1"
  type: "Pooling"
  bottom: "conv1"
  top: "pool1"
  pooling_param {
    pool: MAX
    kernel_size: 3
    stride: 2
    pad: 1
  }
}
layer {
  name: "relu1"
  type: "ReLU"
  bottom: "pool1"
  top: "pool1"
}
layer {
  name: "conv2"
  type: "Convolution"
  bottom: "pool1"
  top: "conv2"
  param {
    lr_mult: 1
  }
  param {
    lr_mult: 2
  }
  convolution_param {
    num_output: 48
    pad: 0
    kernel_size: 4
    stride: 1
    weight_filler {
      type: "gaussian"
      std: 0.01
    }
    bias_filler {
      type: "constant"
    }
  }
}
layer {
  name: "relu2"
  type: "ReLU"
  bottom: "conv2"
  top: "conv2"
}
layer {
  name: "pool2"
  type: "Pooling"
  bottom: "conv2"
  top: "pool2"
  pooling_param {
    pool: MAX
    kernel_size: 2
    stride: 2
  }
}
layer {
  name: "ip1"
  type: "InnerProduct"
  bottom: "pool2"
  top: "ip1"
  param {
    lr_mult: 1
  }
  param {
    lr_mult: 2
  }
  inner_product_param {
    num_output: 48
    weight_filler {
      type: "gaussian"
      std: 0.1
    }
    bias_filler {
      type: "constant"
    }
  }
}
layer {
  name: "ip2"
  type: "InnerProduct"
  bottom: "ip1"
  top: "ip2"
  param {
    lr_mult: 1
  }
  param {
    lr_mult: 2
  }
  inner_product_param {
    num_output: 10
    weight_filler {
      type: "gaussian"
      std: 0.1
    }
    bias_filler {
      type: "constant"
    }
  }
}
layer {
  name: "accuracy"
  type: "Accuracy"
  bottom: "ip2"
  bottom: "label"
  top: "accuracy"
  include {
    phase: TEST
  }
}
layer {
  name: "loss"
  type: "SoftmaxWithLoss"
  bottom: "ip2"
  bottom: "label"
  top: "loss"
}
I1017 20:26:59.124543 13973 layer_factory.hpp:76] Creating layer cifar
I1017 20:26:59.124707 13973 net.cpp:110] Creating Layer cifar
I1017 20:26:59.124721 13973 net.cpp:433] cifar -> data
I1017 20:26:59.124740 13973 net.cpp:433] cifar -> label
I1017 20:26:59.124758 13973 data_transformer.cpp:25] Loading mean file from: examples/cifar10/mean.binaryproto
I1017 20:26:59.128398 13979 db_lmdb.cpp:23] Opened lmdb examples/cifar10/cifar10_test_lmdb
I1017 20:26:59.128541 13973 data_layer.cpp:45] output data size: 100,3,32,32
I1017 20:26:59.140074 13973 net.cpp:155] Setting up cifar
I1017 20:26:59.140105 13973 net.cpp:163] Top shape: 100 3 32 32 (307200)
I1017 20:26:59.140113 13973 net.cpp:163] Top shape: 100 (100)
I1017 20:26:59.140122 13973 layer_factory.hpp:76] Creating layer label_cifar_1_split
I1017 20:26:59.140137 13973 net.cpp:110] Creating Layer label_cifar_1_split
I1017 20:26:59.140146 13973 net.cpp:477] label_cifar_1_split <- label
I1017 20:26:59.140156 13973 net.cpp:433] label_cifar_1_split -> label_cifar_1_split_0
I1017 20:26:59.140168 13973 net.cpp:433] label_cifar_1_split -> label_cifar_1_split_1
I1017 20:26:59.140225 13973 net.cpp:155] Setting up label_cifar_1_split
I1017 20:26:59.140235 13973 net.cpp:163] Top shape: 100 (100)
I1017 20:26:59.140244 13973 net.cpp:163] Top shape: 100 (100)
I1017 20:26:59.140250 13973 layer_factory.hpp:76] Creating layer conv1
I1017 20:26:59.140267 13973 net.cpp:110] Creating Layer conv1
I1017 20:26:59.140290 13973 net.cpp:477] conv1 <- data
I1017 20:26:59.140305 13973 net.cpp:433] conv1 -> conv1
I1017 20:26:59.140650 13973 net.cpp:155] Setting up conv1
I1017 20:26:59.140662 13973 net.cpp:163] Top shape: 100 48 31 31 (4612800)
I1017 20:26:59.140681 13973 layer_factory.hpp:76] Creating layer pool1
I1017 20:26:59.140696 13973 net.cpp:110] Creating Layer pool1
I1017 20:26:59.140704 13973 net.cpp:477] pool1 <- conv1
I1017 20:26:59.140714 13973 net.cpp:433] pool1 -> pool1
I1017 20:26:59.140756 13973 net.cpp:155] Setting up pool1
I1017 20:26:59.140765 13973 net.cpp:163] Top shape: 100 48 16 16 (1228800)
I1017 20:26:59.140772 13973 layer_factory.hpp:76] Creating layer relu1
I1017 20:26:59.140792 13973 net.cpp:110] Creating Layer relu1
I1017 20:26:59.140799 13973 net.cpp:477] relu1 <- pool1
I1017 20:26:59.140810 13973 net.cpp:419] relu1 -> pool1 (in-place)
I1017 20:26:59.140822 13973 net.cpp:155] Setting up relu1
I1017 20:26:59.140831 13973 net.cpp:163] Top shape: 100 48 16 16 (1228800)
I1017 20:26:59.140841 13973 layer_factory.hpp:76] Creating layer conv2
I1017 20:26:59.140858 13973 net.cpp:110] Creating Layer conv2
I1017 20:26:59.140866 13973 net.cpp:477] conv2 <- pool1
I1017 20:26:59.140875 13973 net.cpp:433] conv2 -> conv2
I1017 20:26:59.142900 13973 net.cpp:155] Setting up conv2
I1017 20:26:59.142920 13973 net.cpp:163] Top shape: 100 48 13 13 (811200)
I1017 20:26:59.142954 13973 layer_factory.hpp:76] Creating layer relu2
I1017 20:26:59.142966 13973 net.cpp:110] Creating Layer relu2
I1017 20:26:59.142973 13973 net.cpp:477] relu2 <- conv2
I1017 20:26:59.142983 13973 net.cpp:419] relu2 -> conv2 (in-place)
I1017 20:26:59.142995 13973 net.cpp:155] Setting up relu2
I1017 20:26:59.143008 13973 net.cpp:163] Top shape: 100 48 13 13 (811200)
I1017 20:26:59.143017 13973 layer_factory.hpp:76] Creating layer pool2
I1017 20:26:59.143026 13973 net.cpp:110] Creating Layer pool2
I1017 20:26:59.143035 13973 net.cpp:477] pool2 <- conv2
I1017 20:26:59.143045 13973 net.cpp:433] pool2 -> pool2
I1017 20:26:59.143091 13973 net.cpp:155] Setting up pool2
I1017 20:26:59.143101 13973 net.cpp:163] Top shape: 100 48 7 7 (235200)
I1017 20:26:59.143110 13973 layer_factory.hpp:76] Creating layer ip1
I1017 20:26:59.143126 13973 net.cpp:110] Creating Layer ip1
I1017 20:26:59.143136 13973 net.cpp:477] ip1 <- pool2
I1017 20:26:59.143147 13973 net.cpp:433] ip1 -> ip1
I1017 20:26:59.146466 13973 net.cpp:155] Setting up ip1
I1017 20:26:59.146479 13973 net.cpp:163] Top shape: 100 48 (4800)
I1017 20:26:59.146497 13973 layer_factory.hpp:76] Creating layer ip2
I1017 20:26:59.146514 13973 net.cpp:110] Creating Layer ip2
I1017 20:26:59.146524 13973 net.cpp:477] ip2 <- ip1
I1017 20:26:59.146534 13973 net.cpp:433] ip2 -> ip2
I1017 20:26:59.146664 13973 net.cpp:155] Setting up ip2
I1017 20:26:59.146674 13973 net.cpp:163] Top shape: 100 10 (1000)
I1017 20:26:59.146688 13973 layer_factory.hpp:76] Creating layer ip2_ip2_0_split
I1017 20:26:59.146708 13973 net.cpp:110] Creating Layer ip2_ip2_0_split
I1017 20:26:59.146716 13973 net.cpp:477] ip2_ip2_0_split <- ip2
I1017 20:26:59.146738 13973 net.cpp:433] ip2_ip2_0_split -> ip2_ip2_0_split_0
I1017 20:26:59.146760 13973 net.cpp:433] ip2_ip2_0_split -> ip2_ip2_0_split_1
I1017 20:26:59.146807 13973 net.cpp:155] Setting up ip2_ip2_0_split
I1017 20:26:59.146819 13973 net.cpp:163] Top shape: 100 10 (1000)
I1017 20:26:59.146836 13973 net.cpp:163] Top shape: 100 10 (1000)
I1017 20:26:59.146847 13973 layer_factory.hpp:76] Creating layer accuracy
I1017 20:26:59.146859 13973 net.cpp:110] Creating Layer accuracy
I1017 20:26:59.146878 13973 net.cpp:477] accuracy <- ip2_ip2_0_split_0
I1017 20:26:59.146886 13973 net.cpp:477] accuracy <- label_cifar_1_split_0
I1017 20:26:59.146898 13973 net.cpp:433] accuracy -> accuracy
I1017 20:26:59.146916 13973 net.cpp:155] Setting up accuracy
…
