…
I1022 08:26:02.178011  3319 net.cpp:339] The NetState phase (0) differed from the phase (1) specified by a rule in layer nuclei
I1022 08:26:02.178035  3319 net.cpp:339] The NetState phase (0) differed from the phase (1) specified by a rule in layer accuracy
I1022 08:26:02.178153  3319 net.cpp:50] Initializing net from parameters: 
name: "NULCEI_quick"
state {
  phase: TRAIN
}
layer {
  name: "nuclei"
  type: "ImageData"
  top: "data"
  top: "label"
  include {
    phase: TRAIN
  }
  image_data_param {
    source: "/home/sanuj/temp_63_LLM_YR4_33/train.txt"
    batch_size: 200
  }
}
layer {
  name: "conv1"
  type: "Convolution"
  bottom: "data"
  top: "conv1"
  param {
    lr_mult: 1
  }
  param {
    lr_mult: 2
  }
  convolution_param {
    num_output: 48
    pad: 0
    kernel_size: 6
    stride: 1
    weight_filler {
      type: "gaussian"
      std: 0.0001
    }
    bias_filler {
      type: "constant"
    }
  }
}
layer {
  name: "pool1"
  type: "Pooling"
  bottom: "conv1"
  top: "pool1"
  pooling_param {
    pool: MAX
    kernel_size: 2
    stride: 2
  }
}
layer {
  name: "relu1"
  type: "ReLU"
  bottom: "pool1"
  top: "pool1"
}
layer {
  name: "conv2"
  type: "Convolution"
  bottom: "pool1"
  top: "conv2"
  param {
    lr_mult: 1
  }
  param {
    lr_mult: 2
  }
  convolution_param {
    num_output: 48
    pad: 0
    kernel_size: 4
    stride: 1
    weight_filler {
      type: "gaussian"
      std: 0.01
    }
    bias_filler {
      type: "constant"
    }
  }
}
layer {
  name: "relu2"
  type: "ReLU"
  bottom: "conv2"
  top: "conv2"
}
layer {
  name: "pool2"
  type: "Pooling"
  bottom: "conv2"
  top: "pool2"
  pooling_param {
    pool: MAX
    kernel_size: 2
    stride: 2
  }
}
layer {
  name: "ip_1"
  type: "InnerProduct"
  bottom: "pool2"
  top: "ip1"
  param {
    lr_mult: 1
  }
  param {
    lr_mult: 2
  }
  inner_product_param {
    num_output: 20
    weight_filler {
      type: "gaussian"
      std: 0.1
    }
    bias_filler {
      type: "constant"
    }
  }
}
layer {
  name: "relu1"
  type: "ReLU"
  bottom: "ip1"
  top: "ip1"
}
layer {
  name: "ip_2"
  type: "InnerProduct"
  bottom: "ip1"
  top: "ip2"
  param {
    lr_mult: 1
  }
  param {
    lr_mult: 2
  }
  inner_product_param {
    num_output: 2
    weight_filler {
      type: "gaussian"
      std: 0.1
    }
    bias_filler {
      type: "constant"
    }
  }
}
layer {
  name: "loss"
  type: "SoftmaxWithLoss"
  bottom: "ip2"
  bottom: "label"
  top: "loss"
}
I1022 08:26:02.178241  3319 layer_factory.hpp:76] Creating layer nuclei
I1022 08:26:02.178287  3319 net.cpp:110] Creating Layer nuclei
I1022 08:26:02.178300  3319 net.cpp:433] nuclei -> data
I1022 08:26:02.178328  3319 net.cpp:433] nuclei -> label
I1022 08:26:02.178351  3319 image_data_layer.cpp:37] Opening file /home/sanuj/temp_63_LLM_YR4_33/train.txt
I1022 08:26:02.266170  3319 image_data_layer.cpp:52] A total of 199996 images.
I1022 08:26:02.272606  3319 image_data_layer.cpp:79] output data size: 200,3,33,33
I1022 08:26:02.282320  3319 net.cpp:155] Setting up nuclei
I1022 08:26:02.282356  3319 net.cpp:163] Top shape: 200 3 33 33 (653400)
I1022 08:26:02.282366  3319 net.cpp:163] Top shape: 200 (200)
I1022 08:26:02.282377  3319 layer_factory.hpp:76] Creating layer conv1
I1022 08:26:02.282409  3319 net.cpp:110] Creating Layer conv1
I1022 08:26:02.282418  3319 net.cpp:477] conv1 <- data
I1022 08:26:02.282438  3319 net.cpp:433] conv1 -> conv1
I1022 08:26:02.283633  3319 net.cpp:155] Setting up conv1
I1022 08:26:02.283655  3319 net.cpp:163] Top shape: 200 48 28 28 (7526400)
I1022 08:26:02.283704  3319 layer_factory.hpp:76] Creating layer pool1
I1022 08:26:02.283721  3319 net.cpp:110] Creating Layer pool1
I1022 08:26:02.283728  3319 net.cpp:477] pool1 <- conv1
I1022 08:26:02.283740  3319 net.cpp:433] pool1 -> pool1
I1022 08:26:02.283915  3319 net.cpp:155] Setting up pool1
I1022 08:26:02.283934  3319 net.cpp:163] Top shape: 200 48 14 14 (1881600)
I1022 08:26:02.283943  3319 layer_factory.hpp:76] Creating layer relu1
I1022 08:26:02.283953  3319 net.cpp:110] Creating Layer relu1
I1022 08:26:02.283962  3319 net.cpp:477] relu1 <- pool1
I1022 08:26:02.283973  3319 net.cpp:419] relu1 -> pool1 (in-place)
I1022 08:26:02.283985  3319 net.cpp:155] Setting up relu1
I1022 08:26:02.283994  3319 net.cpp:163] Top shape: 200 48 14 14 (1881600)
I1022 08:26:02.284000  3319 layer_factory.hpp:76] Creating layer conv2
I1022 08:26:02.284015  3319 net.cpp:110] Creating Layer conv2
I1022 08:26:02.284024  3319 net.cpp:477] conv2 <- pool1
I1022 08:26:02.284034  3319 net.cpp:433] conv2 -> conv2
I1022 08:26:02.287261  3319 net.cpp:155] Setting up conv2
I1022 08:26:02.287284  3319 net.cpp:163] Top shape: 200 48 11 11 (1161600)
I1022 08:26:02.287302  3319 layer_factory.hpp:76] Creating layer relu2
I1022 08:26:02.287317  3319 net.cpp:110] Creating Layer relu2
I1022 08:26:02.287333  3319 net.cpp:477] relu2 <- conv2
I1022 08:26:02.287343  3319 net.cpp:419] relu2 -> conv2 (in-place)
I1022 08:26:02.287364  3319 net.cpp:155] Setting up relu2
I1022 08:26:02.287374  3319 net.cpp:163] Top shape: 200 48 11 11 (1161600)
I1022 08:26:02.287380  3319 layer_factory.hpp:76] Creating layer pool2
I1022 08:26:02.287394  3319 net.cpp:110] Creating Layer pool2
I1022 08:26:02.287401  3319 net.cpp:477] pool2 <- conv2
I1022 08:26:02.287410  3319 net.cpp:433] pool2 -> pool2
I1022 08:26:02.287462  3319 net.cpp:155] Setting up pool2
I1022 08:26:02.287474  3319 net.cpp:163] Top shape: 200 48 6 6 (345600)
I1022 08:26:02.287482  3319 layer_factory.hpp:76] Creating layer ip_1
I1022 08:26:02.287497  3319 net.cpp:110] Creating Layer ip_1
I1022 08:26:02.287505  3319 net.cpp:477] ip_1 <- pool2
I1022 08:26:02.287515  3319 net.cpp:433] ip_1 -> ip1
I1022 08:26:02.288470  3319 net.cpp:155] Setting up ip_1
I1022 08:26:02.288481  3319 net.cpp:163] Top shape: 200 20 (4000)
I1022 08:26:02.288496  3319 layer_factory.hpp:76] Creating layer relu1
I1022 08:26:02.288511  3319 net.cpp:110] Creating Layer relu1
I1022 08:26:02.288518  3319 net.cpp:477] relu1 <- ip1
I1022 08:26:02.288542  3319 net.cpp:419] relu1 -> ip1 (in-place)
I1022 08:26:02.288557  3319 net.cpp:155] Setting up relu1
I1022 08:26:02.288566  3319 net.cpp:163] Top shape: 200 20 (4000)
I1022 08:26:02.288574  3319 layer_factory.hpp:76] Creating layer ip_2
I1022 08:26:02.288586  3319 net.cpp:110] Creating Layer ip_2
I1022 08:26:02.288594  3319 net.cpp:477] ip_2 <- ip1
I1022 08:26:02.288601  3319 net.cpp:433] ip_2 -> ip2
I1022 08:26:02.288707  3319 net.cpp:155] Setting up ip_2
I1022 08:26:02.288717  3319 net.cpp:163] Top shape: 200 2 (400)
I1022 08:26:02.288728  3319 layer_factory.hpp:76] Creating layer loss
I1022 08:26:02.288744  3319 net.cpp:110] Creating Layer loss
I1022 08:26:02.288753  3319 net.cpp:477] loss <- ip2
I1022 08:26:02.288760  3319 net.cpp:477] loss <- label
I1022 08:26:02.288771  3319 net.cpp:433] loss -> loss
I1022 08:26:02.288787  3319 layer_factory.hpp:76] Creating layer loss
I1022 08:26:02.288887  3319 net.cpp:155] Setting up loss
…
I1022 08:26:02.289363  3319 solver.cpp:187] Creating test net (#0) specified by net file: examples/nuclei/train_cifar/use_cifar_train_test.prototxt
I1022 08:26:02.289398  3319 net.cpp:339] The NetState phase (1) differed from the phase (0) specified by a rule in layer nuclei
I1022 08:26:02.289496  3319 net.cpp:50] Initializing net from parameters: 
name: "NULCEI_quick"
state {
  phase: TEST
}
layer {
  name: "nuclei"
  type: "ImageData"
  top: "data"
  top: "label"
  include {
    phase: TEST
  }
  image_data_param {
    source: "/home/sanuj/temp_63_LLM_YR4_33/test.txt"
    batch_size: 500
  }
}
layer {
  name: "conv1"
  type: "Convolution"
  bottom: "data"
  top: "conv1"
  param {
    lr_mult: 1
  }
  param {
    lr_mult: 2
  }
  convolution_param {
    num_output: 48
    pad: 0
    kernel_size: 6
    stride: 1
    weight_filler {
      type: "gaussian"
      std: 0.0001
    }
    bias_filler {
      type: "constant"
    }
  }
}
layer {
  name: "pool1"
  type: "Pooling"
  bottom: "conv1"
  top: "pool1"
  pooling_param {
    pool: MAX
    kernel_size: 2
    stride: 2
  }
}
layer {
  name: "relu1"
  type: "ReLU"
  bottom: "pool1"
  top: "pool1"
}
layer {
  name: "conv2"
  type: "Convolution"
  bottom: "pool1"
  top: "conv2"
  param {
    lr_mult: 1
  }
  param {
    lr_mult: 2
  }
  convolution_param {
    num_output: 48
    pad: 0
    kernel_size: 4
    stride: 1
    weight_filler {
      type: "gaussian"
      std: 0.01
    }
    bias_filler {
      type: "constant"
    }
  }
}
layer {
  name: "relu2"
  type: "ReLU"
  bottom: "conv2"
  top: "conv2"
}
layer {
  name: "pool2"
  type: "Pooling"
  bottom: "conv2"
  top: "pool2"
  pooling_param {
    pool: MAX
    kernel_size: 2
    stride: 2
  }
}
layer {
  name: "ip_1"
  type: "InnerProduct"
  bottom: "pool2"
  top: "ip1"
  param {
    lr_mult: 1
  }
  param {
    lr_mult: 2
  }
  inner_product_param {
    num_output: 20
    weight_filler {
      type: "gaussian"
      std: 0.1
    }
    bias_filler {
      type: "constant"
    }
  }
}
layer {
  name: "relu1"
  type: "ReLU"
  bottom: "ip1"
  top: "ip1"
}
layer {
  name: "ip_2"
  type: "InnerProduct"
  bottom: "ip1"
  top: "ip2"
  param {
    lr_mult: 1
  }
  param {
    lr_mult: 2
  }
  inner_product_param {
    num_output: 2
    weight_filler {
      type: "gaussian"
      std: 0.1
    }
    bias_filler {
      type: "constant"
    }
  }
}
layer {
  name: "accuracy"
  type: "Accuracy"
  bottom: "ip2"
  bottom: "label"
  top: "accuracy"
  include {
    phase: TEST
  }
}
layer {
  name: "loss"
  type: "SoftmaxWithLoss"
  bottom: "ip2"
  bottom: "label"
  top: "loss"
}
I1022 08:26:02.289590  3319 layer_factory.hpp:76] Creating layer nuclei
I1022 08:26:02.289608  3319 net.cpp:110] Creating Layer nuclei
I1022 08:26:02.289618  3319 net.cpp:433] nuclei -> data
I1022 08:26:02.289631  3319 net.cpp:433] nuclei -> label
I1022 08:26:02.289644  3319 image_data_layer.cpp:37] Opening file /home/sanuj/temp_63_LLM_YR4_33/test.txt
I1022 08:26:02.337589  3319 image_data_layer.cpp:52] A total of 100000 images.
I1022 08:26:02.337848  3319 image_data_layer.cpp:79] output data size: 500,3,33,33
I1022 08:26:02.361310  3319 net.cpp:155] Setting up nuclei
I1022 08:26:02.361345  3319 net.cpp:163] Top shape: 500 3 33 33 (1633500)
I1022 08:26:02.361353  3319 net.cpp:163] Top shape: 500 (500)
I1022 08:26:02.361362  3319 layer_factory.hpp:76] Creating layer label_nuclei_1_split
I1022 08:26:02.361383  3319 net.cpp:110] Creating Layer label_nuclei_1_split
I1022 08:26:02.361392  3319 net.cpp:477] label_nuclei_1_split <- label
I1022 08:26:02.361402  3319 net.cpp:433] label_nuclei_1_split -> label_nuclei_1_split_0
I1022 08:26:02.361438  3319 net.cpp:433] label_nuclei_1_split -> label_nuclei_1_split_1
I1022 08:26:02.361491  3319 net.cpp:155] Setting up label_nuclei_1_split
I1022 08:26:02.361501  3319 net.cpp:163] Top shape: 500 (500)
I1022 08:26:02.361510  3319 net.cpp:163] Top shape: 500 (500)
I1022 08:26:02.361526  3319 layer_factory.hpp:76] Creating layer conv1
I1022 08:26:02.361541  3319 net.cpp:110] Creating Layer conv1
I1022 08:26:02.361548  3319 net.cpp:477] conv1 <- data
I1022 08:26:02.361562  3319 net.cpp:433] conv1 -> conv1
I1022 08:26:02.361980  3319 net.cpp:155] Setting up conv1
I1022 08:26:02.361994  3319 net.cpp:163] Top shape: 500 48 28 28 (18816000)
I1022 08:26:02.362009  3319 layer_factory.hpp:76] Creating layer pool1
I1022 08:26:02.362022  3319 net.cpp:110] Creating Layer pool1
I1022 08:26:02.362028  3319 net.cpp:477] pool1 <- conv1
I1022 08:26:02.362038  3319 net.cpp:433] pool1 -> pool1
I1022 08:26:02.362085  3319 net.cpp:155] Setting up pool1
I1022 08:26:02.362095  3319 net.cpp:163] Top shape: 500 48 14 14 (4704000)
I1022 08:26:02.362100  3319 layer_factory.hpp:76] Creating layer relu1
I1022 08:26:02.362109  3319 net.cpp:110] Creating Layer relu1
I1022 08:26:02.362115  3319 net.cpp:477] relu1 <- pool1
I1022 08:26:02.362123  3319 net.cpp:419] relu1 -> pool1 (in-place)
I1022 08:26:02.362146  3319 net.cpp:155] Setting up relu1
I1022 08:26:02.362154  3319 net.cpp:163] Top shape: 500 48 14 14 (4704000)
I1022 08:26:02.362159  3319 layer_factory.hpp:76] Creating layer conv2
I1022 08:26:02.362169  3319 net.cpp:110] Creating Layer conv2
I1022 08:26:02.362174  3319 net.cpp:477] conv2 <- pool1
I1022 08:26:02.362182  3319 net.cpp:433] conv2 -> conv2
I1022 08:26:02.366935  3319 net.cpp:155] Setting up conv2
I1022 08:26:02.366986  3319 net.cpp:163] Top shape: 500 48 11 11 (2904000)
I1022 08:26:02.367022  3319 layer_factory.hpp:76] Creating layer relu2
I1022 08:26:02.367050  3319 net.cpp:110] Creating Layer relu2
I1022 08:26:02.367075  3319 net.cpp:477] relu2 <- conv2
I1022 08:26:02.367100  3319 net.cpp:419] relu2 -> conv2 (in-place)
I1022 08:26:02.367126  3319 net.cpp:155] Setting up relu2
I1022 08:26:02.367153  3319 net.cpp:163] Top shape: 500 48 11 11 (2904000)
I1022 08:26:02.367174  3319 layer_factory.hpp:76] Creating layer pool2
I1022 08:26:02.367199  3319 net.cpp:110] Creating Layer pool2
I1022 08:26:02.367223  3319 net.cpp:477] pool2 <- conv2
I1022 08:26:02.367266  3319 net.cpp:433] pool2 -> pool2
I1022 08:26:02.367338  3319 net.cpp:155] Setting up pool2
I1022 08:26:02.367367  3319 net.cpp:163] Top shape: 500 48 6 6 (864000)
I1022 08:26:02.367390  3319 layer_factory.hpp:76] Creating layer ip_1
I1022 08:26:02.367420  3319 net.cpp:110] Creating Layer ip_1
I1022 08:26:02.367444  3319 net.cpp:477] ip_1 <- pool2
I1022 08:26:02.367472  3319 net.cpp:433] ip_1 -> ip1
I1022 08:26:02.369014  3319 net.cpp:155] Setting up ip_1
I1022 08:26:02.369057  3319 net.cpp:163] Top shape: 500 20 (10000)
I1022 08:26:02.369105  3319 layer_factory.hpp:76] Creating layer relu1
I1022 08:26:02.369135  3319 net.cpp:110] Creating Layer relu1
I1022 08:26:02.369181  3319 net.cpp:477] relu1 <- ip1
I1022 08:26:02.369207  3319 net.cpp:419] relu1 -> ip1 (in-place)
I1022 08:26:02.369235  3319 net.cpp:155] Setting up relu1
I1022 08:26:02.369261  3319 net.cpp:163] Top shape: 500 20 (10000)
I1022 08:26:02.369283  3319 layer_factory.hpp:76] Creating layer ip_2
I1022 08:26:02.369312  3319 net.cpp:110] Creating Layer ip_2
I1022 08:26:02.369333  3319 net.cpp:477] ip_2 <- ip1
I1022 08:26:02.369360  3319 net.cpp:433] ip_2 -> ip2
I1022 08:26:02.369519  3319 net.cpp:155] Setting up ip_2
I1022 08:26:02.369550  3319 net.cpp:163] Top shape: 500 2 (1000)
I1022 08:26:02.369576  3319 layer_factory.hpp:76] Creating layer ip2_ip_2_0_split
I1022 08:26:02.369602  3319 net.cpp:110] Creating Layer ip2_ip_2_0_split
I1022 08:26:02.369626  3319 net.cpp:477] ip2_ip_2_0_split <- ip2
I1022 08:26:02.369652  3319 net.cpp:433] ip2_ip_2_0_split -> ip2_ip_2_0_split_0
I1022 08:26:02.369678  3319 net.cpp:433] ip2_ip_2_0_split -> ip2_ip_2_0_split_1
I1022 08:26:02.369768  3319 net.cpp:155] Setting up ip2_ip_2_0_split
I1022 08:26:02.369796  3319 net.cpp:163] Top shape: 500 2 (1000)
I1022 08:26:02.369822  3319 net.cpp:163] Top shape: 500 2 (1000)
I1022 08:26:02.369844  3319 layer_factory.hpp:76] Creating layer accuracy
I1022 08:26:02.369868  3319 net.cpp:110] Creating Layer accuracy
I1022 08:26:02.369897  3319 net.cpp:477] accuracy <- ip2_ip_2_0_split_0
I1022 08:26:02.369923  3319 net.cpp:477] accuracy <- label_nuclei_1_split_0
I1022 08:26:02.369951  3319 net.cpp:433] accuracy -> accuracy
I1022 08:26:02.369979  3319 net.cpp:155] Setting up accuracy
…
