…
I1026 14:55:56.544178 10162 net.cpp:339] The NetState phase (0) differed from the phase (1) specified by a rule in layer nuclei
I1026 14:55:56.544222 10162 net.cpp:339] The NetState phase (0) differed from the phase (1) specified by a rule in layer accuracy
I1026 14:55:56.544361 10162 net.cpp:50] Initializing net from parameters: 
name: "NULCEI_quick"
state {
  phase: TRAIN
}
layer {
  name: "nuclei"
  type: "ImageData"
  top: "data"
  top: "label"
  include {
    phase: TRAIN
  }
  image_data_param {
    source: "/home/sanuj/temp_63_LLM_YR4_33/train.txt"
    batch_size: 100
  }
}
layer {
  name: "conv1"
  type: "Convolution"
  bottom: "data"
  top: "conv1"
  param {
    lr_mult: 0
  }
  param {
    lr_mult: 0
  }
  convolution_param {
    num_output: 48
    pad: 0
    kernel_size: 4
    stride: 1
    weight_filler {
      type: "gaussian"
      std: 0.0001
    }
    bias_filler {
      type: "constant"
    }
  }
}
layer {
  name: "pool1"
  type: "Pooling"
  bottom: "conv1"
  top: "pool1"
  pooling_param {
    pool: MAX
    kernel_size: 2
    stride: 2
  }
}
layer {
  name: "relu1"
  type: "ReLU"
  bottom: "pool1"
  top: "pool1"
}
layer {
  name: "conv2"
  type: "Convolution"
  bottom: "pool1"
  top: "conv2"
  param {
    lr_mult: 0
  }
  param {
    lr_mult: 0
  }
  convolution_param {
    num_output: 48
    pad: 0
    kernel_size: 6
    stride: 1
    weight_filler {
      type: "gaussian"
      std: 0.01
    }
    bias_filler {
      type: "constant"
    }
  }
}
layer {
  name: "relu2"
  type: "ReLU"
  bottom: "conv2"
  top: "conv2"
}
layer {
  name: "pool2"
  type: "Pooling"
  bottom: "conv2"
  top: "pool2"
  pooling_param {
    pool: MAX
    kernel_size: 2
    stride: 2
  }
}
layer {
  name: "ip1"
  type: "InnerProduct"
  bottom: "pool2"
  top: "ip1"
  param {
    lr_mult: 1
  }
  param {
    lr_mult: 2
  }
  inner_product_param {
    num_output: 48
    weight_filler {
      type: "gaussian"
      std: 0.1
    }
    bias_filler {
      type: "constant"
    }
  }
}
layer {
  name: "relu1"
  type: "ReLU"
  bottom: "ip1"
  top: "ip1"
}
layer {
  name: "ip2"
  type: "InnerProduct"
  bottom: "ip1"
  top: "ip2"
  param {
    lr_mult: 1
  }
  param {
    lr_mult: 2
  }
  inner_product_param {
    num_output: 2
    weight_filler {
      type: "gaussian"
      std: 0.1
    }
    bias_filler {
      type: "constant"
    }
  }
}
layer {
  name: "loss"
  type: "SoftmaxWithLoss"
  bottom: "ip2"
  bottom: "label"
  top: "loss"
}
I1026 14:55:56.544445 10162 layer_factory.hpp:76] Creating layer nuclei
I1026 14:55:56.544498 10162 net.cpp:110] Creating Layer nuclei
I1026 14:55:56.544515 10162 net.cpp:433] nuclei -> data
I1026 14:55:56.544554 10162 net.cpp:433] nuclei -> label
I1026 14:55:56.544579 10162 image_data_layer.cpp:37] Opening file /home/sanuj/temp_63_LLM_YR4_33/train.txt
I1026 14:55:56.647016 10162 image_data_layer.cpp:52] A total of 202002 images.
I1026 14:55:56.775408 10162 image_data_layer.cpp:79] output data size: 100,3,33,33
I1026 14:55:56.780789 10162 net.cpp:155] Setting up nuclei
I1026 14:55:56.780822 10162 net.cpp:163] Top shape: 100 3 33 33 (326700)
I1026 14:55:56.780830 10162 net.cpp:163] Top shape: 100 (100)
I1026 14:55:56.780841 10162 layer_factory.hpp:76] Creating layer conv1
I1026 14:55:56.780866 10162 net.cpp:110] Creating Layer conv1
I1026 14:55:56.780895 10162 net.cpp:477] conv1 <- data
I1026 14:55:56.780927 10162 net.cpp:433] conv1 -> conv1
I1026 14:55:56.782006 10162 net.cpp:155] Setting up conv1
I1026 14:55:56.782039 10162 net.cpp:163] Top shape: 100 48 30 30 (4320000)
I1026 14:55:56.782068 10162 layer_factory.hpp:76] Creating layer pool1
I1026 14:55:56.782085 10162 net.cpp:110] Creating Layer pool1
I1026 14:55:56.782112 10162 net.cpp:477] pool1 <- conv1
I1026 14:55:56.782138 10162 net.cpp:433] pool1 -> pool1
I1026 14:55:56.782233 10162 net.cpp:155] Setting up pool1
I1026 14:55:56.782244 10162 net.cpp:163] Top shape: 100 48 15 15 (1080000)
I1026 14:55:56.782250 10162 layer_factory.hpp:76] Creating layer relu1
I1026 14:55:56.782260 10162 net.cpp:110] Creating Layer relu1
I1026 14:55:56.782269 10162 net.cpp:477] relu1 <- pool1
I1026 14:55:56.782284 10162 net.cpp:419] relu1 -> pool1 (in-place)
I1026 14:55:56.782310 10162 net.cpp:155] Setting up relu1
I1026 14:55:56.782330 10162 net.cpp:163] Top shape: 100 48 15 15 (1080000)
I1026 14:55:56.782341 10162 layer_factory.hpp:76] Creating layer conv2
I1026 14:55:56.782356 10162 net.cpp:110] Creating Layer conv2
I1026 14:55:56.782363 10162 net.cpp:477] conv2 <- pool1
I1026 14:55:56.782382 10162 net.cpp:433] conv2 -> conv2
I1026 14:55:56.785725 10162 net.cpp:155] Setting up conv2
I1026 14:55:56.785742 10162 net.cpp:163] Top shape: 100 48 10 10 (480000)
I1026 14:55:56.785765 10162 layer_factory.hpp:76] Creating layer relu2
I1026 14:55:56.785775 10162 net.cpp:110] Creating Layer relu2
I1026 14:55:56.785783 10162 net.cpp:477] relu2 <- conv2
I1026 14:55:56.785791 10162 net.cpp:419] relu2 -> conv2 (in-place)
I1026 14:55:56.785801 10162 net.cpp:155] Setting up relu2
I1026 14:55:56.785814 10162 net.cpp:163] Top shape: 100 48 10 10 (480000)
I1026 14:55:56.785820 10162 layer_factory.hpp:76] Creating layer pool2
I1026 14:55:56.785830 10162 net.cpp:110] Creating Layer pool2
I1026 14:55:56.785835 10162 net.cpp:477] pool2 <- conv2
I1026 14:55:56.785845 10162 net.cpp:433] pool2 -> pool2
I1026 14:55:56.785883 10162 net.cpp:155] Setting up pool2
I1026 14:55:56.785892 10162 net.cpp:163] Top shape: 100 48 5 5 (120000)
I1026 14:55:56.785899 10162 layer_factory.hpp:76] Creating layer ip1
I1026 14:55:56.785912 10162 net.cpp:110] Creating Layer ip1
I1026 14:55:56.785920 10162 net.cpp:477] ip1 <- pool2
I1026 14:55:56.785931 10162 net.cpp:433] ip1 -> ip1
I1026 14:55:56.788102 10162 net.cpp:155] Setting up ip1
I1026 14:55:56.788133 10162 net.cpp:163] Top shape: 100 48 (4800)
I1026 14:55:56.788159 10162 layer_factory.hpp:76] Creating layer relu1
I1026 14:55:56.788177 10162 net.cpp:110] Creating Layer relu1
I1026 14:55:56.788185 10162 net.cpp:477] relu1 <- ip1
I1026 14:55:56.788198 10162 net.cpp:419] relu1 -> ip1 (in-place)
I1026 14:55:56.788218 10162 net.cpp:155] Setting up relu1
I1026 14:55:56.788228 10162 net.cpp:163] Top shape: 100 48 (4800)
I1026 14:55:56.788234 10162 layer_factory.hpp:76] Creating layer ip2
I1026 14:55:56.788244 10162 net.cpp:110] Creating Layer ip2
I1026 14:55:56.788250 10162 net.cpp:477] ip2 <- ip1
I1026 14:55:56.788264 10162 net.cpp:433] ip2 -> ip2
I1026 14:55:56.788358 10162 net.cpp:155] Setting up ip2
I1026 14:55:56.788367 10162 net.cpp:163] Top shape: 100 2 (200)
I1026 14:55:56.788377 10162 layer_factory.hpp:76] Creating layer loss
I1026 14:55:56.788385 10162 net.cpp:110] Creating Layer loss
I1026 14:55:56.788391 10162 net.cpp:477] loss <- ip2
I1026 14:55:56.788398 10162 net.cpp:477] loss <- label
I1026 14:55:56.788411 10162 net.cpp:433] loss -> loss
I1026 14:55:56.812654 10162 layer_factory.hpp:76] Creating layer loss
I1026 14:55:56.812816 10162 net.cpp:155] Setting up loss
…
I1026 14:55:56.813343 10162 solver.cpp:187] Creating test net (#0) specified by net file: examples/nuclei/multi_class_nuclei/use_multi_class/use_multi_class_test_train.prototxt
I1026 14:55:56.813382 10162 net.cpp:339] The NetState phase (1) differed from the phase (0) specified by a rule in layer nuclei
I1026 14:55:56.813491 10162 net.cpp:50] Initializing net from parameters: 
name: "NULCEI_quick"
state {
  phase: TEST
}
layer {
  name: "nuclei"
  type: "ImageData"
  top: "data"
  top: "label"
  include {
    phase: TEST
  }
  image_data_param {
    source: "/home/sanuj/temp_63_LLM_YR4_33/test.txt"
    batch_size: 500
  }
}
layer {
  name: "conv1"
  type: "Convolution"
  bottom: "data"
  top: "conv1"
  param {
    lr_mult: 0
  }
  param {
    lr_mult: 0
  }
  convolution_param {
    num_output: 48
    pad: 0
    kernel_size: 4
    stride: 1
    weight_filler {
      type: "gaussian"
      std: 0.0001
    }
    bias_filler {
      type: "constant"
    }
  }
}
layer {
  name: "pool1"
  type: "Pooling"
  bottom: "conv1"
  top: "pool1"
  pooling_param {
    pool: MAX
    kernel_size: 2
    stride: 2
  }
}
layer {
  name: "relu1"
  type: "ReLU"
  bottom: "pool1"
  top: "pool1"
}
layer {
  name: "conv2"
  type: "Convolution"
  bottom: "pool1"
  top: "conv2"
  param {
    lr_mult: 0
  }
  param {
    lr_mult: 0
  }
  convolution_param {
    num_output: 48
    pad: 0
    kernel_size: 6
    stride: 1
    weight_filler {
      type: "gaussian"
      std: 0.01
    }
    bias_filler {
      type: "constant"
    }
  }
}
layer {
  name: "relu2"
  type: "ReLU"
  bottom: "conv2"
  top: "conv2"
}
layer {
  name: "pool2"
  type: "Pooling"
  bottom: "conv2"
  top: "pool2"
  pooling_param {
    pool: MAX
    kernel_size: 2
    stride: 2
  }
}
layer {
  name: "ip1"
  type: "InnerProduct"
  bottom: "pool2"
  top: "ip1"
  param {
    lr_mult: 1
  }
  param {
    lr_mult: 2
  }
  inner_product_param {
    num_output: 48
    weight_filler {
      type: "gaussian"
      std: 0.1
    }
    bias_filler {
      type: "constant"
    }
  }
}
layer {
  name: "relu1"
  type: "ReLU"
  bottom: "ip1"
  top: "ip1"
}
layer {
  name: "ip2"
  type: "InnerProduct"
  bottom: "ip1"
  top: "ip2"
  param {
    lr_mult: 1
  }
  param {
    lr_mult: 2
  }
  inner_product_param {
    num_output: 2
    weight_filler {
      type: "gaussian"
      std: 0.1
    }
    bias_filler {
      type: "constant"
    }
  }
}
layer {
  name: "accuracy"
  type: "Accuracy"
  bottom: "ip2"
  bottom: "label"
  top: "accuracy"
  include {
    phase: TEST
  }
}
layer {
  name: "loss"
  type: "SoftmaxWithLoss"
  bottom: "ip2"
  bottom: "label"
  top: "loss"
}
I1026 14:55:56.813602 10162 layer_factory.hpp:76] Creating layer nuclei
I1026 14:55:56.813627 10162 net.cpp:110] Creating Layer nuclei
I1026 14:55:56.813637 10162 net.cpp:433] nuclei -> data
I1026 14:55:56.813650 10162 net.cpp:433] nuclei -> label
I1026 14:55:56.813663 10162 image_data_layer.cpp:37] Opening file /home/sanuj/temp_63_LLM_YR4_33/test.txt
I1026 14:55:56.854082 10162 image_data_layer.cpp:52] A total of 101006 images.
I1026 14:55:56.854310 10162 image_data_layer.cpp:79] output data size: 500,3,33,33
I1026 14:55:56.879073 10162 net.cpp:155] Setting up nuclei
I1026 14:55:56.879106 10162 net.cpp:163] Top shape: 500 3 33 33 (1633500)
I1026 14:55:56.879115 10162 net.cpp:163] Top shape: 500 (500)
I1026 14:55:56.879124 10162 layer_factory.hpp:76] Creating layer label_nuclei_1_split
I1026 14:55:56.879142 10162 net.cpp:110] Creating Layer label_nuclei_1_split
I1026 14:55:56.879164 10162 net.cpp:477] label_nuclei_1_split <- label
I1026 14:55:56.879179 10162 net.cpp:433] label_nuclei_1_split -> label_nuclei_1_split_0
I1026 14:55:56.879194 10162 net.cpp:433] label_nuclei_1_split -> label_nuclei_1_split_1
I1026 14:55:56.879245 10162 net.cpp:155] Setting up label_nuclei_1_split
I1026 14:55:56.879252 10162 net.cpp:163] Top shape: 500 (500)
I1026 14:55:56.879259 10162 net.cpp:163] Top shape: 500 (500)
I1026 14:55:56.879266 10162 layer_factory.hpp:76] Creating layer conv1
I1026 14:55:56.879282 10162 net.cpp:110] Creating Layer conv1
I1026 14:55:56.879290 10162 net.cpp:477] conv1 <- data
I1026 14:55:56.879300 10162 net.cpp:433] conv1 -> conv1
I1026 14:55:56.879537 10162 net.cpp:155] Setting up conv1
I1026 14:55:56.879547 10162 net.cpp:163] Top shape: 500 48 30 30 (21600000)
I1026 14:55:56.879564 10162 layer_factory.hpp:76] Creating layer pool1
I1026 14:55:56.879577 10162 net.cpp:110] Creating Layer pool1
I1026 14:55:56.879585 10162 net.cpp:477] pool1 <- conv1
I1026 14:55:56.879593 10162 net.cpp:433] pool1 -> pool1
I1026 14:55:56.879633 10162 net.cpp:155] Setting up pool1
I1026 14:55:56.879642 10162 net.cpp:163] Top shape: 500 48 15 15 (5400000)
I1026 14:55:56.879647 10162 layer_factory.hpp:76] Creating layer relu1
I1026 14:55:56.879659 10162 net.cpp:110] Creating Layer relu1
I1026 14:55:56.879665 10162 net.cpp:477] relu1 <- pool1
I1026 14:55:56.879673 10162 net.cpp:419] relu1 -> pool1 (in-place)
I1026 14:55:56.879683 10162 net.cpp:155] Setting up relu1
I1026 14:55:56.879691 10162 net.cpp:163] Top shape: 500 48 15 15 (5400000)
I1026 14:55:56.879698 10162 layer_factory.hpp:76] Creating layer conv2
I1026 14:55:56.879712 10162 net.cpp:110] Creating Layer conv2
I1026 14:55:56.879719 10162 net.cpp:477] conv2 <- pool1
I1026 14:55:56.879729 10162 net.cpp:433] conv2 -> conv2
I1026 14:55:56.889096 10162 net.cpp:155] Setting up conv2
I1026 14:55:56.889119 10162 net.cpp:163] Top shape: 500 48 10 10 (2400000)
I1026 14:55:56.889133 10162 layer_factory.hpp:76] Creating layer relu2
I1026 14:55:56.889144 10162 net.cpp:110] Creating Layer relu2
I1026 14:55:56.889153 10162 net.cpp:477] relu2 <- conv2
I1026 14:55:56.889163 10162 net.cpp:419] relu2 -> conv2 (in-place)
I1026 14:55:56.889173 10162 net.cpp:155] Setting up relu2
I1026 14:55:56.889183 10162 net.cpp:163] Top shape: 500 48 10 10 (2400000)
I1026 14:55:56.889189 10162 layer_factory.hpp:76] Creating layer pool2
I1026 14:55:56.889200 10162 net.cpp:110] Creating Layer pool2
I1026 14:55:56.889211 10162 net.cpp:477] pool2 <- conv2
I1026 14:55:56.889231 10162 net.cpp:433] pool2 -> pool2
I1026 14:55:56.889287 10162 net.cpp:155] Setting up pool2
I1026 14:55:56.889297 10162 net.cpp:163] Top shape: 500 48 5 5 (600000)
I1026 14:55:56.889304 10162 layer_factory.hpp:76] Creating layer ip1
I1026 14:55:56.889323 10162 net.cpp:110] Creating Layer ip1
I1026 14:55:56.889331 10162 net.cpp:477] ip1 <- pool2
I1026 14:55:56.889340 10162 net.cpp:433] ip1 -> ip1
I1026 14:55:56.890823 10162 net.cpp:155] Setting up ip1
I1026 14:55:56.890836 10162 net.cpp:163] Top shape: 500 48 (24000)
I1026 14:55:56.890849 10162 layer_factory.hpp:76] Creating layer relu1
I1026 14:55:56.890858 10162 net.cpp:110] Creating Layer relu1
I1026 14:55:56.890864 10162 net.cpp:477] relu1 <- ip1
I1026 14:55:56.890884 10162 net.cpp:419] relu1 -> ip1 (in-place)
I1026 14:55:56.890900 10162 net.cpp:155] Setting up relu1
I1026 14:55:56.890909 10162 net.cpp:163] Top shape: 500 48 (24000)
I1026 14:55:56.890916 10162 layer_factory.hpp:76] Creating layer ip2
I1026 14:55:56.890928 10162 net.cpp:110] Creating Layer ip2
I1026 14:55:56.890935 10162 net.cpp:477] ip2 <- ip1
I1026 14:55:56.890946 10162 net.cpp:433] ip2 -> ip2
I1026 14:55:56.891041 10162 net.cpp:155] Setting up ip2
I1026 14:55:56.891050 10162 net.cpp:163] Top shape: 500 2 (1000)
I1026 14:55:56.891062 10162 layer_factory.hpp:76] Creating layer ip2_ip2_0_split
I1026 14:55:56.891072 10162 net.cpp:110] Creating Layer ip2_ip2_0_split
I1026 14:55:56.891080 10162 net.cpp:477] ip2_ip2_0_split <- ip2
I1026 14:55:56.891088 10162 net.cpp:433] ip2_ip2_0_split -> ip2_ip2_0_split_0
I1026 14:55:56.891113 10162 net.cpp:433] ip2_ip2_0_split -> ip2_ip2_0_split_1
I1026 14:55:56.891156 10162 net.cpp:155] Setting up ip2_ip2_0_split
I1026 14:55:56.891165 10162 net.cpp:163] Top shape: 500 2 (1000)
I1026 14:55:56.891171 10162 net.cpp:163] Top shape: 500 2 (1000)
I1026 14:55:56.891178 10162 layer_factory.hpp:76] Creating layer accuracy
I1026 14:55:56.891187 10162 net.cpp:110] Creating Layer accuracy
I1026 14:55:56.891194 10162 net.cpp:477] accuracy <- ip2_ip2_0_split_0
I1026 14:55:56.891201 10162 net.cpp:477] accuracy <- label_nuclei_1_split_0
I1026 14:55:56.891212 10162 net.cpp:433] accuracy -> accuracy
I1026 14:55:56.891226 10162 net.cpp:155] Setting up accuracy
…
