…
I1030 12:37:32.126435  3774 net.cpp:339] The NetState phase (0) differed from the phase (1) specified by a rule in layer nuclei
I1030 12:37:32.126489  3774 net.cpp:339] The NetState phase (0) differed from the phase (1) specified by a rule in layer accuracy
I1030 12:37:32.126631  3774 net.cpp:50] Initializing net from parameters: 
name: "NULCEI_quick"
state {
  phase: TRAIN
}
layer {
  name: "nuclei"
  type: "ImageData"
  top: "data"
  top: "label"
  include {
    phase: TRAIN
  }
  image_data_param {
    source: "/home/sanuj/temp_63_LLM_YR4_33/train_big.txt"
    batch_size: 100
  }
}
layer {
  name: "conv1"
  type: "Convolution"
  bottom: "data"
  top: "conv1"
  param {
    lr_mult: 0.1
  }
  param {
    lr_mult: 0.2
  }
  convolution_param {
    num_output: 48
    pad: 0
    kernel_size: 4
    stride: 1
    weight_filler {
      type: "gaussian"
      std: 0.0001
    }
    bias_filler {
      type: "constant"
    }
  }
}
layer {
  name: "pool1"
  type: "Pooling"
  bottom: "conv1"
  top: "pool1"
  pooling_param {
    pool: MAX
    kernel_size: 2
    stride: 2
  }
}
layer {
  name: "relu1"
  type: "ReLU"
  bottom: "pool1"
  top: "pool1"
}
layer {
  name: "conv2"
  type: "Convolution"
  bottom: "pool1"
  top: "conv2"
  param {
    lr_mult: 0.1
  }
  param {
    lr_mult: 0.2
  }
  convolution_param {
    num_output: 48
    pad: 0
    kernel_size: 6
    stride: 1
    weight_filler {
      type: "gaussian"
      std: 0.01
    }
    bias_filler {
      type: "constant"
    }
  }
}
layer {
  name: "relu2"
  type: "ReLU"
  bottom: "conv2"
  top: "conv2"
}
layer {
  name: "pool2"
  type: "Pooling"
  bottom: "conv2"
  top: "pool2"
  pooling_param {
    pool: MAX
    kernel_size: 2
    stride: 2
  }
}
layer {
  name: "ip1"
  type: "InnerProduct"
  bottom: "pool2"
  top: "ip1"
  param {
    lr_mult: 1
  }
  param {
    lr_mult: 2
  }
  inner_product_param {
    num_output: 48
    weight_filler {
      type: "gaussian"
      std: 0.1
    }
    bias_filler {
      type: "constant"
    }
  }
}
layer {
  name: "relu1"
  type: "ReLU"
  bottom: "ip1"
  top: "ip1"
}
layer {
  name: "ip2"
  type: "InnerProduct"
  bottom: "ip1"
  top: "ip2"
  param {
    lr_mult: 1
  }
  param {
    lr_mult: 2
  }
  inner_product_param {
    num_output: 2
    weight_filler {
      type: "gaussian"
      std: 0.1
    }
    bias_filler {
      type: "constant"
    }
  }
}
layer {
  name: "loss"
  type: "SoftmaxWithLoss"
  bottom: "ip2"
  bottom: "label"
  top: "loss"
}
I1030 12:37:32.126735  3774 layer_factory.hpp:76] Creating layer nuclei
I1030 12:37:32.143192  3774 net.cpp:110] Creating Layer nuclei
I1030 12:37:32.143226  3774 net.cpp:433] nuclei -> data
I1030 12:37:32.143261  3774 net.cpp:433] nuclei -> label
I1030 12:37:32.143280  3774 image_data_layer.cpp:37] Opening file /home/sanuj/temp_63_LLM_YR4_33/train_big.txt
I1030 12:37:33.108028  3774 image_data_layer.cpp:52] A total of 666540 images.
I1030 12:37:33.296844  3774 image_data_layer.cpp:79] output data size: 100,3,33,33
I1030 12:37:33.303377  3774 net.cpp:155] Setting up nuclei
I1030 12:37:33.303416  3774 net.cpp:163] Top shape: 100 3 33 33 (326700)
I1030 12:37:33.303429  3774 net.cpp:163] Top shape: 100 (100)
I1030 12:37:33.303441  3774 layer_factory.hpp:76] Creating layer conv1
I1030 12:37:33.303844  3774 net.cpp:110] Creating Layer conv1
I1030 12:37:33.303861  3774 net.cpp:477] conv1 <- data
I1030 12:37:33.303880  3774 net.cpp:433] conv1 -> conv1
I1030 12:37:33.315052  3774 net.cpp:155] Setting up conv1
I1030 12:37:33.315120  3774 net.cpp:163] Top shape: 100 48 30 30 (4320000)
I1030 12:37:33.315151  3774 layer_factory.hpp:76] Creating layer pool1
I1030 12:37:33.315181  3774 net.cpp:110] Creating Layer pool1
I1030 12:37:33.315189  3774 net.cpp:477] pool1 <- conv1
I1030 12:37:33.315198  3774 net.cpp:433] pool1 -> pool1
I1030 12:37:33.315251  3774 net.cpp:155] Setting up pool1
I1030 12:37:33.315259  3774 net.cpp:163] Top shape: 100 48 15 15 (1080000)
I1030 12:37:33.315263  3774 layer_factory.hpp:76] Creating layer relu1
I1030 12:37:33.315268  3774 net.cpp:110] Creating Layer relu1
I1030 12:37:33.315271  3774 net.cpp:477] relu1 <- pool1
I1030 12:37:33.315276  3774 net.cpp:419] relu1 -> pool1 (in-place)
I1030 12:37:33.315285  3774 net.cpp:155] Setting up relu1
I1030 12:37:33.315294  3774 net.cpp:163] Top shape: 100 48 15 15 (1080000)
I1030 12:37:33.315302  3774 layer_factory.hpp:76] Creating layer conv2
I1030 12:37:33.315320  3774 net.cpp:110] Creating Layer conv2
I1030 12:37:33.315327  3774 net.cpp:477] conv2 <- pool1
I1030 12:37:33.315337  3774 net.cpp:433] conv2 -> conv2
I1030 12:37:33.317986  3774 net.cpp:155] Setting up conv2
I1030 12:37:33.318008  3774 net.cpp:163] Top shape: 100 48 10 10 (480000)
I1030 12:37:33.318017  3774 layer_factory.hpp:76] Creating layer relu2
I1030 12:37:33.318024  3774 net.cpp:110] Creating Layer relu2
I1030 12:37:33.318029  3774 net.cpp:477] relu2 <- conv2
I1030 12:37:33.318034  3774 net.cpp:419] relu2 -> conv2 (in-place)
I1030 12:37:33.318040  3774 net.cpp:155] Setting up relu2
I1030 12:37:33.318049  3774 net.cpp:163] Top shape: 100 48 10 10 (480000)
I1030 12:37:33.318055  3774 layer_factory.hpp:76] Creating layer pool2
I1030 12:37:33.318066  3774 net.cpp:110] Creating Layer pool2
I1030 12:37:33.318084  3774 net.cpp:477] pool2 <- conv2
I1030 12:37:33.318100  3774 net.cpp:433] pool2 -> pool2
I1030 12:37:33.318135  3774 net.cpp:155] Setting up pool2
I1030 12:37:33.318142  3774 net.cpp:163] Top shape: 100 48 5 5 (120000)
I1030 12:37:33.318145  3774 layer_factory.hpp:76] Creating layer ip1
I1030 12:37:33.318152  3774 net.cpp:110] Creating Layer ip1
I1030 12:37:33.318157  3774 net.cpp:477] ip1 <- pool2
I1030 12:37:33.318166  3774 net.cpp:433] ip1 -> ip1
I1030 12:37:33.320018  3774 net.cpp:155] Setting up ip1
I1030 12:37:33.320035  3774 net.cpp:163] Top shape: 100 48 (4800)
I1030 12:37:33.320050  3774 layer_factory.hpp:76] Creating layer relu1
I1030 12:37:33.320063  3774 net.cpp:110] Creating Layer relu1
I1030 12:37:33.320075  3774 net.cpp:477] relu1 <- ip1
I1030 12:37:33.320104  3774 net.cpp:419] relu1 -> ip1 (in-place)
I1030 12:37:33.320114  3774 net.cpp:155] Setting up relu1
I1030 12:37:33.320119  3774 net.cpp:163] Top shape: 100 48 (4800)
I1030 12:37:33.320122  3774 layer_factory.hpp:76] Creating layer ip2
I1030 12:37:33.320130  3774 net.cpp:110] Creating Layer ip2
I1030 12:37:33.320134  3774 net.cpp:477] ip2 <- ip1
I1030 12:37:33.320139  3774 net.cpp:433] ip2 -> ip2
I1030 12:37:33.320220  3774 net.cpp:155] Setting up ip2
I1030 12:37:33.320226  3774 net.cpp:163] Top shape: 100 2 (200)
I1030 12:37:33.320232  3774 layer_factory.hpp:76] Creating layer loss
I1030 12:37:33.320240  3774 net.cpp:110] Creating Layer loss
I1030 12:37:33.320246  3774 net.cpp:477] loss <- ip2
I1030 12:37:33.320253  3774 net.cpp:477] loss <- label
I1030 12:37:33.320264  3774 net.cpp:433] loss -> loss
I1030 12:37:33.320276  3774 layer_factory.hpp:76] Creating layer loss
I1030 12:37:33.340771  3774 net.cpp:155] Setting up loss
…
I1030 12:37:33.341316  3774 solver.cpp:187] Creating test net (#0) specified by net file: examples/nuclei/multi_class_nuclei/use_multi_class/use_multi_class_test_train.prototxt
I1030 12:37:33.341346  3774 net.cpp:339] The NetState phase (1) differed from the phase (0) specified by a rule in layer nuclei
I1030 12:37:33.341444  3774 net.cpp:50] Initializing net from parameters: 
name: "NULCEI_quick"
state {
  phase: TEST
}
layer {
  name: "nuclei"
  type: "ImageData"
  top: "data"
  top: "label"
  include {
    phase: TEST
  }
  image_data_param {
    source: "/home/sanuj/temp_63_LLM_YR4_33/test_big.txt"
    batch_size: 500
  }
}
layer {
  name: "conv1"
  type: "Convolution"
  bottom: "data"
  top: "conv1"
  param {
    lr_mult: 0.1
  }
  param {
    lr_mult: 0.2
  }
  convolution_param {
    num_output: 48
    pad: 0
    kernel_size: 4
    stride: 1
    weight_filler {
      type: "gaussian"
      std: 0.0001
    }
    bias_filler {
      type: "constant"
    }
  }
}
layer {
  name: "pool1"
  type: "Pooling"
  bottom: "conv1"
  top: "pool1"
  pooling_param {
    pool: MAX
    kernel_size: 2
    stride: 2
  }
}
layer {
  name: "relu1"
  type: "ReLU"
  bottom: "pool1"
  top: "pool1"
}
layer {
  name: "conv2"
  type: "Convolution"
  bottom: "pool1"
  top: "conv2"
  param {
    lr_mult: 0.1
  }
  param {
    lr_mult: 0.2
  }
  convolution_param {
    num_output: 48
    pad: 0
    kernel_size: 6
    stride: 1
    weight_filler {
      type: "gaussian"
      std: 0.01
    }
    bias_filler {
      type: "constant"
    }
  }
}
layer {
  name: "relu2"
  type: "ReLU"
  bottom: "conv2"
  top: "conv2"
}
layer {
  name: "pool2"
  type: "Pooling"
  bottom: "conv2"
  top: "pool2"
  pooling_param {
    pool: MAX
    kernel_size: 2
    stride: 2
  }
}
layer {
  name: "ip1"
  type: "InnerProduct"
  bottom: "pool2"
  top: "ip1"
  param {
    lr_mult: 1
  }
  param {
    lr_mult: 2
  }
  inner_product_param {
    num_output: 48
    weight_filler {
      type: "gaussian"
      std: 0.1
    }
    bias_filler {
      type: "constant"
    }
  }
}
layer {
  name: "relu1"
  type: "ReLU"
  bottom: "ip1"
  top: "ip1"
}
layer {
  name: "ip2"
  type: "InnerProduct"
  bottom: "ip1"
  top: "ip2"
  param {
    lr_mult: 1
  }
  param {
    lr_mult: 2
  }
  inner_product_param {
    num_output: 2
    weight_filler {
      type: "gaussian"
      std: 0.1
    }
    bias_filler {
      type: "constant"
    }
  }
}
layer {
  name: "accuracy"
  type: "Accuracy"
  bottom: "ip2"
  bottom: "label"
  top: "accuracy"
  include {
    phase: TEST
  }
}
layer {
  name: "loss"
  type: "SoftmaxWithLoss"
  bottom: "ip2"
  bottom: "label"
  top: "loss"
}
I1030 12:37:33.341516  3774 layer_factory.hpp:76] Creating layer nuclei
I1030 12:37:33.341531  3774 net.cpp:110] Creating Layer nuclei
I1030 12:37:33.341541  3774 net.cpp:433] nuclei -> data
I1030 12:37:33.341552  3774 net.cpp:433] nuclei -> label
I1030 12:37:33.341562  3774 image_data_layer.cpp:37] Opening file /home/sanuj/temp_63_LLM_YR4_33/test_big.txt
I1030 12:37:34.235007  3774 image_data_layer.cpp:52] A total of 350019 images.
I1030 12:37:34.269681  3774 image_data_layer.cpp:79] output data size: 500,3,33,33
I1030 12:37:34.302474  3774 net.cpp:155] Setting up nuclei
I1030 12:37:34.302513  3774 net.cpp:163] Top shape: 500 3 33 33 (1633500)
I1030 12:37:34.302523  3774 net.cpp:163] Top shape: 500 (500)
I1030 12:37:34.302533  3774 layer_factory.hpp:76] Creating layer label_nuclei_1_split
I1030 12:37:34.302552  3774 net.cpp:110] Creating Layer label_nuclei_1_split
I1030 12:37:34.302600  3774 net.cpp:477] label_nuclei_1_split <- label
I1030 12:37:34.302631  3774 net.cpp:433] label_nuclei_1_split -> label_nuclei_1_split_0
I1030 12:37:34.302660  3774 net.cpp:433] label_nuclei_1_split -> label_nuclei_1_split_1
I1030 12:37:34.302732  3774 net.cpp:155] Setting up label_nuclei_1_split
I1030 12:37:34.302747  3774 net.cpp:163] Top shape: 500 (500)
I1030 12:37:34.302755  3774 net.cpp:163] Top shape: 500 (500)
I1030 12:37:34.302778  3774 layer_factory.hpp:76] Creating layer conv1
I1030 12:37:34.302809  3774 net.cpp:110] Creating Layer conv1
I1030 12:37:34.302832  3774 net.cpp:477] conv1 <- data
I1030 12:37:34.302860  3774 net.cpp:433] conv1 -> conv1
I1030 12:37:34.303115  3774 net.cpp:155] Setting up conv1
I1030 12:37:34.303128  3774 net.cpp:163] Top shape: 500 48 30 30 (21600000)
I1030 12:37:34.303143  3774 layer_factory.hpp:76] Creating layer pool1
I1030 12:37:34.303158  3774 net.cpp:110] Creating Layer pool1
I1030 12:37:34.303165  3774 net.cpp:477] pool1 <- conv1
I1030 12:37:34.303174  3774 net.cpp:433] pool1 -> pool1
I1030 12:37:34.303215  3774 net.cpp:155] Setting up pool1
I1030 12:37:34.303223  3774 net.cpp:163] Top shape: 500 48 15 15 (5400000)
I1030 12:37:34.303230  3774 layer_factory.hpp:76] Creating layer relu1
I1030 12:37:34.303254  3774 net.cpp:110] Creating Layer relu1
I1030 12:37:34.303261  3774 net.cpp:477] relu1 <- pool1
I1030 12:37:34.303268  3774 net.cpp:419] relu1 -> pool1 (in-place)
I1030 12:37:34.303279  3774 net.cpp:155] Setting up relu1
I1030 12:37:34.303289  3774 net.cpp:163] Top shape: 500 48 15 15 (5400000)
I1030 12:37:34.303297  3774 layer_factory.hpp:76] Creating layer conv2
I1030 12:37:34.303319  3774 net.cpp:110] Creating Layer conv2
I1030 12:37:34.303325  3774 net.cpp:477] conv2 <- pool1
I1030 12:37:34.303334  3774 net.cpp:433] conv2 -> conv2
I1030 12:37:34.311086  3774 net.cpp:155] Setting up conv2
I1030 12:37:34.311110  3774 net.cpp:163] Top shape: 500 48 10 10 (2400000)
I1030 12:37:34.311130  3774 layer_factory.hpp:76] Creating layer relu2
I1030 12:37:34.311144  3774 net.cpp:110] Creating Layer relu2
I1030 12:37:34.311170  3774 net.cpp:477] relu2 <- conv2
I1030 12:37:34.311182  3774 net.cpp:419] relu2 -> conv2 (in-place)
I1030 12:37:34.311205  3774 net.cpp:155] Setting up relu2
I1030 12:37:34.311214  3774 net.cpp:163] Top shape: 500 48 10 10 (2400000)
I1030 12:37:34.311223  3774 layer_factory.hpp:76] Creating layer pool2
I1030 12:37:34.311242  3774 net.cpp:110] Creating Layer pool2
I1030 12:37:34.311249  3774 net.cpp:477] pool2 <- conv2
I1030 12:37:34.311257  3774 net.cpp:433] pool2 -> pool2
I1030 12:37:34.311308  3774 net.cpp:155] Setting up pool2
I1030 12:37:34.311317  3774 net.cpp:163] Top shape: 500 48 5 5 (600000)
I1030 12:37:34.311324  3774 layer_factory.hpp:76] Creating layer ip1
I1030 12:37:34.311336  3774 net.cpp:110] Creating Layer ip1
I1030 12:37:34.311343  3774 net.cpp:477] ip1 <- pool2
I1030 12:37:34.311354  3774 net.cpp:433] ip1 -> ip1
I1030 12:37:34.312844  3774 net.cpp:155] Setting up ip1
I1030 12:37:34.312858  3774 net.cpp:163] Top shape: 500 48 (24000)
I1030 12:37:34.312872  3774 layer_factory.hpp:76] Creating layer relu1
I1030 12:37:34.312897  3774 net.cpp:110] Creating Layer relu1
I1030 12:37:34.312903  3774 net.cpp:477] relu1 <- ip1
I1030 12:37:34.312913  3774 net.cpp:419] relu1 -> ip1 (in-place)
I1030 12:37:34.312924  3774 net.cpp:155] Setting up relu1
I1030 12:37:34.312929  3774 net.cpp:163] Top shape: 500 48 (24000)
I1030 12:37:34.312933  3774 layer_factory.hpp:76] Creating layer ip2
I1030 12:37:34.312940  3774 net.cpp:110] Creating Layer ip2
I1030 12:37:34.312944  3774 net.cpp:477] ip2 <- ip1
I1030 12:37:34.312948  3774 net.cpp:433] ip2 -> ip2
I1030 12:37:34.313031  3774 net.cpp:155] Setting up ip2
I1030 12:37:34.313038  3774 net.cpp:163] Top shape: 500 2 (1000)
I1030 12:37:34.313045  3774 layer_factory.hpp:76] Creating layer ip2_ip2_0_split
I1030 12:37:34.313050  3774 net.cpp:110] Creating Layer ip2_ip2_0_split
I1030 12:37:34.313055  3774 net.cpp:477] ip2_ip2_0_split <- ip2
I1030 12:37:34.313058  3774 net.cpp:433] ip2_ip2_0_split -> ip2_ip2_0_split_0
I1030 12:37:34.313076  3774 net.cpp:433] ip2_ip2_0_split -> ip2_ip2_0_split_1
I1030 12:37:34.313105  3774 net.cpp:155] Setting up ip2_ip2_0_split
I1030 12:37:34.313112  3774 net.cpp:163] Top shape: 500 2 (1000)
I1030 12:37:34.313117  3774 net.cpp:163] Top shape: 500 2 (1000)
I1030 12:37:34.313119  3774 layer_factory.hpp:76] Creating layer accuracy
I1030 12:37:34.313124  3774 net.cpp:110] Creating Layer accuracy
I1030 12:37:34.313128  3774 net.cpp:477] accuracy <- ip2_ip2_0_split_0
I1030 12:37:34.313133  3774 net.cpp:477] accuracy <- label_nuclei_1_split_0
I1030 12:37:34.313138  3774 net.cpp:433] accuracy -> accuracy
I1030 12:37:34.313144  3774 net.cpp:155] Setting up accuracy
…
