…
I1022 12:16:28.281159  9082 net.cpp:339] The NetState phase (0) differed from the phase (1) specified by a rule in layer nuclei
I1022 12:16:28.281180  9082 net.cpp:339] The NetState phase (0) differed from the phase (1) specified by a rule in layer accuracy
I1022 12:16:28.281291  9082 net.cpp:50] Initializing net from parameters: 
name: "CIFAR10_quick"
state {
  phase: TRAIN
}
layer {
  name: "nuclei"
  type: "ImageData"
  top: "data"
  top: "label"
  include {
    phase: TRAIN
  }
  image_data_param {
    source: "/home/sanuj/Projects/BTP/data/10_class_images/train.txt"
    batch_size: 100
  }
}
layer {
  name: "conv1"
  type: "Convolution"
  bottom: "data"
  top: "conv1"
  param {
    lr_mult: 1
  }
  param {
    lr_mult: 2
  }
  convolution_param {
    num_output: 32
    pad: 2
    kernel_size: 5
    stride: 1
    weight_filler {
      type: "gaussian"
      std: 0.0001
    }
    bias_filler {
      type: "constant"
    }
  }
}
layer {
  name: "pool1"
  type: "Pooling"
  bottom: "conv1"
  top: "pool1"
  pooling_param {
    pool: MAX
    kernel_size: 3
    stride: 2
  }
}
layer {
  name: "relu1"
  type: "ReLU"
  bottom: "pool1"
  top: "pool1"
}
layer {
  name: "conv2"
  type: "Convolution"
  bottom: "pool1"
  top: "conv2"
  param {
    lr_mult: 1
  }
  param {
    lr_mult: 2
  }
  convolution_param {
    num_output: 32
    pad: 2
    kernel_size: 5
    stride: 1
    weight_filler {
      type: "gaussian"
      std: 0.01
    }
    bias_filler {
      type: "constant"
    }
  }
}
layer {
  name: "relu2"
  type: "ReLU"
  bottom: "conv2"
  top: "conv2"
}
layer {
  name: "pool2"
  type: "Pooling"
  bottom: "conv2"
  top: "pool2"
  pooling_param {
    pool: AVE
    kernel_size: 3
    stride: 2
  }
}
layer {
  name: "conv3"
  type: "Convolution"
  bottom: "pool2"
  top: "conv3"
  param {
    lr_mult: 1
  }
  param {
    lr_mult: 2
  }
  convolution_param {
    num_output: 64
    pad: 2
    kernel_size: 5
    stride: 1
    weight_filler {
      type: "gaussian"
      std: 0.01
    }
    bias_filler {
      type: "constant"
    }
  }
}
layer {
  name: "relu3"
  type: "ReLU"
  bottom: "conv3"
  top: "conv3"
}
layer {
  name: "pool3"
  type: "Pooling"
  bottom: "conv3"
  top: "pool3"
  pooling_param {
    pool: AVE
    kernel_size: 3
    stride: 2
  }
}
layer {
  name: "ip1"
  type: "InnerProduct"
  bottom: "pool3"
  top: "ip1"
  param {
    lr_mult: 1
  }
  param {
    lr_mult: 2
  }
  inner_product_param {
    num_output: 64
    weight_filler {
      type: "gaussian"
      std: 0.1
    }
    bias_filler {
      type: "constant"
    }
  }
}
layer {
  name: "ip2"
  type: "InnerProduct"
  bottom: "ip1"
  top: "ip2"
  param {
    lr_mult: 1
  }
  param {
    lr_mult: 2
  }
  inner_product_param {
    num_output: 10
    weight_filler {
      type: "gaussian"
      std: 0.1
    }
    bias_filler {
      type: "constant"
    }
  }
}
layer {
  name: "loss"
  type: "SoftmaxWithLoss"
  bottom: "ip2"
  bottom: "label"
  top: "loss"
}
I1022 12:16:28.281386  9082 layer_factory.hpp:76] Creating layer nuclei
I1022 12:16:28.281424  9082 net.cpp:110] Creating Layer nuclei
I1022 12:16:28.281441  9082 net.cpp:433] nuclei -> data
I1022 12:16:28.281477  9082 net.cpp:433] nuclei -> label
I1022 12:16:28.281494  9082 image_data_layer.cpp:37] Opening file /home/sanuj/Projects/BTP/data/10_class_images/train.txt
I1022 12:16:28.320276  9082 image_data_layer.cpp:52] A total of 90961 images.
I1022 12:16:28.328428  9082 image_data_layer.cpp:79] output data size: 100,3,33,33
I1022 12:16:28.334059  9082 net.cpp:155] Setting up nuclei
I1022 12:16:28.334115  9082 net.cpp:163] Top shape: 100 3 33 33 (326700)
I1022 12:16:28.334125  9082 net.cpp:163] Top shape: 100 (100)
I1022 12:16:28.334137  9082 layer_factory.hpp:76] Creating layer conv1
I1022 12:16:28.334167  9082 net.cpp:110] Creating Layer conv1
I1022 12:16:28.334175  9082 net.cpp:477] conv1 <- data
I1022 12:16:28.334193  9082 net.cpp:433] conv1 -> conv1
I1022 12:16:28.334851  9082 net.cpp:155] Setting up conv1
I1022 12:16:28.334864  9082 net.cpp:163] Top shape: 100 32 33 33 (3484800)
I1022 12:16:28.334887  9082 layer_factory.hpp:76] Creating layer pool1
I1022 12:16:28.334902  9082 net.cpp:110] Creating Layer pool1
I1022 12:16:28.334910  9082 net.cpp:477] pool1 <- conv1
I1022 12:16:28.334919  9082 net.cpp:433] pool1 -> pool1
I1022 12:16:28.335124  9082 net.cpp:155] Setting up pool1
I1022 12:16:28.335134  9082 net.cpp:163] Top shape: 100 32 16 16 (819200)
I1022 12:16:28.335141  9082 layer_factory.hpp:76] Creating layer relu1
I1022 12:16:28.335152  9082 net.cpp:110] Creating Layer relu1
I1022 12:16:28.335160  9082 net.cpp:477] relu1 <- pool1
I1022 12:16:28.335168  9082 net.cpp:419] relu1 -> pool1 (in-place)
I1022 12:16:28.335186  9082 net.cpp:155] Setting up relu1
I1022 12:16:28.335193  9082 net.cpp:163] Top shape: 100 32 16 16 (819200)
I1022 12:16:28.335201  9082 layer_factory.hpp:76] Creating layer conv2
I1022 12:16:28.335212  9082 net.cpp:110] Creating Layer conv2
I1022 12:16:28.335216  9082 net.cpp:477] conv2 <- pool1
I1022 12:16:28.335222  9082 net.cpp:433] conv2 -> conv2
I1022 12:16:28.337353  9082 net.cpp:155] Setting up conv2
I1022 12:16:28.337383  9082 net.cpp:163] Top shape: 100 32 16 16 (819200)
I1022 12:16:28.337404  9082 layer_factory.hpp:76] Creating layer relu2
I1022 12:16:28.337417  9082 net.cpp:110] Creating Layer relu2
I1022 12:16:28.337426  9082 net.cpp:477] relu2 <- conv2
I1022 12:16:28.337440  9082 net.cpp:419] relu2 -> conv2 (in-place)
I1022 12:16:28.337458  9082 net.cpp:155] Setting up relu2
I1022 12:16:28.337471  9082 net.cpp:163] Top shape: 100 32 16 16 (819200)
I1022 12:16:28.337479  9082 layer_factory.hpp:76] Creating layer pool2
I1022 12:16:28.337493  9082 net.cpp:110] Creating Layer pool2
I1022 12:16:28.337502  9082 net.cpp:477] pool2 <- conv2
I1022 12:16:28.337520  9082 net.cpp:433] pool2 -> pool2
I1022 12:16:28.337544  9082 net.cpp:155] Setting up pool2
I1022 12:16:28.337553  9082 net.cpp:163] Top shape: 100 32 8 8 (204800)
I1022 12:16:28.337561  9082 layer_factory.hpp:76] Creating layer conv3
I1022 12:16:28.337575  9082 net.cpp:110] Creating Layer conv3
I1022 12:16:28.337584  9082 net.cpp:477] conv3 <- pool2
I1022 12:16:28.337594  9082 net.cpp:433] conv3 -> conv3
I1022 12:16:28.338956  9082 net.cpp:155] Setting up conv3
I1022 12:16:28.338968  9082 net.cpp:163] Top shape: 100 64 8 8 (409600)
I1022 12:16:28.338981  9082 layer_factory.hpp:76] Creating layer relu3
I1022 12:16:28.338992  9082 net.cpp:110] Creating Layer relu3
I1022 12:16:28.338999  9082 net.cpp:477] relu3 <- conv3
I1022 12:16:28.339010  9082 net.cpp:419] relu3 -> conv3 (in-place)
I1022 12:16:28.339022  9082 net.cpp:155] Setting up relu3
I1022 12:16:28.339031  9082 net.cpp:163] Top shape: 100 64 8 8 (409600)
I1022 12:16:28.339040  9082 layer_factory.hpp:76] Creating layer pool3
I1022 12:16:28.339053  9082 net.cpp:110] Creating Layer pool3
I1022 12:16:28.339061  9082 net.cpp:477] pool3 <- conv3
I1022 12:16:28.339068  9082 net.cpp:433] pool3 -> pool3
I1022 12:16:28.339093  9082 net.cpp:155] Setting up pool3
I1022 12:16:28.339102  9082 net.cpp:163] Top shape: 100 64 4 4 (102400)
I1022 12:16:28.339112  9082 layer_factory.hpp:76] Creating layer ip1
I1022 12:16:28.339123  9082 net.cpp:110] Creating Layer ip1
I1022 12:16:28.339130  9082 net.cpp:477] ip1 <- pool3
I1022 12:16:28.339141  9082 net.cpp:433] ip1 -> ip1
I1022 12:16:28.340801  9082 net.cpp:155] Setting up ip1
I1022 12:16:28.340822  9082 net.cpp:163] Top shape: 100 64 (6400)
I1022 12:16:28.340836  9082 layer_factory.hpp:76] Creating layer ip2
I1022 12:16:28.340849  9082 net.cpp:110] Creating Layer ip2
I1022 12:16:28.340857  9082 net.cpp:477] ip2 <- ip1
I1022 12:16:28.340883  9082 net.cpp:433] ip2 -> ip2
I1022 12:16:28.341500  9082 net.cpp:155] Setting up ip2
I1022 12:16:28.341513  9082 net.cpp:163] Top shape: 100 10 (1000)
I1022 12:16:28.341531  9082 layer_factory.hpp:76] Creating layer loss
I1022 12:16:28.341542  9082 net.cpp:110] Creating Layer loss
I1022 12:16:28.341550  9082 net.cpp:477] loss <- ip2
I1022 12:16:28.341559  9082 net.cpp:477] loss <- label
I1022 12:16:28.341567  9082 net.cpp:433] loss -> loss
I1022 12:16:28.341577  9082 layer_factory.hpp:76] Creating layer loss
I1022 12:16:28.341660  9082 net.cpp:155] Setting up loss
…
I1022 12:16:28.342139  9082 solver.cpp:187] Creating test net (#0) specified by net file: examples/nuclei/multi_class_nuclei/cifar10_quick_train_test.prototxt
I1022 12:16:28.342175  9082 net.cpp:339] The NetState phase (1) differed from the phase (0) specified by a rule in layer nuclei
I1022 12:16:28.342289  9082 net.cpp:50] Initializing net from parameters: 
name: "CIFAR10_quick"
state {
  phase: TEST
}
layer {
  name: "nuclei"
  type: "ImageData"
  top: "data"
  top: "label"
  include {
    phase: TEST
  }
  image_data_param {
    source: "/home/sanuj/Projects/BTP/data/10_class_images/test.txt"
    batch_size: 500
  }
}
layer {
  name: "conv1"
  type: "Convolution"
  bottom: "data"
  top: "conv1"
  param {
    lr_mult: 1
  }
  param {
    lr_mult: 2
  }
  convolution_param {
    num_output: 32
    pad: 2
    kernel_size: 5
    stride: 1
    weight_filler {
      type: "gaussian"
      std: 0.0001
    }
    bias_filler {
      type: "constant"
    }
  }
}
layer {
  name: "pool1"
  type: "Pooling"
  bottom: "conv1"
  top: "pool1"
  pooling_param {
    pool: MAX
    kernel_size: 3
    stride: 2
  }
}
layer {
  name: "relu1"
  type: "ReLU"
  bottom: "pool1"
  top: "pool1"
}
layer {
  name: "conv2"
  type: "Convolution"
  bottom: "pool1"
  top: "conv2"
  param {
    lr_mult: 1
  }
  param {
    lr_mult: 2
  }
  convolution_param {
    num_output: 32
    pad: 2
    kernel_size: 5
    stride: 1
    weight_filler {
      type: "gaussian"
      std: 0.01
    }
    bias_filler {
      type: "constant"
    }
  }
}
layer {
  name: "relu2"
  type: "ReLU"
  bottom: "conv2"
  top: "conv2"
}
layer {
  name: "pool2"
  type: "Pooling"
  bottom: "conv2"
  top: "pool2"
  pooling_param {
    pool: AVE
    kernel_size: 3
    stride: 2
  }
}
layer {
  name: "conv3"
  type: "Convolution"
  bottom: "pool2"
  top: "conv3"
  param {
    lr_mult: 1
  }
  param {
    lr_mult: 2
  }
  convolution_param {
    num_output: 64
    pad: 2
    kernel_size: 5
    stride: 1
    weight_filler {
      type: "gaussian"
      std: 0.01
    }
    bias_filler {
      type: "constant"
    }
  }
}
layer {
  name: "relu3"
  type: "ReLU"
  bottom: "conv3"
  top: "conv3"
}
layer {
  name: "pool3"
  type: "Pooling"
  bottom: "conv3"
  top: "pool3"
  pooling_param {
    pool: AVE
    kernel_size: 3
    stride: 2
  }
}
layer {
  name: "ip1"
  type: "InnerProduct"
  bottom: "pool3"
  top: "ip1"
  param {
    lr_mult: 1
  }
  param {
    lr_mult: 2
  }
  inner_product_param {
    num_output: 64
    weight_filler {
      type: "gaussian"
      std: 0.1
    }
    bias_filler {
      type: "constant"
    }
  }
}
layer {
  name: "ip2"
  type: "InnerProduct"
  bottom: "ip1"
  top: "ip2"
  param {
    lr_mult: 1
  }
  param {
    lr_mult: 2
  }
  inner_product_param {
    num_output: 10
    weight_filler {
      type: "gaussian"
      std: 0.1
    }
    bias_filler {
      type: "constant"
    }
  }
}
layer {
  name: "accuracy"
  type: "Accuracy"
  bottom: "ip2"
  bottom: "label"
  top: "accuracy"
  include {
    phase: TEST
  }
}
layer {
  name: "loss"
  type: "SoftmaxWithLoss"
  bottom: "ip2"
  bottom: "label"
  top: "loss"
}
I1022 12:16:28.342412  9082 layer_factory.hpp:76] Creating layer nuclei
I1022 12:16:28.342432  9082 net.cpp:110] Creating Layer nuclei
I1022 12:16:28.342440  9082 net.cpp:433] nuclei -> data
I1022 12:16:28.342453  9082 net.cpp:433] nuclei -> label
I1022 12:16:28.342471  9082 image_data_layer.cpp:37] Opening file /home/sanuj/Projects/BTP/data/10_class_images/test.txt
I1022 12:16:28.358994  9082 image_data_layer.cpp:52] A total of 34999 images.
I1022 12:16:28.359201  9082 image_data_layer.cpp:79] output data size: 500,3,33,33
I1022 12:16:28.392132  9082 net.cpp:155] Setting up nuclei
I1022 12:16:28.392168  9082 net.cpp:163] Top shape: 500 3 33 33 (1633500)
I1022 12:16:28.392176  9082 net.cpp:163] Top shape: 500 (500)
I1022 12:16:28.392186  9082 layer_factory.hpp:76] Creating layer label_nuclei_1_split
I1022 12:16:28.392206  9082 net.cpp:110] Creating Layer label_nuclei_1_split
I1022 12:16:28.392215  9082 net.cpp:477] label_nuclei_1_split <- label
I1022 12:16:28.392225  9082 net.cpp:433] label_nuclei_1_split -> label_nuclei_1_split_0
I1022 12:16:28.392237  9082 net.cpp:433] label_nuclei_1_split -> label_nuclei_1_split_1
I1022 12:16:28.392285  9082 net.cpp:155] Setting up label_nuclei_1_split
I1022 12:16:28.392295  9082 net.cpp:163] Top shape: 500 (500)
I1022 12:16:28.392302  9082 net.cpp:163] Top shape: 500 (500)
I1022 12:16:28.392308  9082 layer_factory.hpp:76] Creating layer conv1
I1022 12:16:28.392323  9082 net.cpp:110] Creating Layer conv1
I1022 12:16:28.392329  9082 net.cpp:477] conv1 <- data
I1022 12:16:28.392339  9082 net.cpp:433] conv1 -> conv1
I1022 12:16:28.392580  9082 net.cpp:155] Setting up conv1
I1022 12:16:28.392590  9082 net.cpp:163] Top shape: 500 32 33 33 (17424000)
I1022 12:16:28.392607  9082 layer_factory.hpp:76] Creating layer pool1
I1022 12:16:28.392618  9082 net.cpp:110] Creating Layer pool1
I1022 12:16:28.392628  9082 net.cpp:477] pool1 <- conv1
I1022 12:16:28.392638  9082 net.cpp:433] pool1 -> pool1
I1022 12:16:28.392673  9082 net.cpp:155] Setting up pool1
I1022 12:16:28.392683  9082 net.cpp:163] Top shape: 500 32 16 16 (4096000)
I1022 12:16:28.392689  9082 layer_factory.hpp:76] Creating layer relu1
I1022 12:16:28.392699  9082 net.cpp:110] Creating Layer relu1
I1022 12:16:28.392705  9082 net.cpp:477] relu1 <- pool1
I1022 12:16:28.392714  9082 net.cpp:419] relu1 -> pool1 (in-place)
I1022 12:16:28.392724  9082 net.cpp:155] Setting up relu1
I1022 12:16:28.392731  9082 net.cpp:163] Top shape: 500 32 16 16 (4096000)
I1022 12:16:28.392737  9082 layer_factory.hpp:76] Creating layer conv2
I1022 12:16:28.392748  9082 net.cpp:110] Creating Layer conv2
I1022 12:16:28.392758  9082 net.cpp:477] conv2 <- pool1
I1022 12:16:28.392768  9082 net.cpp:433] conv2 -> conv2
I1022 12:16:28.397166  9082 net.cpp:155] Setting up conv2
I1022 12:16:28.397186  9082 net.cpp:163] Top shape: 500 32 16 16 (4096000)
I1022 12:16:28.397200  9082 layer_factory.hpp:76] Creating layer relu2
I1022 12:16:28.397210  9082 net.cpp:110] Creating Layer relu2
I1022 12:16:28.397218  9082 net.cpp:477] relu2 <- conv2
I1022 12:16:28.397228  9082 net.cpp:419] relu2 -> conv2 (in-place)
I1022 12:16:28.397239  9082 net.cpp:155] Setting up relu2
I1022 12:16:28.397265  9082 net.cpp:163] Top shape: 500 32 16 16 (4096000)
I1022 12:16:28.397272  9082 layer_factory.hpp:76] Creating layer pool2
I1022 12:16:28.397282  9082 net.cpp:110] Creating Layer pool2
I1022 12:16:28.397289  9082 net.cpp:477] pool2 <- conv2
I1022 12:16:28.397299  9082 net.cpp:433] pool2 -> pool2
I1022 12:16:28.397322  9082 net.cpp:155] Setting up pool2
I1022 12:16:28.397330  9082 net.cpp:163] Top shape: 500 32 8 8 (1024000)
I1022 12:16:28.397333  9082 layer_factory.hpp:76] Creating layer conv3
I1022 12:16:28.397341  9082 net.cpp:110] Creating Layer conv3
I1022 12:16:28.397346  9082 net.cpp:477] conv3 <- pool2
I1022 12:16:28.397351  9082 net.cpp:433] conv3 -> conv3
I1022 12:16:28.398727  9082 net.cpp:155] Setting up conv3
I1022 12:16:28.398735  9082 net.cpp:163] Top shape: 500 64 8 8 (2048000)
I1022 12:16:28.398742  9082 layer_factory.hpp:76] Creating layer relu3
I1022 12:16:28.398748  9082 net.cpp:110] Creating Layer relu3
I1022 12:16:28.398751  9082 net.cpp:477] relu3 <- conv3
I1022 12:16:28.398756  9082 net.cpp:419] relu3 -> conv3 (in-place)
I1022 12:16:28.398761  9082 net.cpp:155] Setting up relu3
I1022 12:16:28.398766  9082 net.cpp:163] Top shape: 500 64 8 8 (2048000)
I1022 12:16:28.398769  9082 layer_factory.hpp:76] Creating layer pool3
I1022 12:16:28.398774  9082 net.cpp:110] Creating Layer pool3
I1022 12:16:28.398777  9082 net.cpp:477] pool3 <- conv3
I1022 12:16:28.398782  9082 net.cpp:433] pool3 -> pool3
I1022 12:16:28.398798  9082 net.cpp:155] Setting up pool3
I1022 12:16:28.398804  9082 net.cpp:163] Top shape: 500 64 4 4 (512000)
I1022 12:16:28.398830  9082 layer_factory.hpp:76] Creating layer ip1
I1022 12:16:28.398844  9082 net.cpp:110] Creating Layer ip1
I1022 12:16:28.398850  9082 net.cpp:477] ip1 <- pool3
I1022 12:16:28.398860  9082 net.cpp:433] ip1 -> ip1
I1022 12:16:28.401036  9082 net.cpp:155] Setting up ip1
I1022 12:16:28.401052  9082 net.cpp:163] Top shape: 500 64 (32000)
I1022 12:16:28.401077  9082 layer_factory.hpp:76] Creating layer ip2
I1022 12:16:28.401092  9082 net.cpp:110] Creating Layer ip2
I1022 12:16:28.401101  9082 net.cpp:477] ip2 <- ip1
I1022 12:16:28.401113  9082 net.cpp:433] ip2 -> ip2
I1022 12:16:28.401229  9082 net.cpp:155] Setting up ip2
I1022 12:16:28.401239  9082 net.cpp:163] Top shape: 500 10 (5000)
I1022 12:16:28.401257  9082 layer_factory.hpp:76] Creating layer ip2_ip2_0_split
I1022 12:16:28.401268  9082 net.cpp:110] Creating Layer ip2_ip2_0_split
I1022 12:16:28.401275  9082 net.cpp:477] ip2_ip2_0_split <- ip2
I1022 12:16:28.401284  9082 net.cpp:433] ip2_ip2_0_split -> ip2_ip2_0_split_0
I1022 12:16:28.401296  9082 net.cpp:433] ip2_ip2_0_split -> ip2_ip2_0_split_1
I1022 12:16:28.401334  9082 net.cpp:155] Setting up ip2_ip2_0_split
I1022 12:16:28.401342  9082 net.cpp:163] Top shape: 500 10 (5000)
I1022 12:16:28.401350  9082 net.cpp:163] Top shape: 500 10 (5000)
I1022 12:16:28.401356  9082 layer_factory.hpp:76] Creating layer accuracy
I1022 12:16:28.401365  9082 net.cpp:110] Creating Layer accuracy
I1022 12:16:28.401372  9082 net.cpp:477] accuracy <- ip2_ip2_0_split_0
I1022 12:16:28.401381  9082 net.cpp:477] accuracy <- label_nuclei_1_split_0
I1022 12:16:28.401391  9082 net.cpp:433] accuracy -> accuracy
I1022 12:16:28.401409  9082 net.cpp:155] Setting up accuracy
…
