…
I1022 11:45:54.280480  8436 net.cpp:339] The NetState phase (0) differed from the phase (1) specified by a rule in layer nuclei
I1022 11:45:54.280513  8436 net.cpp:339] The NetState phase (0) differed from the phase (1) specified by a rule in layer accuracy
I1022 11:45:54.280602  8436 net.cpp:50] Initializing net from parameters: 
name: "NULCEI_quick"
state {
  phase: TRAIN
}
layer {
  name: "nuclei"
  type: "ImageData"
  top: "data"
  top: "label"
  include {
    phase: TRAIN
  }
  image_data_param {
    source: "/home/sanuj/Projects/BTP/data/10_class_images/train.txt"
    batch_size: 100
  }
}
layer {
  name: "conv1"
  type: "Convolution"
  bottom: "data"
  top: "conv1"
  param {
    lr_mult: 1
  }
  param {
    lr_mult: 2
  }
  convolution_param {
    num_output: 48
    pad: 0
    kernel_size: 6
    stride: 1
    weight_filler {
      type: "gaussian"
      std: 0.0001
    }
    bias_filler {
      type: "constant"
    }
  }
}
layer {
  name: "pool1"
  type: "Pooling"
  bottom: "conv1"
  top: "pool1"
  pooling_param {
    pool: MAX
    kernel_size: 2
    stride: 2
  }
}
layer {
  name: "relu1"
  type: "ReLU"
  bottom: "pool1"
  top: "pool1"
}
layer {
  name: "conv2"
  type: "Convolution"
  bottom: "pool1"
  top: "conv2"
  param {
    lr_mult: 1
  }
  param {
    lr_mult: 2
  }
  convolution_param {
    num_output: 48
    pad: 0
    kernel_size: 4
    stride: 1
    weight_filler {
      type: "gaussian"
      std: 0.01
    }
    bias_filler {
      type: "constant"
    }
  }
}
layer {
  name: "relu2"
  type: "ReLU"
  bottom: "conv2"
  top: "conv2"
}
layer {
  name: "pool2"
  type: "Pooling"
  bottom: "conv2"
  top: "pool2"
  pooling_param {
    pool: MAX
    kernel_size: 2
    stride: 2
  }
}
layer {
  name: "ip_1"
  type: "InnerProduct"
  bottom: "pool2"
  top: "ip1"
  param {
    lr_mult: 1
  }
  param {
    lr_mult: 2
  }
  inner_product_param {
    num_output: 48
    weight_filler {
      type: "gaussian"
      std: 0.1
    }
    bias_filler {
      type: "constant"
    }
  }
}
layer {
  name: "relu1"
  type: "ReLU"
  bottom: "ip1"
  top: "ip1"
}
layer {
  name: "ip_2"
  type: "InnerProduct"
  bottom: "ip1"
  top: "ip2"
  param {
    lr_mult: 1
  }
  param {
    lr_mult: 2
  }
  inner_product_param {
    num_output: 10
    weight_filler {
      type: "gaussian"
      std: 0.1
    }
    bias_filler {
      type: "constant"
    }
  }
}
layer {
  name: "loss"
  type: "SoftmaxWithLoss"
  bottom: "ip2"
  bottom: "label"
  top: "loss"
}
I1022 11:45:54.280697  8436 layer_factory.hpp:76] Creating layer nuclei
I1022 11:45:54.280735  8436 net.cpp:110] Creating Layer nuclei
I1022 11:45:54.280745  8436 net.cpp:433] nuclei -> data
I1022 11:45:54.280774  8436 net.cpp:433] nuclei -> label
I1022 11:45:54.280797  8436 image_data_layer.cpp:37] Opening file /home/sanuj/Projects/BTP/data/10_class_images/train.txt
I1022 11:45:54.318955  8436 image_data_layer.cpp:52] A total of 90961 images.
I1022 11:45:54.325546  8436 image_data_layer.cpp:79] output data size: 100,3,33,33
I1022 11:45:54.330888  8436 net.cpp:155] Setting up nuclei
I1022 11:45:54.330927  8436 net.cpp:163] Top shape: 100 3 33 33 (326700)
I1022 11:45:54.330936  8436 net.cpp:163] Top shape: 100 (100)
I1022 11:45:54.330952  8436 layer_factory.hpp:76] Creating layer conv1
I1022 11:45:54.330983  8436 net.cpp:110] Creating Layer conv1
I1022 11:45:54.330996  8436 net.cpp:477] conv1 <- data
I1022 11:45:54.331018  8436 net.cpp:433] conv1 -> conv1
I1022 11:45:54.332190  8436 net.cpp:155] Setting up conv1
I1022 11:45:54.332206  8436 net.cpp:163] Top shape: 100 48 28 28 (3763200)
I1022 11:45:54.332253  8436 layer_factory.hpp:76] Creating layer pool1
I1022 11:45:54.332268  8436 net.cpp:110] Creating Layer pool1
I1022 11:45:54.332276  8436 net.cpp:477] pool1 <- conv1
I1022 11:45:54.332290  8436 net.cpp:433] pool1 -> pool1
I1022 11:45:54.332422  8436 net.cpp:155] Setting up pool1
I1022 11:45:54.332432  8436 net.cpp:163] Top shape: 100 48 14 14 (940800)
I1022 11:45:54.332445  8436 layer_factory.hpp:76] Creating layer relu1
I1022 11:45:54.332458  8436 net.cpp:110] Creating Layer relu1
I1022 11:45:54.332465  8436 net.cpp:477] relu1 <- pool1
I1022 11:45:54.332474  8436 net.cpp:419] relu1 -> pool1 (in-place)
I1022 11:45:54.332485  8436 net.cpp:155] Setting up relu1
I1022 11:45:54.332494  8436 net.cpp:163] Top shape: 100 48 14 14 (940800)
I1022 11:45:54.332500  8436 layer_factory.hpp:76] Creating layer conv2
I1022 11:45:54.332517  8436 net.cpp:110] Creating Layer conv2
I1022 11:45:54.332525  8436 net.cpp:477] conv2 <- pool1
I1022 11:45:54.332536  8436 net.cpp:433] conv2 -> conv2
I1022 11:45:54.334990  8436 net.cpp:155] Setting up conv2
I1022 11:45:54.335007  8436 net.cpp:163] Top shape: 100 48 11 11 (580800)
I1022 11:45:54.335021  8436 layer_factory.hpp:76] Creating layer relu2
I1022 11:45:54.335032  8436 net.cpp:110] Creating Layer relu2
I1022 11:45:54.335039  8436 net.cpp:477] relu2 <- conv2
I1022 11:45:54.335048  8436 net.cpp:419] relu2 -> conv2 (in-place)
I1022 11:45:54.335058  8436 net.cpp:155] Setting up relu2
I1022 11:45:54.335072  8436 net.cpp:163] Top shape: 100 48 11 11 (580800)
I1022 11:45:54.335078  8436 layer_factory.hpp:76] Creating layer pool2
I1022 11:45:54.335099  8436 net.cpp:110] Creating Layer pool2
I1022 11:45:54.335108  8436 net.cpp:477] pool2 <- conv2
I1022 11:45:54.335115  8436 net.cpp:433] pool2 -> pool2
I1022 11:45:54.335155  8436 net.cpp:155] Setting up pool2
I1022 11:45:54.335165  8436 net.cpp:163] Top shape: 100 48 6 6 (172800)
I1022 11:45:54.335170  8436 layer_factory.hpp:76] Creating layer ip_1
I1022 11:45:54.335185  8436 net.cpp:110] Creating Layer ip_1
I1022 11:45:54.335196  8436 net.cpp:477] ip_1 <- pool2
I1022 11:45:54.335204  8436 net.cpp:433] ip_1 -> ip1
I1022 11:45:54.337646  8436 net.cpp:155] Setting up ip_1
I1022 11:45:54.337663  8436 net.cpp:163] Top shape: 100 48 (4800)
I1022 11:45:54.337680  8436 layer_factory.hpp:76] Creating layer relu1
I1022 11:45:54.337693  8436 net.cpp:110] Creating Layer relu1
I1022 11:45:54.337705  8436 net.cpp:477] relu1 <- ip1
I1022 11:45:54.337718  8436 net.cpp:419] relu1 -> ip1 (in-place)
I1022 11:45:54.337729  8436 net.cpp:155] Setting up relu1
I1022 11:45:54.337738  8436 net.cpp:163] Top shape: 100 48 (4800)
I1022 11:45:54.337745  8436 layer_factory.hpp:76] Creating layer ip_2
I1022 11:45:54.337756  8436 net.cpp:110] Creating Layer ip_2
I1022 11:45:54.337765  8436 net.cpp:477] ip_2 <- ip1
I1022 11:45:54.337774  8436 net.cpp:433] ip_2 -> ip2
I1022 11:45:54.337874  8436 net.cpp:155] Setting up ip_2
I1022 11:45:54.337883  8436 net.cpp:163] Top shape: 100 10 (1000)
I1022 11:45:54.337893  8436 layer_factory.hpp:76] Creating layer loss
I1022 11:45:54.337904  8436 net.cpp:110] Creating Layer loss
I1022 11:45:54.337916  8436 net.cpp:477] loss <- ip2
I1022 11:45:54.337923  8436 net.cpp:477] loss <- label
I1022 11:45:54.337932  8436 net.cpp:433] loss -> loss
I1022 11:45:54.337949  8436 layer_factory.hpp:76] Creating layer loss
I1022 11:45:54.338043  8436 net.cpp:155] Setting up loss
…
I1022 11:45:54.338572  8436 solver.cpp:187] Creating test net (#0) specified by net file: examples/nuclei/multi_class_nuclei/multi_class_nuclei_train_test.prototxt
I1022 11:45:54.338610  8436 net.cpp:339] The NetState phase (1) differed from the phase (0) specified by a rule in layer nuclei
I1022 11:45:54.338734  8436 net.cpp:50] Initializing net from parameters: 
name: "NULCEI_quick"
state {
  phase: TEST
}
layer {
  name: "nuclei"
  type: "ImageData"
  top: "data"
  top: "label"
  include {
    phase: TEST
  }
  image_data_param {
    source: "/home/sanuj/Projects/BTP/data/10_class_images/test.txt"
    batch_size: 500
  }
}
layer {
  name: "conv1"
  type: "Convolution"
  bottom: "data"
  top: "conv1"
  param {
    lr_mult: 1
  }
  param {
    lr_mult: 2
  }
  convolution_param {
    num_output: 48
    pad: 0
    kernel_size: 6
    stride: 1
    weight_filler {
      type: "gaussian"
      std: 0.0001
    }
    bias_filler {
      type: "constant"
    }
  }
}
layer {
  name: "pool1"
  type: "Pooling"
  bottom: "conv1"
  top: "pool1"
  pooling_param {
    pool: MAX
    kernel_size: 2
    stride: 2
  }
}
layer {
  name: "relu1"
  type: "ReLU"
  bottom: "pool1"
  top: "pool1"
}
layer {
  name: "conv2"
  type: "Convolution"
  bottom: "pool1"
  top: "conv2"
  param {
    lr_mult: 1
  }
  param {
    lr_mult: 2
  }
  convolution_param {
    num_output: 48
    pad: 0
    kernel_size: 4
    stride: 1
    weight_filler {
      type: "gaussian"
      std: 0.01
    }
    bias_filler {
      type: "constant"
    }
  }
}
layer {
  name: "relu2"
  type: "ReLU"
  bottom: "conv2"
  top: "conv2"
}
layer {
  name: "pool2"
  type: "Pooling"
  bottom: "conv2"
  top: "pool2"
  pooling_param {
    pool: MAX
    kernel_size: 2
    stride: 2
  }
}
layer {
  name: "ip_1"
  type: "InnerProduct"
  bottom: "pool2"
  top: "ip1"
  param {
    lr_mult: 1
  }
  param {
    lr_mult: 2
  }
  inner_product_param {
    num_output: 48
    weight_filler {
      type: "gaussian"
      std: 0.1
    }
    bias_filler {
      type: "constant"
    }
  }
}
layer {
  name: "relu1"
  type: "ReLU"
  bottom: "ip1"
  top: "ip1"
}
layer {
  name: "ip_2"
  type: "InnerProduct"
  bottom: "ip1"
  top: "ip2"
  param {
    lr_mult: 1
  }
  param {
    lr_mult: 2
  }
  inner_product_param {
    num_output: 10
    weight_filler {
      type: "gaussian"
      std: 0.1
    }
    bias_filler {
      type: "constant"
    }
  }
}
layer {
  name: "accuracy"
  type: "Accuracy"
  bottom: "ip2"
  bottom: "label"
  top: "accuracy"
  include {
    phase: TEST
  }
}
layer {
  name: "loss"
  type: "SoftmaxWithLoss"
  bottom: "ip2"
  bottom: "label"
  top: "loss"
}
I1022 11:45:54.338850  8436 layer_factory.hpp:76] Creating layer nuclei
I1022 11:45:54.338868  8436 net.cpp:110] Creating Layer nuclei
I1022 11:45:54.338876  8436 net.cpp:433] nuclei -> data
I1022 11:45:54.338887  8436 net.cpp:433] nuclei -> label
I1022 11:45:54.338897  8436 image_data_layer.cpp:37] Opening file /home/sanuj/Projects/BTP/data/10_class_images/test.txt
I1022 11:45:54.354992  8436 image_data_layer.cpp:52] A total of 34999 images.
I1022 11:45:54.356045  8436 image_data_layer.cpp:79] output data size: 500,3,33,33
I1022 11:45:54.380625  8436 net.cpp:155] Setting up nuclei
I1022 11:45:54.380658  8436 net.cpp:163] Top shape: 500 3 33 33 (1633500)
I1022 11:45:54.380668  8436 net.cpp:163] Top shape: 500 (500)
I1022 11:45:54.380678  8436 layer_factory.hpp:76] Creating layer label_nuclei_1_split
I1022 11:45:54.380700  8436 net.cpp:110] Creating Layer label_nuclei_1_split
I1022 11:45:54.380724  8436 net.cpp:477] label_nuclei_1_split <- label
I1022 11:45:54.380736  8436 net.cpp:433] label_nuclei_1_split -> label_nuclei_1_split_0
I1022 11:45:54.380751  8436 net.cpp:433] label_nuclei_1_split -> label_nuclei_1_split_1
I1022 11:45:54.380800  8436 net.cpp:155] Setting up label_nuclei_1_split
I1022 11:45:54.380810  8436 net.cpp:163] Top shape: 500 (500)
I1022 11:45:54.380817  8436 net.cpp:163] Top shape: 500 (500)
I1022 11:45:54.380823  8436 layer_factory.hpp:76] Creating layer conv1
I1022 11:45:54.380837  8436 net.cpp:110] Creating Layer conv1
I1022 11:45:54.380846  8436 net.cpp:477] conv1 <- data
I1022 11:45:54.380856  8436 net.cpp:433] conv1 -> conv1
I1022 11:45:54.381161  8436 net.cpp:155] Setting up conv1
I1022 11:45:54.381172  8436 net.cpp:163] Top shape: 500 48 28 28 (18816000)
I1022 11:45:54.381189  8436 layer_factory.hpp:76] Creating layer pool1
I1022 11:45:54.381201  8436 net.cpp:110] Creating Layer pool1
I1022 11:45:54.381209  8436 net.cpp:477] pool1 <- conv1
I1022 11:45:54.381218  8436 net.cpp:433] pool1 -> pool1
I1022 11:45:54.381253  8436 net.cpp:155] Setting up pool1
I1022 11:45:54.381263  8436 net.cpp:163] Top shape: 500 48 14 14 (4704000)
I1022 11:45:54.381269  8436 layer_factory.hpp:76] Creating layer relu1
I1022 11:45:54.381279  8436 net.cpp:110] Creating Layer relu1
I1022 11:45:54.381285  8436 net.cpp:477] relu1 <- pool1
I1022 11:45:54.381294  8436 net.cpp:419] relu1 -> pool1 (in-place)
I1022 11:45:54.381302  8436 net.cpp:155] Setting up relu1
I1022 11:45:54.381311  8436 net.cpp:163] Top shape: 500 48 14 14 (4704000)
I1022 11:45:54.381317  8436 layer_factory.hpp:76] Creating layer conv2
I1022 11:45:54.381328  8436 net.cpp:110] Creating Layer conv2
I1022 11:45:54.381336  8436 net.cpp:477] conv2 <- pool1
I1022 11:45:54.381345  8436 net.cpp:433] conv2 -> conv2
I1022 11:45:54.390619  8436 net.cpp:155] Setting up conv2
I1022 11:45:54.390638  8436 net.cpp:163] Top shape: 500 48 11 11 (2904000)
I1022 11:45:54.390653  8436 layer_factory.hpp:76] Creating layer relu2
I1022 11:45:54.390664  8436 net.cpp:110] Creating Layer relu2
I1022 11:45:54.390672  8436 net.cpp:477] relu2 <- conv2
I1022 11:45:54.390686  8436 net.cpp:419] relu2 -> conv2 (in-place)
I1022 11:45:54.390697  8436 net.cpp:155] Setting up relu2
I1022 11:45:54.390709  8436 net.cpp:163] Top shape: 500 48 11 11 (2904000)
I1022 11:45:54.390715  8436 layer_factory.hpp:76] Creating layer pool2
I1022 11:45:54.390725  8436 net.cpp:110] Creating Layer pool2
I1022 11:45:54.390732  8436 net.cpp:477] pool2 <- conv2
I1022 11:45:54.390753  8436 net.cpp:433] pool2 -> pool2
I1022 11:45:54.390799  8436 net.cpp:155] Setting up pool2
I1022 11:45:54.390807  8436 net.cpp:163] Top shape: 500 48 6 6 (864000)
I1022 11:45:54.390813  8436 layer_factory.hpp:76] Creating layer ip_1
I1022 11:45:54.390825  8436 net.cpp:110] Creating Layer ip_1
I1022 11:45:54.390832  8436 net.cpp:477] ip_1 <- pool2
I1022 11:45:54.390852  8436 net.cpp:433] ip_1 -> ip1
I1022 11:45:54.392916  8436 net.cpp:155] Setting up ip_1
I1022 11:45:54.392927  8436 net.cpp:163] Top shape: 500 48 (24000)
I1022 11:45:54.392941  8436 layer_factory.hpp:76] Creating layer relu1
I1022 11:45:54.392951  8436 net.cpp:110] Creating Layer relu1
I1022 11:45:54.392964  8436 net.cpp:477] relu1 <- ip1
I1022 11:45:54.392973  8436 net.cpp:419] relu1 -> ip1 (in-place)
I1022 11:45:54.392985  8436 net.cpp:155] Setting up relu1
I1022 11:45:54.392997  8436 net.cpp:163] Top shape: 500 48 (24000)
I1022 11:45:54.393002  8436 layer_factory.hpp:76] Creating layer ip_2
I1022 11:45:54.393013  8436 net.cpp:110] Creating Layer ip_2
I1022 11:45:54.393018  8436 net.cpp:477] ip_2 <- ip1
I1022 11:45:54.393038  8436 net.cpp:433] ip_2 -> ip2
I1022 11:45:54.393167  8436 net.cpp:155] Setting up ip_2
I1022 11:45:54.393177  8436 net.cpp:163] Top shape: 500 10 (5000)
I1022 11:45:54.393187  8436 layer_factory.hpp:76] Creating layer ip2_ip_2_0_split
I1022 11:45:54.393198  8436 net.cpp:110] Creating Layer ip2_ip_2_0_split
I1022 11:45:54.393204  8436 net.cpp:477] ip2_ip_2_0_split <- ip2
I1022 11:45:54.393213  8436 net.cpp:433] ip2_ip_2_0_split -> ip2_ip_2_0_split_0
I1022 11:45:54.393237  8436 net.cpp:433] ip2_ip_2_0_split -> ip2_ip_2_0_split_1
I1022 11:45:54.393275  8436 net.cpp:155] Setting up ip2_ip_2_0_split
I1022 11:45:54.393283  8436 net.cpp:163] Top shape: 500 10 (5000)
I1022 11:45:54.393291  8436 net.cpp:163] Top shape: 500 10 (5000)
I1022 11:45:54.393299  8436 layer_factory.hpp:76] Creating layer accuracy
I1022 11:45:54.393308  8436 net.cpp:110] Creating Layer accuracy
I1022 11:45:54.393316  8436 net.cpp:477] accuracy <- ip2_ip_2_0_split_0
I1022 11:45:54.393322  8436 net.cpp:477] accuracy <- label_nuclei_1_split_0
I1022 11:45:54.393332  8436 net.cpp:433] accuracy -> accuracy
I1022 11:45:54.393345  8436 net.cpp:155] Setting up accuracy
…
