…
I1023 23:10:40.656920 21451 net.cpp:339] The NetState phase (0) differed from the phase (1) specified by a rule in layer nuclei
I1023 23:10:40.656949 21451 net.cpp:339] The NetState phase (0) differed from the phase (1) specified by a rule in layer accuracy
I1023 23:10:40.657070 21451 net.cpp:50] Initializing net from parameters: 
name: "NULCEI_quick"
state {
  phase: TRAIN
}
layer {
  name: "nuclei"
  type: "ImageData"
  top: "data"
  top: "label"
  include {
    phase: TRAIN
  }
  image_data_param {
    source: "/home/sanuj/Projects/BTP/data/10_class_images/train.txt"
    batch_size: 100
  }
}
layer {
  name: "conv1"
  type: "Convolution"
  bottom: "data"
  top: "conv1"
  param {
    lr_mult: 0.1
  }
  param {
    lr_mult: 0.2
  }
  convolution_param {
    num_output: 48
    pad: 0
    kernel_size: 4
    stride: 1
    weight_filler {
      type: "gaussian"
      std: 0.0001
    }
    bias_filler {
      type: "constant"
    }
  }
}
layer {
  name: "pool1"
  type: "Pooling"
  bottom: "conv1"
  top: "pool1"
  pooling_param {
    pool: MAX
    kernel_size: 2
    stride: 2
  }
}
layer {
  name: "relu1"
  type: "ReLU"
  bottom: "pool1"
  top: "pool1"
}
layer {
  name: "conv2"
  type: "Convolution"
  bottom: "pool1"
  top: "conv2"
  param {
    lr_mult: 0.1
  }
  param {
    lr_mult: 0.2
  }
  convolution_param {
    num_output: 48
    pad: 0
    kernel_size: 6
    stride: 1
    weight_filler {
      type: "gaussian"
      std: 0.01
    }
    bias_filler {
      type: "constant"
    }
  }
}
layer {
  name: "relu2"
  type: "ReLU"
  bottom: "conv2"
  top: "conv2"
}
layer {
  name: "pool2"
  type: "Pooling"
  bottom: "conv2"
  top: "pool2"
  pooling_param {
    pool: MAX
    kernel_size: 2
    stride: 2
  }
}
layer {
  name: "ip_1"
  type: "InnerProduct"
  bottom: "pool2"
  top: "ip1"
  param {
    lr_mult: 1
  }
  param {
    lr_mult: 2
  }
  inner_product_param {
    num_output: 48
    weight_filler {
      type: "gaussian"
      std: 0.1
    }
    bias_filler {
      type: "constant"
    }
  }
}
layer {
  name: "relu1"
  type: "ReLU"
  bottom: "ip1"
  top: "ip1"
}
layer {
  name: "ip_2"
  type: "InnerProduct"
  bottom: "ip1"
  top: "ip2"
  param {
    lr_mult: 1
  }
  param {
    lr_mult: 2
  }
  inner_product_param {
    num_output: 10
    weight_filler {
      type: "gaussian"
      std: 0.1
    }
    bias_filler {
      type: "constant"
    }
  }
}
layer {
  name: "loss"
  type: "SoftmaxWithLoss"
  bottom: "ip2"
  bottom: "label"
  top: "loss"
}
I1023 23:10:40.657158 21451 layer_factory.hpp:76] Creating layer nuclei
I1023 23:10:40.657222 21451 net.cpp:110] Creating Layer nuclei
I1023 23:10:40.657238 21451 net.cpp:433] nuclei -> data
I1023 23:10:40.657287 21451 net.cpp:433] nuclei -> label
I1023 23:10:40.657311 21451 image_data_layer.cpp:37] Opening file /home/sanuj/Projects/BTP/data/10_class_images/train.txt
I1023 23:10:40.707794 21451 image_data_layer.cpp:52] A total of 90961 images.
I1023 23:10:40.723912 21451 image_data_layer.cpp:79] output data size: 100,3,33,33
I1023 23:10:40.730079 21451 net.cpp:155] Setting up nuclei
I1023 23:10:40.730183 21451 net.cpp:163] Top shape: 100 3 33 33 (326700)
I1023 23:10:40.730218 21451 net.cpp:163] Top shape: 100 (100)
I1023 23:10:40.730250 21451 layer_factory.hpp:76] Creating layer conv1
I1023 23:10:40.730295 21451 net.cpp:110] Creating Layer conv1
I1023 23:10:40.730322 21451 net.cpp:477] conv1 <- data
I1023 23:10:40.730358 21451 net.cpp:433] conv1 -> conv1
I1023 23:10:40.731848 21451 net.cpp:155] Setting up conv1
I1023 23:10:40.731946 21451 net.cpp:163] Top shape: 100 48 30 30 (4320000)
I1023 23:10:40.731992 21451 layer_factory.hpp:76] Creating layer pool1
I1023 23:10:40.732033 21451 net.cpp:110] Creating Layer pool1
I1023 23:10:40.732059 21451 net.cpp:477] pool1 <- conv1
I1023 23:10:40.732092 21451 net.cpp:433] pool1 -> pool1
I1023 23:10:40.732200 21451 net.cpp:155] Setting up pool1
I1023 23:10:40.732234 21451 net.cpp:163] Top shape: 100 48 15 15 (1080000)
I1023 23:10:40.732259 21451 layer_factory.hpp:76] Creating layer relu1
I1023 23:10:40.732292 21451 net.cpp:110] Creating Layer relu1
I1023 23:10:40.732318 21451 net.cpp:477] relu1 <- pool1
I1023 23:10:40.732343 21451 net.cpp:419] relu1 -> pool1 (in-place)
I1023 23:10:40.732373 21451 net.cpp:155] Setting up relu1
I1023 23:10:40.732399 21451 net.cpp:163] Top shape: 100 48 15 15 (1080000)
I1023 23:10:40.732421 21451 layer_factory.hpp:76] Creating layer conv2
I1023 23:10:40.732453 21451 net.cpp:110] Creating Layer conv2
I1023 23:10:40.732476 21451 net.cpp:477] conv2 <- pool1
I1023 23:10:40.732504 21451 net.cpp:433] conv2 -> conv2
I1023 23:10:40.737747 21451 net.cpp:155] Setting up conv2
I1023 23:10:40.737833 21451 net.cpp:163] Top shape: 100 48 10 10 (480000)
I1023 23:10:40.737874 21451 layer_factory.hpp:76] Creating layer relu2
I1023 23:10:40.737910 21451 net.cpp:110] Creating Layer relu2
I1023 23:10:40.737936 21451 net.cpp:477] relu2 <- conv2
I1023 23:10:40.737969 21451 net.cpp:419] relu2 -> conv2 (in-place)
I1023 23:10:40.738004 21451 net.cpp:155] Setting up relu2
I1023 23:10:40.738034 21451 net.cpp:163] Top shape: 100 48 10 10 (480000)
I1023 23:10:40.738067 21451 layer_factory.hpp:76] Creating layer pool2
I1023 23:10:40.738097 21451 net.cpp:110] Creating Layer pool2
I1023 23:10:40.738121 21451 net.cpp:477] pool2 <- conv2
I1023 23:10:40.738148 21451 net.cpp:433] pool2 -> pool2
I1023 23:10:40.738234 21451 net.cpp:155] Setting up pool2
I1023 23:10:40.738268 21451 net.cpp:163] Top shape: 100 48 5 5 (120000)
I1023 23:10:40.738294 21451 layer_factory.hpp:76] Creating layer ip_1
I1023 23:10:40.738327 21451 net.cpp:110] Creating Layer ip_1
I1023 23:10:40.738351 21451 net.cpp:477] ip_1 <- pool2
I1023 23:10:40.738389 21451 net.cpp:433] ip_1 -> ip1
I1023 23:10:40.742691 21451 net.cpp:155] Setting up ip_1
I1023 23:10:40.742807 21451 net.cpp:163] Top shape: 100 48 (4800)
I1023 23:10:40.742852 21451 layer_factory.hpp:76] Creating layer relu1
I1023 23:10:40.742892 21451 net.cpp:110] Creating Layer relu1
I1023 23:10:40.742915 21451 net.cpp:477] relu1 <- ip1
I1023 23:10:40.742949 21451 net.cpp:419] relu1 -> ip1 (in-place)
I1023 23:10:40.742982 21451 net.cpp:155] Setting up relu1
I1023 23:10:40.743010 21451 net.cpp:163] Top shape: 100 48 (4800)
I1023 23:10:40.743033 21451 layer_factory.hpp:76] Creating layer ip_2
I1023 23:10:40.743065 21451 net.cpp:110] Creating Layer ip_2
I1023 23:10:40.743094 21451 net.cpp:477] ip_2 <- ip1
I1023 23:10:40.743129 21451 net.cpp:433] ip_2 -> ip2
I1023 23:10:40.743342 21451 net.cpp:155] Setting up ip_2
I1023 23:10:40.743379 21451 net.cpp:163] Top shape: 100 10 (1000)
I1023 23:10:40.743410 21451 layer_factory.hpp:76] Creating layer loss
I1023 23:10:40.743444 21451 net.cpp:110] Creating Layer loss
I1023 23:10:40.743468 21451 net.cpp:477] loss <- ip2
I1023 23:10:40.743494 21451 net.cpp:477] loss <- label
I1023 23:10:40.743526 21451 net.cpp:433] loss -> loss
I1023 23:10:40.743563 21451 layer_factory.hpp:76] Creating layer loss
I1023 23:10:40.743805 21451 net.cpp:155] Setting up loss
…
I1023 23:10:40.744828 21451 solver.cpp:187] Creating test net (#0) specified by net file: examples/nuclei/multi_class_nuclei/multi_class_nuclei_train_test.prototxt
I1023 23:10:40.744915 21451 net.cpp:339] The NetState phase (1) differed from the phase (0) specified by a rule in layer nuclei
I1023 23:10:40.745108 21451 net.cpp:50] Initializing net from parameters: 
name: "NULCEI_quick"
state {
  phase: TEST
}
layer {
  name: "nuclei"
  type: "ImageData"
  top: "data"
  top: "label"
  include {
    phase: TEST
  }
  image_data_param {
    source: "/home/sanuj/Projects/BTP/data/10_class_images/test.txt"
    batch_size: 500
  }
}
layer {
  name: "conv1"
  type: "Convolution"
  bottom: "data"
  top: "conv1"
  param {
    lr_mult: 0.1
  }
  param {
    lr_mult: 0.2
  }
  convolution_param {
    num_output: 48
    pad: 0
    kernel_size: 4
    stride: 1
    weight_filler {
      type: "gaussian"
      std: 0.0001
    }
    bias_filler {
      type: "constant"
    }
  }
}
layer {
  name: "pool1"
  type: "Pooling"
  bottom: "conv1"
  top: "pool1"
  pooling_param {
    pool: MAX
    kernel_size: 2
    stride: 2
  }
}
layer {
  name: "relu1"
  type: "ReLU"
  bottom: "pool1"
  top: "pool1"
}
layer {
  name: "conv2"
  type: "Convolution"
  bottom: "pool1"
  top: "conv2"
  param {
    lr_mult: 0.1
  }
  param {
    lr_mult: 0.2
  }
  convolution_param {
    num_output: 48
    pad: 0
    kernel_size: 6
    stride: 1
    weight_filler {
      type: "gaussian"
      std: 0.01
    }
    bias_filler {
      type: "constant"
    }
  }
}
layer {
  name: "relu2"
  type: "ReLU"
  bottom: "conv2"
  top: "conv2"
}
layer {
  name: "pool2"
  type: "Pooling"
  bottom: "conv2"
  top: "pool2"
  pooling_param {
    pool: MAX
    kernel_size: 2
    stride: 2
  }
}
layer {
  name: "ip_1"
  type: "InnerProduct"
  bottom: "pool2"
  top: "ip1"
  param {
    lr_mult: 1
  }
  param {
    lr_mult: 2
  }
  inner_product_param {
    num_output: 48
    weight_filler {
      type: "gaussian"
      std: 0.1
    }
    bias_filler {
      type: "constant"
    }
  }
}
layer {
  name: "relu1"
  type: "ReLU"
  bottom: "ip1"
  top: "ip1"
}
layer {
  name: "ip_2"
  type: "InnerProduct"
  bottom: "ip1"
  top: "ip2"
  param {
    lr_mult: 1
  }
  param {
    lr_mult: 2
  }
  inner_product_param {
    num_output: 10
    weight_filler {
      type: "gaussian"
      std: 0.1
    }
    bias_filler {
      type: "constant"
    }
  }
}
layer {
  name: "accuracy"
  type: "Accuracy"
  bottom: "ip2"
  bottom: "label"
  top: "accuracy"
  include {
    phase: TEST
  }
}
layer {
  name: "loss"
  type: "SoftmaxWithLoss"
  bottom: "ip2"
  bottom: "label"
  top: "loss"
}
I1023 23:10:40.745882 21451 layer_factory.hpp:76] Creating layer nuclei
I1023 23:10:40.745931 21451 net.cpp:110] Creating Layer nuclei
I1023 23:10:40.745959 21451 net.cpp:433] nuclei -> data
I1023 23:10:40.745990 21451 net.cpp:433] nuclei -> label
I1023 23:10:40.746021 21451 image_data_layer.cpp:37] Opening file /home/sanuj/Projects/BTP/data/10_class_images/test.txt
I1023 23:10:40.777328 21451 image_data_layer.cpp:52] A total of 34999 images.
I1023 23:10:40.777603 21451 image_data_layer.cpp:79] output data size: 500,3,33,33
I1023 23:10:40.805501 21451 net.cpp:155] Setting up nuclei
I1023 23:10:40.805608 21451 net.cpp:163] Top shape: 500 3 33 33 (1633500)
I1023 23:10:40.805656 21451 net.cpp:163] Top shape: 500 (500)
I1023 23:10:40.805696 21451 layer_factory.hpp:76] Creating layer label_nuclei_1_split
I1023 23:10:40.805753 21451 net.cpp:110] Creating Layer label_nuclei_1_split
I1023 23:10:40.805795 21451 net.cpp:477] label_nuclei_1_split <- label
I1023 23:10:40.805825 21451 net.cpp:433] label_nuclei_1_split -> label_nuclei_1_split_0
I1023 23:10:40.805860 21451 net.cpp:433] label_nuclei_1_split -> label_nuclei_1_split_1
I1023 23:10:40.805949 21451 net.cpp:155] Setting up label_nuclei_1_split
I1023 23:10:40.805979 21451 net.cpp:163] Top shape: 500 (500)
I1023 23:10:40.806005 21451 net.cpp:163] Top shape: 500 (500)
I1023 23:10:40.806030 21451 layer_factory.hpp:76] Creating layer conv1
I1023 23:10:40.806062 21451 net.cpp:110] Creating Layer conv1
I1023 23:10:40.806087 21451 net.cpp:477] conv1 <- data
I1023 23:10:40.806116 21451 net.cpp:433] conv1 -> conv1
I1023 23:10:40.806535 21451 net.cpp:155] Setting up conv1
I1023 23:10:40.806568 21451 net.cpp:163] Top shape: 500 48 30 30 (21600000)
I1023 23:10:40.806605 21451 layer_factory.hpp:76] Creating layer pool1
I1023 23:10:40.806633 21451 net.cpp:110] Creating Layer pool1
I1023 23:10:40.806656 21451 net.cpp:477] pool1 <- conv1
I1023 23:10:40.806682 21451 net.cpp:433] pool1 -> pool1
I1023 23:10:40.806768 21451 net.cpp:155] Setting up pool1
I1023 23:10:40.806802 21451 net.cpp:163] Top shape: 500 48 15 15 (5400000)
I1023 23:10:40.806830 21451 layer_factory.hpp:76] Creating layer relu1
I1023 23:10:40.806861 21451 net.cpp:110] Creating Layer relu1
I1023 23:10:40.806890 21451 net.cpp:477] relu1 <- pool1
I1023 23:10:40.806921 21451 net.cpp:419] relu1 -> pool1 (in-place)
I1023 23:10:40.806953 21451 net.cpp:155] Setting up relu1
I1023 23:10:40.806982 21451 net.cpp:163] Top shape: 500 48 15 15 (5400000)
I1023 23:10:40.807008 21451 layer_factory.hpp:76] Creating layer conv2
I1023 23:10:40.807044 21451 net.cpp:110] Creating Layer conv2
I1023 23:10:40.807070 21451 net.cpp:477] conv2 <- pool1
I1023 23:10:40.807098 21451 net.cpp:433] conv2 -> conv2
I1023 23:10:40.815768 21451 net.cpp:155] Setting up conv2
I1023 23:10:40.815964 21451 net.cpp:163] Top shape: 500 48 10 10 (2400000)
I1023 23:10:40.816097 21451 layer_factory.hpp:76] Creating layer relu2
I1023 23:10:40.816217 21451 net.cpp:110] Creating Layer relu2
I1023 23:10:40.816329 21451 net.cpp:477] relu2 <- conv2
I1023 23:10:40.816445 21451 net.cpp:419] relu2 -> conv2 (in-place)
I1023 23:10:40.816565 21451 net.cpp:155] Setting up relu2
I1023 23:10:40.816684 21451 net.cpp:163] Top shape: 500 48 10 10 (2400000)
I1023 23:10:40.816793 21451 layer_factory.hpp:76] Creating layer pool2
I1023 23:10:40.816911 21451 net.cpp:110] Creating Layer pool2
I1023 23:10:40.817023 21451 net.cpp:477] pool2 <- conv2
I1023 23:10:40.817137 21451 net.cpp:433] pool2 -> pool2
I1023 23:10:40.817327 21451 net.cpp:155] Setting up pool2
I1023 23:10:40.817446 21451 net.cpp:163] Top shape: 500 48 5 5 (600000)
I1023 23:10:40.817556 21451 layer_factory.hpp:76] Creating layer ip_1
I1023 23:10:40.817689 21451 net.cpp:110] Creating Layer ip_1
I1023 23:10:40.817805 21451 net.cpp:477] ip_1 <- pool2
I1023 23:10:40.817919 21451 net.cpp:433] ip_1 -> ip1
I1023 23:10:40.821064 21451 net.cpp:155] Setting up ip_1
I1023 23:10:40.821238 21451 net.cpp:163] Top shape: 500 48 (24000)
I1023 23:10:40.821367 21451 layer_factory.hpp:76] Creating layer relu1
I1023 23:10:40.821485 21451 net.cpp:110] Creating Layer relu1
I1023 23:10:40.821596 21451 net.cpp:477] relu1 <- ip1
I1023 23:10:40.821727 21451 net.cpp:419] relu1 -> ip1 (in-place)
I1023 23:10:40.821846 21451 net.cpp:155] Setting up relu1
I1023 23:10:40.821961 21451 net.cpp:163] Top shape: 500 48 (24000)
I1023 23:10:40.822072 21451 layer_factory.hpp:76] Creating layer ip_2
I1023 23:10:40.822187 21451 net.cpp:110] Creating Layer ip_2
I1023 23:10:40.822299 21451 net.cpp:477] ip_2 <- ip1
I1023 23:10:40.822412 21451 net.cpp:433] ip_2 -> ip2
I1023 23:10:40.822737 21451 net.cpp:155] Setting up ip_2
I1023 23:10:40.822863 21451 net.cpp:163] Top shape: 500 10 (5000)
I1023 23:10:40.822983 21451 layer_factory.hpp:76] Creating layer ip2_ip_2_0_split
I1023 23:10:40.823097 21451 net.cpp:110] Creating Layer ip2_ip_2_0_split
I1023 23:10:40.823210 21451 net.cpp:477] ip2_ip_2_0_split <- ip2
I1023 23:10:40.823336 21451 net.cpp:433] ip2_ip_2_0_split -> ip2_ip_2_0_split_0
I1023 23:10:40.823472 21451 net.cpp:433] ip2_ip_2_0_split -> ip2_ip_2_0_split_1
I1023 23:10:40.823711 21451 net.cpp:155] Setting up ip2_ip_2_0_split
I1023 23:10:40.823843 21451 net.cpp:163] Top shape: 500 10 (5000)
I1023 23:10:40.823876 21451 net.cpp:163] Top shape: 500 10 (5000)
I1023 23:10:40.823909 21451 layer_factory.hpp:76] Creating layer accuracy
I1023 23:10:40.823943 21451 net.cpp:110] Creating Layer accuracy
I1023 23:10:40.823971 21451 net.cpp:477] accuracy <- ip2_ip_2_0_split_0
I1023 23:10:40.823999 21451 net.cpp:477] accuracy <- label_nuclei_1_split_0
I1023 23:10:40.824043 21451 net.cpp:433] accuracy -> accuracy
I1023 23:10:40.824082 21451 net.cpp:155] Setting up accuracy
…
